continual learning/ModTest2/results/gem_GMod2Cov_nv_0.0_False_5_fashion_mnist_permutations_reduced.pt_2021_08_13_14_51_35_54488098464e4f6aa76603f5d074f430.pt (torch, 368925 bytes, 8 tensors)

tensor f4 [101]
0.0 0.0 0.0 0.0 0.0 0.0 0.0 0.0
0.0 0.0 0.0 1.0 1.0 1.0 1.0 1.0
1.0 1.0 1.0 1.0 1.0 2.0 2.0 2.0
2.0 2.0 2.0 2.0 2.0 2.0 2.0 3.0
3.0 3.0 3.0 3.0 3.0 3.0 3.0 3.0
3.0 4.0 4.0 4.0 4.0 4.0 4.0 4.0
4.0 4.0 4.0 5.0 5.0 5.0 5.0 5.0
5.0 5.0 5.0 5.0 5.0 6.0 6.0 6.0
6.0 6.0 6.0 6.0 6.0 6.0 6.0 7.0
7.0 7.0 7.0 7.0 7.0 7.0 7.0 7.0
7.0 8.0 8.0 8.0 8.0 8.0 8.0 8.0
8.0 8.0 8.0 9.0 9.0 9.0 9.0 9.0
9.0 9.0 9.0 9.0 9.0
00000000: 0000 0000 0000 0000 0000 0000 0000 0000
00000010: 0000 0000 0000 0000 0000 0000 0000 0000
00000020: 0000 0000 0000 0000 0000 0000 0000 803f
00000030: 0000 803f 0000 803f 0000 803f 0000 803f
00000040: 0000 803f 0000 803f 0000 803f 0000 803f
00000050: 0000 803f 0000 0040 0000 0040 0000 0040
00000060: 0000 0040 0000 0040 0000 0040 0000 0040
00000070: 0000 0040 0000 0040 0000 0040 0000 4040
00000080: 0000 4040 0000 4040 0000 4040 0000 4040
00000090: 0000 4040 0000 4040 0000 4040 0000 4040
000000a0: 0000 4040 0000 8040 0000 8040 0000 8040
000000b0: 0000 8040 0000 8040 0000 8040 0000 8040
000000c0: 0000 8040 0000 8040 0000 8040 0000 a040
000000d0: 0000 a040 0000 a040 0000 a040 0000 a040
000000e0: 0000 a040 0000 a040 0000 a040 0000 a040
000000f0: 0000 a040 0000 c040 0000 c040 0000 c040
00000100: 0000 c040 0000 c040 0000 c040 0000 c040
00000110: 0000 c040 0000 c040 0000 c040 0000 e040
00000120: 0000 e040 0000 e040 0000 e040 0000 e040
00000130: 0000 e040 0000 e040 0000 e040 0000 e040
00000140: 0000 e040 0000 0041 0000 0041 0000 0041
00000150: 0000 0041 0000 0041 0000 0041 0000 0041
00000160: 0000 0041 0000 0041 0000 0041 0000 1041
00000170: 0000 1041 0000 1041 0000 1041 0000 1041
00000180: 0000 1041 0000 1041 0000 1041 0000 1041
00000190: 0000 1041

tensor f4 [101, 10]
0.0976 0.1367 0.0812 0.1172 0.104 0.1424 0.0701 0.0995
0.0855 0.0834 0.443 0.1225 0.1094 0.0896 0.1131 0.1336
0.1044 0.1178 0.1007 0.1058 0.4329 0.1484 0.1189 0.0984
0.0905 0.1231 0.1591 0.1128 0.1466 0.1663 0.5147 0.1734
0.1458 0.1362 0.0969 0.1943 0.1458 0.1321 0.1541 0.1308
0.569 0.1471 0.158 0.1403 0.0995 0.1213 0.1441 0.0819
0.1669 0.101 0.6395 0.1596 0.2024 0.1541 0.1383 0.1466
0.1467 0.1407 0.1594 0.1465 0.6406 0.1853 0.1358 0.1397
0.1042 0.2058 0.174 0.108 0.1638 0.1916 0.6448 0.1639
0.144 0.1405 0.144 0.1565 0.1586 0.1434 0.1487 0.1677
0.651 0.1692 0.1489 0.1556 0.0963 0.1526 0.1699 0.1615
0.1779 0.1547 0.704 0.1593 0.1444 0.1482 0.1171 0.1968
0.1576 0.108 0.1917 0.1574 0.6413 0.1755 0.1481 0.1614
0.1616 0.1781 0.1598 0.1182 0.1658 0.1631 0.6073 0.4589
0.1599 0.1246 0.1348 0.169 0.1456 0.1029 0.1331 0.1457
0.5714 0.5186 0.1339 0.1224 0.1331 0.1792 0.1382 0.1237
0.1401 0.1782 0.58 0.5507 0.1332 0.124 0.1306 0.1231
0.1415 0.1317 0.1439 0.1476 0.5575 0.571 0.1452 0.1278
0.1259 0.1153 0.1435 0.1279 0.1515 0.1548 0.5995 0.6468
0.1698 0.1394 0.1238 0.144 0.1519 0.1323 0.1564 0.174
0.5979 0.6545 0.1627 0.1297 0.1414 0.1607 0.1497 0.1429
0.136 0.1559 0.5817 0.6937 0.1551 0.1309 0.1414 0.1508
0.1464 0.1367 0.1332 0.149 0.5822 0.676 0.2172 0.1608
0.1606 0.1224 0.1436 0.1442 0.1392 0.1652 0.562 0.686
0.1852 0.138 0.1185 0.1287 0.1686 0.1485 0.1632 0.1768
0.579 0.6401 0.1527 0.1203 0.1309 0.1194 0.1485 0.1366
0.1394 0.1528 0.573 0.6836 0.5546 0.1258 0.1606 0.1827
0.1899 0.1476 0.1592 0.1884 0.5259 0.6559 0.5011 0.1544
0.148 0.2205 0.1627 0.1627 0.1441 0.1527 0.5492 0.6502
0.6494 0.1981 0.1574 0.1626 0.1526 0.1676 0.144 0.1745
0.5834 0.6524 0.6295 0.1672 0.1521 0.1639 0.1701 0.1468
0.1413 0.1669 0.5331 0.6179 0.587 0.1491 0.1424 0.1834
00000000: 82e2 c73d 16fb 0b3e 304c a63d 8e06 f03d
00000010: f4fd d43d 4ed1 113e 9790 8f3d a8c6 cb3d
00000020: a01a af3d 9fcd aa3d e5d0 e23e 48e1 fa3d
00000030: 1b0d e03d 3480 b73d f9a0 e73d 70ce 083e
00000040: abcf d53d 2041 f13d cd3b ce3d acad d83d
00000050: 12a5 dd3e 2bf6 173e d881 f33d f085 c93d
00000060: 1058 b93d da1b fc3d 1ceb 223e b003 e73d
00000070: 4f1e 163e 8c4a 2a3e 61c3 033f c58f 313e
00000080: 984c 153e 0378 0b3e 8273 c63d 94f6 463e
00000090: 984c 153e 3945 073e 64cc 1d3e 6ff0 053e
000000a0: fca9 113f 62a1 163e c1ca 213e ceaa 0f3e
000000b0: a8c6 cb3d 226c f83d f38e 133e 30bb a73d
000000c0: d5e7 2a3e 17d9 ce3d 46b6 233f 2f6e 233e
000000d0: f241 4f3e 64cc 1d3e 849e 0d3e 4f1e 163e
000000e0: 8638 163e a913 103e c139 233e 1904 163e
000000f0: 5dfe 233f 48bf 3d3e 280f 0b3e 840d 0f3e
00000100: cf66 d53d 3cbd 523e 0e2d 323e 1b2f dd3d
00000110: 30bb 273e ca32 443e 9d11 253f 67d5 273e
00000120: bc74 133e 3bdf 0f3e bc74 133e 8941 203e
00000130: 0a68 223e 73d7 123e d044 183e 8cb9 2b3e
00000140: f0a7 263f c442 2d3e 3e79 183e 9b55 1f3e
00000150: ef38 c53d 2d43 1c3e 44fa 2d3e 4260 253e
00000160: 6b2b 363e ad69 1e3e 5839 343f 8a1f 233e
00000170: 98dd 133e bec1 173e 20d2 ef3d f085 493e
00000180: e561 213e 1b2f dd3d 014d 443e 772d 213e
00000190: 3d2c 243f 46b6 333e 87a7 173e 0b46 253e
000001a0: 787a 253e d95f 363e 9ca2 233e d712 f23d
000001b0: 7ac7 293e b003 273e 0378 1b3f f1f4 ea3e
000001c0: d3bc 233e 492e ff3d 0309 0a3e 560e 2d3e
000001d0: 2b18 153e 3cbd d23d 5e4b 083e 6132 153e
000001e0: 4547 123f f8c2 043f 151d 093e daac fa3d
000001f0: 5e4b 083e 3480 373e 4d84 0d3e 6d56 fd3d
00000200: 6076 0f3e 107a 363e e17a 143f adfa 0c3f
00000210: 9565 083e b6f3 fd3d 02bc 053e da1b fc3d
00000220: 60e5 103e 5ddc 063e 865a 133e 7424 173e
00000230: 52b8 0e3f 0e2d 123f 4faf 143e 01de 023e
00000240: eeeb 003e 6822 ec3d aaf1 123e 38f8 023e
00000250: d122 1b3e e483 1e3e d578 193f af94 253f
00000260: 0de0 2d3e e0be 0e3e db8a fd3d bc74 133e
00000270: ac8b 1b3e a779 073e 5227 203e 0e2d 323e
00000280: f90f 193f 508d 273f d49a 263e 14d0 043e
00000290: 29cb 103e 8a8e 243e f54a 193e 6154 123e
000002a0: 9643 0b3e 40a4 1f3e 4bea 143f 5396 313f
000002b0: 89d2 1e3e a60a 063e 29cb 103e 516b 1a3e
000002c0: e2e9 153e 16fb 0b3e 9565 083e 7593 183e
000002d0: 0f0b 153f 560e 2d3f ad69 5e3e c1a8 243e
000002e0: 5474 243e daac fa3d e10b 133e 2aa9 133e
000002f0: 728a 0e3e 302a 293e 3bdf 0f3f b29d 2f3f
00000300: 12a5 3d3e df4f 0d3e 21b0 f23d efc9 033e
00000310: 7aa5 2c3e 6210 183e e71d 273e 0f0b 353e
00000320: 5839 143f 98dd 233f 645d 1c3e d95f f63d
00000330: a60a 063e fd87 f43d 6210 183e dfe0 0b3e
00000340: e0be 0e3e 9a77 1c3e 21b0 123f 6900 2f3f
00000350: 44fa 0d3f b7d1 003e 5474 243e b515 3b3e
00000360: 2575 423e 7424 173e 5305 233e eeeb 403e
00000370: 62a1 063f 10e9 273f 1748 003f 091b 1e3e
00000380: 508d 173e c1ca 613e d49a 263e d49a 263e
00000390: f38e 133e 645d 1c3e 5f98 0c3f 8273 263f
000003a0: 143f 263f bada 4a3e 772d 213e 9d80 263e
000003b0: 2d43 1c3e 569f 2b3e bc74 133e 21b0 323e
000003c0: b459 153f b003 273f e926 213f 7a36 2b3e
000003d0: 1ac0 1b3e 67d5 273e b22e 2e3e bd52 163e
000003e0: f2b0 103e d5e7 2a3e 3e79 083f b22e 1e3f
000003f0: a245 163f acad 183e 4ed1 113e 36cd 3b3e

net.net.0.weight f4 [100, 784]
-0.033285234 -0.052108794 0.020853112 -0.008459787 -0.06931361 0.0072120195 -0.02164278 -0.022043547
-0.036630835 0.07086158 -0.013325361 -0.020030748 -0.0030934515 -0.038364217 0.034339674 -0.023552155
0.0043967622 0.0017783924 -0.015096637 -0.043826558 -0.077839755 -0.022455886 0.03395378 -0.009830326
-0.08052668 -0.043249696 0.03755819 -0.04961271 0.025701202 -0.073978886 0.019959902 -0.002338822
-0.06275484 -0.078889675 -0.06242141 -0.03042712 0.021053934 0.031529292 -3.7754184e-05 -0.025386317
0.061353542 0.022752838 0.03368575 -0.005787032 0.019954536 -0.027253764 0.04296364 0.06517669
0.07644166 0.07926155 -0.025845448 -0.023502978 -0.062406525 0.02711591 0.060762882 0.020820996
-0.05965027 0.0012436671 -0.03283675 0.06575059 0.019211318 -0.031266898 0.07550667 0.05515331
0.04675705 -0.0728219 0.027866675 0.04462869 0.06991308 0.028492004 -0.077841684 -0.014455467
0.0046766233 -0.02215915 0.06915428 0.050031688 0.06427914 -0.002416241 -0.008142229 -0.05975116
-0.03944107 -0.05049594 -0.049174726 -0.023166291 0.0770709 -0.03036275 -0.0754294 -0.0135805365
0.004692942 -0.067141876 -0.016846474 -0.028482804 -0.070143394 0.046811298 0.048571702 -0.043822378
0.01578627 -0.06665627 -0.06582168 0.08149389 0.05357068 -0.027956782 -0.008929192 -0.078721724
0.019399658 -0.037087042 -0.04010935 0.073136665 0.08043698 -0.06512422 -0.06897486 0.052892607
-0.051017243 0.025825288 0.037836656 0.0748263 -0.013672541 -0.024992622 0.060414337 0.029764198
0.088644125 0.012241261 0.01921136 0.01796134 -0.022351068 0.07488743 -0.0026200658 -0.058056798
0.014342842 -0.07784825 -0.02327596 -0.009204266 -0.027377227 -0.020514814 -0.057532303 0.018023316
-0.081730574 -0.0083086975 0.08058702 -0.06990611 0.02799684 0.05662387 0.05136466 -0.029869502
-0.04463539 -0.046128992 -0.06021332 -0.036012262 0.049033497 -0.062977195 -0.037375614 -0.06249125
0.06575301 -0.011182543 -0.022076454 0.016279783 -0.081502475 0.005521529 -0.083145805 -0.027662143
0.04961884 -0.012461179 0.0071346257 0.039006617 -0.06453428 0.0434706 -0.011973235 0.040557675
0.005670208 -0.064949535 0.025499899 -0.07412261 0.06512316 -0.074340545 -0.08371024 -0.031202331
0.00092373666 0.07267552 0.02260831 -0.046011038 0.02022452 -0.049813528 -0.073310055 0.06479474
-0.020830387 0.061204404 -0.048833117 0.035521984 -0.023173492 -0.03929716 -0.047060654 0.033075236
-0.073098615 -0.050328404 -0.012815518 0.018885141 -0.05064046 0.06315903 -0.05770859 -0.031207064
0.030602023 -0.0030654245 -0.007987144 0.043978523 -0.07330512 0.07886803 0.03826129 -0.0862341
0.036236793 0.06814945 -0.07885232 0.066437915 -0.05902112 0.08263261 -0.02836514 -0.06948252
-0.0495657 0.04498028 -0.07183828 -0.06348329 0.065720305 -0.028391069 0.07187487 -0.021751072
-0.054709382 0.04311727 -0.0346146 -0.047052436 -0.03494228 -0.0047340365 -0.0062346593 0.01546792
-0.038285945 0.032507036 -0.059505906 -0.043756742 -0.02932118 -0.052878615 0.05650394 -0.06778981
0.015674947 0.0031245514 0.0442343 -0.06387794 -0.021599276 -0.08186067 -0.005399458 -0.065223694
-0.020098172 -0.05737351 0.07799875 -0.023593763 0.07939169 0.05306587 -0.021615207 -0.06440517
00000000: 1956 08bd 0870 55bd 25d4 aa3c eb9a 0abc
00000010: 4bf4 8dbd ce52 ec3b 334c b1bc ab94 b4bc
00000020: 370a 16bd e01f 913d 9d52 5abc 8617 a4bc
00000030: 81bb 4abb cc23 1dbd c2a7 0c3d 73f0 c0bc
00000040: b712 903b f218 e93a e357 77bc 7a83 33bd
00000050: 736a 9fbd 68f5 b7bc 1e13 0b3d 600f 21bc
00000060: 2ceb a4bd 9826 31bd 9ed6 193d b236 4bbd
00000070: 548b d23c 3e82 97bd f382 a33c ec46 19bb
00000080: 9c85 80bd e990 a1bd 98ad 7fbd 4c42 f9bc
00000090: 4d79 ac3c dc24 013d 3f5a 1eb8 f7f6 cfbc
000000a0: da4d 7b3d 2964 ba3c 12fa 093d 25a1 bdbb
000000b0: b277 a33c 4943 dfbc a4fa 2f3d 5b7b 853d
000000c0: 728d 9c3d e153 a23d d5b9 d3bc 5189 c0bc
000000d0: fc9d 7fbd 2f22 de3c 80e2 783d cb90 aa3c
000000e0: d753 74bd 8b02 a33a d47f 06bd 3fa8 863d
000000f0: 0e61 9d3c b811 00bd 3ea3 9a3d 70e8 613d
00000100: 5284 3f3d a623 95bd a748 e43c 93cc 363d
00000110: 972e 8f3d 1068 e93c 766b 9fbd a0d6 6cbc
00000120: 5c3e 993b 1b87 b5bc c2a0 8d3d 07ee 4c3d
00000130: c8a4 833d cc59 1ebb fc66 05bc a2bd 74bd
00000140: f68c 21bd d5d4 4ebd 706b 49bd 3cc7 bdbc
00000150: 59d7 9d3d 4dbb f8bc bb7a 9abd e680 5ebc
00000160: 40c7 993b ae81 89bd 9e01 8abc c554 e9bc
00000170: 57a7 8fbd 34bd 3f3d 1ff3 463d 187f 33bd
00000180: 3552 813c 1583 88bd 84cd 86bd 45e6 a63d
00000190: ee6c 5b3d 9f05 e5bc bf4b 12bc db38 a1bd
000001a0: 08ec 9e3c 95e8 17bd b449 24bd adc8 953d
000001b0: 25bc a43d d95f 85bd b142 8dbd eba5 583d
000001c0: 75f7 50bd 8e8f d33c 9cfa 1a3d 883e 993d
000001d0: cb02 60bc 54bd ccbc 0675 773d 0cd4 f33c
000001e0: 0d8b b53d 928f 483c 2461 9d3c a923 933c
000001f0: 9619 b7bc 955e 993d 69b5 2bbb f7cc 6dbd
00000200: 3dfe 6a3c e76e 9fbd 3aad bebc 7dcd 16bc
00000210: 3546 e0bc af0e a8bc fea6 6bbd a2a5 933c
00000220: 5c62 a7bd 3421 08bc cf0a a53d ef2a 8fbd
00000230: a159 e53c 6eee 673d c063 523d e3b0 f4bc
00000240: 99d3 36bd c1f1 3cbd 3ea2 76bd 9881 13bd
00000250: 59d7 483d 30fa 80bd 2c17 19bd d3f6 7fbd
00000260: 84a9 863d fc36 37bc aed9 b4bc 2e5d 853c
00000270: c5ea a6bd f1ed b43b 5948 aabd b89b e2bc
00000280: 203d 4b3d f929 4cbc 94c9 e93b 67c5 1f3d
00000290: 8c2a 84bd 3a0e 323d 632b 44bc ce1f 263d
000002a0: 27cd b93b 4304 85bd 2ae5 d03c 98cd 97bd
000002b0: 4b5f 853d db3f 98bd 4670 abbd 089c ffbc
000002c0: eb26 723a e7d6 943d 1035 b93c 1276 3cbd
000002d0: e4ad a53c 4509 4cbd 9523 96bd 1bb3 843d
000002e0: 7da4 aabc 78b1 7a3d 3c05 48bd 807f 113d
000002f0: 56d6 bdbc 0ff6 20bd acc2 40bd e679 073d
00000300: bab4 95bd 2825 4ebd 2ef8 51bc 03b5 9a3c
00000310: 5f6c 4fbd 8659 813d d85f 6cbd f5a5 ffbc
00000320: 18b1 fa3c 4ae5 48bb 83dc 02bc d322 343d
00000330: ff20 96bd 9085 a13d dfb7 1c3d 819b b0bd
00000340: 086d 143d f091 8b3d 537d a1bd 9a10 883d
00000350: 21c0 71bd 493b a93d 035e e8bc da4c 8ebd
00000360: 6705 4bbd 3e3d 383d f31f 93bd 8703 82bd
00000370: 5e98 863d 6394 e8bc 2233 933d 4e2f b2bc
00000380: f216 60bd bc9b 303d 0ac8 0dbd 0eba 40bd
00000390: a31f 0fbd fa1f 9bbb 1d4c ccbb 296d 7d3c
000003a0: b9d1 1cbd 1926 053d 77bc 73bd 453a 33bd
000003b0: f932 f0bc 3f97 58bd ad70 673d 62d5 8abd
000003c0: bf68 803c 46c5 4c3b 062f 353d 70d2 82bd
000003d0: f7f0 b0bc 91a6 a7bd f0ed b0bb 0094 85bd
000003e0: eca4 a4bc 7c00 6bbd cfbd 9f3d b547 c1bc
000003f0: 1c98 a23d 995b 593d 6012 b1bc dce6 83bd

net.net.0.bias f4 [100]
0.01012455 0.41145313 0.21281002 0.09270258 0.0585543 -0.010351177 0.19971168 -0.19187702
0.22466308 -0.17748897 -0.0066006994 -0.07382836 -0.0030504516 0.16056311 0.07921725 -0.008640901
0.100620784 -0.2140169 -0.07979889 -0.022868237 0.25345266 0.035988577 0.04030693 -0.02496584
-0.0067254715 0.22270188 0.15920436 -0.043239307 0.012470423 -0.020216092 0.07512021 -0.15761562
0.32650796 -0.07084111 -0.024956109 0.11948113 -0.05858891 -0.020748492 -0.024800535 0.019205347
-0.110516034 0.012460339 -0.026512478 0.106312685 0.38784084 0.033744883 0.13433011 0.11441627
-0.008457941 0.19704273 -0.03321094 0.10971732 -0.07843498 0.3562235 -0.000547297 0.106828034
0.07294535 0.34006009 0.03588137 0.34747902 0.25685418 -0.07464282 0.04814261 0.092674874
0.15603548 0.13775402 -0.030295774 -0.09173549 0.042983703 0.39128673 0.046765387 0.11886428
0.12603927 0.071474664 -0.04209823 -0.004040169 0.41014937 -0.0044368985 0.40208673 0.2208954
0.22464225 0.044586558 0.054862767 -0.15225823 0.21336283 0.14135352 -0.09744587 -0.033609502
0.019495646 0.18210523 -0.4730934 0.2293288 -0.11492688 0.087595806 0.09195728 -0.08757961
0.05683661 -0.001553438 0.21003479 -0.040519215
00000000: 71e1 253c fca9 d23e dfea 593e dada bd3d
00000010: a2d6 6f3d fc97 29bc 3881 4c3e 697b 44be
00000020: 140e 663e abbf 35be ae4a d8bb 5333 97bd
00000030: 16ea 47bb a86a 243e a73c a23d 9192 0dbc
00000040: 4512 ce3d 3f27 5bbe 9a6d a3bd 2b56 bbbc
00000050: 8cc4 813e c268 133d e118 253d 2985 ccbc
00000060: 5861 dcbb f60b 643e 7806 233e b31b 31bd
00000070: bf50 4c3c 389c a5bc a0d8 993d fd65 21be
00000080: 0d2c a73e 2515 91bd c170 ccbc 86b2 f43d
00000090: edfa 6fbd bef8 a9bc 7e2a cbbc 8854 9d3c
000000a0: 3b56 e2bd 7326 4c3c b230 d9bc 77ba d93d
000000b0: 1393 c63e 1338 0a3d d58d 093e 1453 ea3d
000000c0: 2d93 0abc 92c5 493e 3208 08bd 79b3 e03d
000000d0: 85a2 a0bd ed62 b63e 7b78 0fba a8c8 da3d
000000e0: 5f64 953d 5b1c ae3e 58f8 123d c5e8 b13e
000000f0: 6482 833e 56de 98bd 2f31 453d 53cc bd3d
00000100: c4c7 1f3e 640f 0d3e d82e f8bc d1df bbbd
00000110: ae0f 303d bc56 c83e 108d 3f3d 1e6f f33d
00000120: 7010 013e 4f61 923d 326f 2cbd 6563 84bb
00000130: 19ff d13e 6763 91bb 50de cd3e 6732 623e
00000140: 9e08 663e 65a0 363d c8b7 603d 95e9 1bbe
00000150: c97b 5a3e fabe 103e b391 c7bd 1eaa 09bd
00000160: 55b5 9f3c cb79 3a3e 4c39 f2be 2bd5 6a3e
00000170: c95e ebbd 6e65 b33d 1954 bc3d f05c b3bd
00000180: 81cd 683d bb9c cbba 5c13 573e 7af7 25bd

net.net.2.weight f4 [100, 100]
-0.014653793 0.055766925 -0.14530379 -0.085494414 -0.13379982 -0.15264414 -0.14230104 0.14578767
-0.01597188 0.10167556 0.15043962 -0.03179918 0.12116592 -0.15358399 -0.21888843 -0.037664197
-0.105870515 0.05310933 0.09013031 0.12915497 0.06563761 0.03679123 -0.050581336 -0.07542891
-0.118327506 -0.10561134 -0.13076922 0.015900133 0.04132807 -0.037773162 0.18292157 0.020394435
0.22480004 -0.10237055 0.13258779 -0.025239034 -0.28928605 -0.06704827 0.12300208 -0.17274284
-0.05050172 -0.06090162 -0.18469346 0.032679465 -0.085184105 -0.10009093 0.33954138 -0.08631553
-0.15535657 -0.078767695 0.13817474 -0.12841107 -0.11251751 -0.13843824 -0.02430182 0.07228749
-0.030082056 0.09917432 0.017708248 -0.16557324 0.0018296436 0.07861339 -0.1452858 0.01910204
0.20675635 -0.1206355 -0.22160685 0.109874524 0.033635538 0.0822108 -0.080297306 -0.15749262
0.14620852 0.10443167 -0.024347484 -0.12774746 0.056166332 -0.15327917 0.15234314 0.18786532
-0.08327954 0.109647185 -0.19468452 0.14142956 -0.095276125 0.03104211 -0.029050382 0.115179315
-0.073238336 -0.14946303 0.10692668 0.107999966 0.08500327 0.1731748 -0.12032381 -0.054458696
-0.13998261 -0.04355183 -0.17893247 -0.10238014 0.10261214 -0.04544491 -0.21192357 0.08274116
0.18674883 0.13534077 0.14347664 0.17337081 0.14989418 0.12549765 0.076344065 -0.16017887
0.10373544 -0.034319155 -0.16841845 -0.17073129 0.07567898 -0.016711958 -0.24347702 -0.10668386
0.042583246 -0.18005292 0.0010183865 -0.09851264 0.039180957 0.090234645 -0.0888246 0.15865983
-0.099284835 0.014631772 0.11624831 0.091941275 -0.20074248 -0.20393366 -0.10492586 -0.0029567436
-0.00015860403 0.14279677 -0.0756023 -0.19036868 -0.12273652 -0.04974514 0.025984768 -0.050338563
-0.23022331 -0.016866446 0.13915423 -0.19940387 -0.04585054 -0.18046093 -0.02716309 0.15510535
-0.014431657 -0.20789005 0.13984653 0.08688398 0.01416919 -0.23070845 -0.033098817 -0.107682206
-0.123218134 -0.0059937146 0.06922926 -0.16075328 0.027216401 -0.10331904 -0.18219054 0.1753193
-0.062838845 0.04343835 0.052875526 0.1881826 -0.13215098 0.15742108 0.04996387 0.028019268
0.07650568 -0.0930118 0.14969842 0.07508616 0.022564676 -0.10368013 -0.15626846 0.018322717
0.012535802 -0.05650524 0.051175855 0.0494653 -0.077850014 -0.05320092 -0.37360358 -0.016174011
0.01013256 -0.0002825176 -0.14198008 0.05002499 0.0571734 0.069288515 -0.006802464 0.13026038
-0.1219431 0.11001118 0.0017779409 -0.06040093 -0.109501876 0.039314914 -0.120492406 -0.005909875
0.16191451 -0.079557315 -0.083956964 -0.1799458 0.12275807 0.18385503 -0.020049829 -0.09267205
-0.06963145 -0.15819907 -0.100824565 0.037200466 0.16537887 0.044929348 0.14925058 0.02678047
0.024913236 0.05481333 -0.033894647 0.07346258 -0.011052409 -0.026335426 0.20696962 0.005763141
0.047106873 -0.048912328 -0.046939313 0.010418176 0.02789283 0.14592117 0.0047897366 -0.011982921
-0.22219396 -0.062520176 -0.054381013 -0.026457991 -0.12186713 0.08114824 0.15198645 -0.108207345
-0.035468355 -0.1401946 0.004042152 -0.122539036 -0.14947008 0.10062688 0.04088543 0.105115265
00000000: 7616 70bc dc6b 643d 84ca 14be b217 afbd
00000010: d202 09be bf4e 1cbe 5db7 11be 5d49 153e
00000020: 76d7 82bc 473b d03d d80c 1a3e db3f 02bd
00000030: d625 f83d 1f45 1dbe 4a24 60be c645 1abd
00000040: a4d2 d8bd 2b89 593d 3d96 b83d 3341 043e
00000050: 036d 863d 67b2 163d 602e 4fbd 797a 9abd
00000060: b155 f2bd c24a d8bd 5ee8 05be ff40 823c
00000070: 9f47 293d 08b8 1abd cb4f 3b3e 3b12 a73c
00000080: fb31 663e a7a7 d1bd 18c5 073e 17c2 cebc
00000090: 4d1d 94be 9a50 89bd 84e8 fb3d 80e3 30be
000000a0: e4da 4ebd fa73 79bd 4820 3dbe e7da 053d
000000b0: 0175 aebd 79fc ccbd 5ed8 ad3e 32c6 b0bd
000000c0: cb15 1fbe f550 a1bd ae7d 0d3e 317e 03be
000000d0: 956f e6bd c1c2 0dbe 9c14 c7bc 770b 943d
000000e0: a56e f6bc e81b cb3d e310 913c 088c 29be
000000f0: a7d0 ef3a 0f00 a13d cdc5 14be e27b 9c3c
00000100: f0b7 533e bf0f f7bd e8ec 62be e505 e13d
00000110: 6bc5 093d 235e a83d ea72 a4bd bf45 21be
00000120: b0b7 153e 45e0 d53d 6074 c7bc 3bd0 02be
00000130: ab0e 663d 37f5 1cbe d7ff 1b3e c45f 403e
00000140: 778e aabd b48e e03d 615b 47be e9d2 103e
00000150: 2120 c3bd 064c fe3c 11fb edbc 22e3 eb3d
00000160: fbfd 95bd d60c 19be 60fc da3d 162f dd3d
00000170: 3216 ae3d bc54 313e 546c f6bd 1510 5fbd
00000180: 9a57 0fbe 6763 32bd 133a 37be aeac d1bd
00000190: 5026 d23d 7124 3abd 7e02 59be 3374 a93d
000001a0: 163b 3f3e c596 0a3e 8aeb 123e 1e88 313e
000001b0: dc7d 193e 7582 003e 475a 9c3d ee05 24be
000001c0: 3f73 d43d 3e92 0cbd e375 2cbe 2fd4 2ebe
000001d0: 95fd 9a3d 84e7 88bc 0a52 79be 117d dabd
000001e0: c56b 2e3d cb5f 38be 617b 853a ffc0 c9bd
000001f0: 367c 203d f1cc b83d ace9 b5bd b977 223e
00000200: d955 cbbd 1aba 6f3c 9813 ee3d b54b bc3d
00000210: 708f 4dbe fcd3 50be 5fe3 d6bd edc5 41bb
00000220: f24e 26b9 5139 123e 61d5 9abd 02f0 42be
00000230: 495d fbbd 8fc1 4bbd 02de d43c cf2f 4ebd
00000240: a9bf 6bbe 802b 8abc 727e 0e3e 8730 4cbe
00000250: c7cd 3bbd c0ca 38be 2185 debc f0d3 1e3e
00000260: c272 6cbc 21e1 54be ee33 0f3e 3af0 b13d
00000270: e425 683c d63e 6cbe a092 07bd 7d88 dcbd
00000280: ca59 fcbd ec66 c4bb 12c8 8d3d 829c 24be
00000290: eef4 de3c ef98 d3bd 2890 3abe e786 333e
000002a0: a7b1 80bd 69ec 313d 0294 583d f1b2 403e
000002b0: 9652 07be fe32 213e eaa6 4c3d aa88 e53c
000002c0: 03af 9c3d f87c bebd 8b4a 193e c6c6 993d
000002d0: 8ed9 b83c 3f56 d4bd d704 20be 8619 963c
000002e0: f762 4d3c 0a72 67bd c69d 513d 209c 4a3d
000002f0: d46f 9fbd 35e9 59bd f848 bfbe 5c7f 84bc
00000300: 0903 263c df1e 94b9 3a63 11be 01e7 4c3d
00000310: a82e 6a3d 23e7 8d3d 34e7 debb fa62 053e
00000320: 4ebd f9bd 8b4d e13d cc09 e93a f766 77bd
00000330: 8542 e0bd ad08 213d b9c4 f6bd a0a7 c1bb
00000340: ebcc 253e f2ee a2bd a1f1 abbd b643 38be
00000350: 9568 fb3d 7e44 3c3e 8a3f a4bc d8ca bdbd
00000360: ef9a 8ebd f0fe 21be 1c7d cebd 845f 183d
00000370: 1459 293e d607 383d 25d5 183e b762 db3c
00000380: d816 cc3c f183 603d 1dd5 0abd 8d73 963d
00000390: 2a15 35bc 64bd d7bc d8ef 533e bbd8 bc3b
000003a0: 23f3 403d 4b58 48bd 7043 40bd ffb0 2a3c
000003b0: 817f e43c 5c6c 153e 39f3 9c3b 0354 44bc
000003c0: d086 63be 940a 80bd a0be 5ebd 6ebe d8bc
000003d0: 7995 f9bd 0c31 a63d 56a2 1b3e d09b ddbd
000003e0: 4447 11bd 2c8f 0fbe 0774 843b bff5 fabd
000003f0: af0e 19be 7715 ce3d 7b77 273d ac46 d73d

net.net.2.bias f4 [100]
0.15172179 0.711468 0.67006487 0.11565631 0.1306185 0.24106596 0.17383012 -0.06610058
-0.15993404 0.12519053 0.042405173 0.58323944 0.21548945 -0.08870393 -0.005874712 0.11029185
-0.06919067 0.013305129 0.06590257 0.9945899 0.19163702 -0.11142089 0.3279596 0.18469688
0.049195524 -0.12239742 0.73436916 -0.101120785 0.42526177 0.14543809 0.23635903 0.40365076
0.09219458 -0.01877031 0.40103197 -0.049221314 0.054159895 0.13758343 0.2629476 0.2007497
0.4502455 0.117337525 0.280584 -0.00062934175 -0.087225996 0.7173986 0.27731726 0.025081346
0.08682292 0.78498787 -0.06860241 0.5896013 0.6247396 -0.106005296 0.81157106 0.21062283
0.84189993 0.6461121 0.748096 0.28976998 -0.13783506 0.12268877 0.3035528 -0.04160319
0.25214884 0.17300768 0.17733757 0.17097962 -0.021084411 0.5370005 0.5018768 0.4646025
0.6617123 0.49416488 0.8676276 1.2677377 0.31177977 0.09517474 0.30712086 0.007797502
0.4452273 0.5478839 0.40053695 0.40892518 0.043021422 0.6056956 -0.025664065 -0.117638566
0.8240983 0.1598223 0.29887956 0.04228646 0.5489724 0.096190885 0.065594845 0.25513187
0.51187265 0.13881274 0.7242597 0.3631714
00000000: f55c 1b3e c422 363f 5f89 2b3f 37dd ec3d
00000010: dbc0 053e ffd9 763e 8600 323e be5f 87bd
00000020: c0c5 23be f231 003e 0cb1 2d3d 2e4f 153f
00000030: 44a9 5c3e 68aa b5bd a880 c0bb b2e0 e13d
00000040: d7b3 8dbd c1fd 593c edf7 863d 729d 7e3f
00000050: 7f3c 443e a330 e4bd 52ea a73e 2e21 3d3e
00000060: 3f81 493d 80ab fabd 9eff 3b3f 6a18 cfbd
00000070: e9bb d93e b9ed 143e 1a08 723e 50ab ce3e
00000080: 83d0 bc3d 31c4 99bc 1054 cd3e 4a9c 49bd
00000090: c4d6 5d3d ace2 0c3e 11a1 863e 5491 4d3e
000000a0: 9486 e63e a84e f03d b5a8 8f3e 69fa 24ba
000000b0: 8ba3 b2bd 6fa7 373f 87fc 8d3e 6577 cd3c
000000c0: 37d0 b13d f7f4 483f 6c7f 8cbd 1cf0 163f
000000d0: efee 1f3f 4e19 d9bd 1fc3 4f3f 83ad 573e
000000e0: c186 573f 9a67 253f 3883 3f3f bb5c 943e
000000f0: a224 0dbe 4044 fb3d 466b 9b3e 1b68 2abd
00000100: a719 813e ed28 313e fb97 353e 4815 2f3e
00000110: 37b9 acbc dd78 093f ff7a 003f 61e0 ed3e
00000120: fa65 293f 2e03 fd3e d81c 5e3f 3b45 a23f
00000130: 99a1 9f3e f9ea c23d f23e 9d3e 3082 ff3b
00000140: d5f4 e33e 1f42 0c3f 2e13 cd3e a45e d13e
00000150: 3b37 303d de0e 1b3f 723d d2bc 7dec f0bd
00000160: 1bf8 523f 75a8 233e be06 993e 9134 2d3d
00000170: 7589 0c3f baff c43d 9756 863d a5a0 823e
00000180: 160a 033f ed24 0e3e 1569 393f 9af1 b93e

net.net.4.weight f4 [10, 100]
-0.028336821 0.04256628 0.1432749 -0.03951999 0.009928087 -0.29121336 -0.2584869 0.0810717
-0.20265226 -0.05792426 -0.043978233 0.1503663 -0.25488392 0.22822537 -0.22926603 -0.15533863
-0.16036536 -0.015731333 -0.22292992 0.12331465 -0.048219126 -0.22969283 0.28523725 0.08957431
-0.10251602 0.29004806 0.38893428 -0.05582342 0.1649643 0.052186757 0.009076415 -0.19990835
0.17769372 -0.12175768 0.5189862 -0.09895476 0.0276273 0.043700222 -0.34723365 0.070634395
-0.13798824 0.118613586 -0.22863536 0.43400663 0.046358086 0.2910211 -0.21599993 -0.33544242
-0.37283477 -0.03488298 -0.120295115 -0.04394037 0.1697659 -0.21630077 -0.11290806 0.0808341
-0.060322322 -0.107544824 -0.19743349 0.29932112 -0.3402357 -0.12734698 0.46914712 0.08547164
-0.042590886 -0.2618499 -0.014826986 -0.16667232 -0.03535156 0.070235424 -0.13742703 -0.24721958
-0.052995 -0.108879685 -0.20102589 0.39054757 -0.12302198 -0.23141056 -0.08424033 -0.11693591
0.21216457 -0.1321796 -0.027465474 0.1689331 -0.15420559 -0.33537304 0.13722031 -0.22996695
-0.33402652 0.014040815 -0.07481567 0.11336028 -0.34198105 0.0065719485 0.013742213 0.22520407
0.118874356 -0.22318937 0.554827 -0.1983012 -0.2011043 -0.024940547 -0.16899586 0.41444948
-0.029256595 -0.2859373 0.5607684 -0.106879614 -0.07366404 0.67678714 -0.017631382 -0.012235072
0.36897382 -0.17020391 -0.11095111 -0.02637161 -0.21411517 0.25951096 -0.078948244 -0.11686153
-0.037810247 -0.28047496 -0.005858845 0.19121774 0.44957536 -0.08209346 -0.22524558 0.23944744
0.10077769 0.13501249 0.05548468 -0.110254824 0.114895895 0.07535414 -0.14984067 0.18545918
0.04647973 -0.12853578 -0.18991128 -0.082468316 -0.19305368 -0.10969328 0.37460884 -0.027629064
-0.20386636 -0.05510685 -0.07525757 -0.18906848 -0.24499112 0.07868325 0.09154693 -0.16563529
-0.33528122 0.14704648 0.10045635 -0.19649155 -0.035622533 0.30218956 -0.16503844 0.5007444
-0.18523966 -0.23737915 0.23227501 -0.13584407 -0.24477713 -0.19395562 0.1445948 0.06503815
0.21101789 -0.029151136 -0.040141024 -0.21249671 -0.06323217 -0.17077403 0.18054171 0.0757616
-0.011415656 0.15336351 -0.1005621 -0.20529412 -0.35701835 -0.31183708 0.31204703 -0.036934953
-0.1309669 -0.2479527 -0.15856926 -0.16707766 0.5906251 -0.30363148 -0.22664432 -0.18725492
-0.1015621 -0.1702953 -0.030573303 -0.15498644 0.010097973 0.64600766 0.014889347 -0.044104297
-0.06969083 0.50708896 0.078643724 0.11432355 0.009303976 -0.20575267 -0.02363893 0.09070561
-0.5667757 -0.43666753 -0.020965613 0.23288144 -0.03336149 -0.2445207 0.01830971 -0.031074932
-0.17282765 -0.04250413 -0.36898878 0.5055813 0.12672234 -0.22487053 0.14515465 -0.054738168
-0.08525533 -0.25514692 -0.021120392 -0.067559995 0.06070402 0.13745122 -0.23664379 0.20062004
0.097441055 0.04420217 -0.30796283 -0.22294046 0.08490337 -0.11649764 -0.15024513 0.024453515
0.1302442 -0.035348002 -0.4049673 -0.021740464 -0.27838042 0.20945233 0.35234514 -0.35621113
-0.6341551 0.25451186 -0.028736426 0.18902086 0.32891342 -0.06744057 0.1837999 0.13886945
00000000: 9f22 e8bc fb59 2e3d a8b6 123e b7df 21bd
00000010: 6aa9 223c eb19 95be 6558 84be eb08 a63d
00000020: 1384 4fbe fd41 6dbd 8522 34bd a0f9 193e
00000030: 2580 82be e9b3 693e b7c4 6abe 1711 1fbe
00000040: d136 24be ffde 80bc be47 64be 648c fc3d
00000050: 6b81 45bd 9934 6bbe 9e0a 923e bc72 b73d
00000060: ebf3 d1bd 2e81 943e 6522 c73e 19a7 64bd
00000070: 67ec 283e c8c1 553d 3eb5 143c c6b4 4cbe
00000080: 58f5 353e 175c f9bd 48dc 043f cba8 cabd
00000090: a652 e23c 01ff 323d 9cc8 b1be c4a8 903d
000000a0: ca4c 0dbe aeeb f23d 631f 6abe 1e36 de3e
000000b0: fae1 3d3d b800 953e 162f 5dbe 1cbf abbe
000000c0: 33e4 bebe 75e1 0ebd 495d f6bd d1fa 33bd
000000d0: 1dd7 2d3e f37d 5dbe 573c e7bd 598c a53d
000000e0: 8a14 77bd 7640 dcbd 012c 4abe 9e40 993e
000000f0: 6033 aebe 3f67 02be 0d34 f03e c10b af3d
00000100: c873 2ebd 3111 86be e3ec 72bc 26ac 2abe
00000110: cccc 10bd 97d7 8f3d acb9 0cbe 2127 7dbe
00000120: 4911 59bd 50fc debd bbd9 4dbe daf5 c73e
00000130: f3f2 fbbd e4f6 6cbe 3286 acbd 187c efbd
00000140: ab41 593e 175a 07be 46ff e0bc ccfc 2c3e
00000150: 12e8 1dbe 04b6 abbe 7b83 0c3e 757c 6bbe
00000160: 8605 abbe 720b 663c f538 99bd 6f29 e83d
00000170: 2418 afbe 8059 d73b 0527 613c e59b 663e
00000180: 6674 f33d c18b 64be 2409 0e3f 780f 4bbe
00000190: 49ee 4dbe 1e50 ccbc 400d 2dbe b932 d43e
000001a0: 87ab efbc 6066 92be 858e 0f3f b3e3 dabd
000001b0: 2cdd 96bd ec41 2d3f b06f 90bc 9d75 48bc
000001c0: 23ea bc3e ef49 2ebe 563a e3bd 4609 d8bc
000001d0: 0241 5bbe 9fde 843e 9eaf a1bd 1955 efbd
000001e0: ebde 1abd 6a9a 8fbe 8efb bfbb 95ce 433e
000001f0: be2e e63e 9e20 a8bd c7a6 66be b631 753e
00000200: 8964 ce3d b740 0a3e e743 633d 48cd e1bd
00000210: 8a4e eb3d 4553 9a3d d56f 19be 03e9 3d3e
00000220: 8861 3e3d e29e 03be 1a78 42be 26e5 a8bd
00000230: ddaf 45be dfa6 e0bd bbcc bf3e 5956 e2bc
00000240: 58c2 50be b8b7 61bd a420 9abd 2b9b 41be
00000250: f4de 7abe af24 a13d f57c bb3d 4c9c 29be
00000260: fba9 abbe 5a93 163e 0fbc cd3d 1535 49be
00000270: efe8 11bd 97b8 9a3e d6ff 28be c930 003f
00000280: 77af 3dbe 8513 73be 80d9 6d3e b51a 0bbe
00000290: dba6 7abe 4d9c 46be a910 143e b932 853d
000002a0: 1315 583e 5dce eebc ea6a 24bd bd98 59be
000002b0: de7f 81bd 63df 2ebe eddf 383e e628 9b3d
000002c0: bb08 3bbc 530b 1d3e 81f3 cdbd 9f38 52be
000002d0: 1ccb b6be 1ca9 9fbe a1c4 9f3e 1b49 17bd
000002e0: 301c 06be 50e7 7dbe fb5f 22be 6816 2bbe
000002f0: 3533 173f 9675 9bbe 7315 68be c1bf 3fbe
00000300: caff cfbd e461 2ebe dd74 fabc c4b4 1ebe
00000310: f871 253c c260 253f 73f2 733c b5a6 34bd
00000320: 11ba 8ebd 95d0 013f f60f a13d 7722 ea3d
00000330: b46f 183c d4b0 52be 6ea6 c1bc ddc3 b93d
00000340: 3618 11bf e392 dfbe 14c0 abbc 7978 6e3e
00000350: 0fa6 08bd a263 7abe 3ffe 953c db90 febc
00000360: bbf9 30be d018 2ebd 19ec bcbe c76d 013f
00000370: 80c3 013e 7644 66be 6ca3 143e 2135 60bd
00000380: 599a aebd 9ea2 82be ac04 adbc e55c 8abd
00000390: c7a4 783d 03c0 0c3e c052 72be 576f 4d3e
000003a0: 2d8f c73d 560d 353d 4ead 9dbe 814a 64be
000003b0: d1e1 ad3d 5196 eebd dcd9 19be bd52 c83c
000003c0: bc5e 053e 11c9 10bd e057 cfbe 0f19 b2bc
000003d0: e187 8ebe ac7a 563e 9566 b43e 4e61 b6be
000003e0: fd57 22bf 614f 823e a768 ebbc af8e 413e
000003f0: 5767 a83e 481e 8abd 0a36 3c3e cb33 0e3e

net.net.4.bias f4 [10]
0.060176663 -0.21358088 2.3781528 -0.18859497 -0.83182627 -0.05302706 -0.45474482 0.0830351
-0.51304585 -0.26656803
00000000: ce7b 763d f2b4 5abe a833 1840 0a1f 41be
00000010: 91f2 54bf e732 59bd 50d4 e8be 4e0e aa3d
00000020: f956 03bf 9b7b 88be
