continual learning/ModTest2/results/gem_GMod2Cov_nv_0.0_False_5_mnist_rotations_reduced.pt_2021_08_13_20_33_09_41acafb5ab8a4460905222ba23fb4175.pt (torch, 368925 bytes, 8 tensors)

tensor f4 [101]
000000 00 00 00 00 00 00 00 00 00 00 00 00 00 00 00 00
       0.0 0.0 0.0 0.0
000010 00 00 00 00 00 00 00 00 00 00 00 00 00 00 00 00
       0.0 0.0 0.0 0.0
000020 00 00 00 00 00 00 00 00 00 00 00 00 00 00 80 3f
       0.0 0.0 0.0 1.0
000030 00 00 80 3f 00 00 80 3f 00 00 80 3f 00 00 80 3f
       1.0 1.0 1.0 1.0
000040 00 00 80 3f 00 00 80 3f 00 00 80 3f 00 00 80 3f
       1.0 1.0 1.0 1.0
000050 00 00 80 3f 00 00 00 40 00 00 00 40 00 00 00 40
       1.0 2.0 2.0 2.0
000060 00 00 00 40 00 00 00 40 00 00 00 40 00 00 00 40
       2.0 2.0 2.0 2.0
000070 00 00 00 40 00 00 00 40 00 00 00 40 00 00 40 40
       2.0 2.0 2.0 3.0
000080 00 00 40 40 00 00 40 40 00 00 40 40 00 00 40 40
       3.0 3.0 3.0 3.0
000090 00 00 40 40 00 00 40 40 00 00 40 40 00 00 40 40
       3.0 3.0 3.0 3.0
0000a0 00 00 40 40 00 00 80 40 00 00 80 40 00 00 80 40
       3.0 4.0 4.0 4.0
0000b0 00 00 80 40 00 00 80 40 00 00 80 40 00 00 80 40
       4.0 4.0 4.0 4.0
0000c0 00 00 80 40 00 00 80 40 00 00 80 40 00 00 a0 40
       4.0 4.0 4.0 5.0
0000d0 00 00 a0 40 00 00 a0 40 00 00 a0 40 00 00 a0 40
       5.0 5.0 5.0 5.0
0000e0 00 00 a0 40 00 00 a0 40 00 00 a0 40 00 00 a0 40
       5.0 5.0 5.0 5.0
0000f0 00 00 a0 40 00 00 c0 40 00 00 c0 40 00 00 c0 40
       5.0 6.0 6.0 6.0
000100 00 00 c0 40 00 00 c0 40 00 00 c0 40 00 00 c0 40
       6.0 6.0 6.0 6.0
000110 00 00 c0 40 00 00 c0 40 00 00 c0 40 00 00 e0 40
       6.0 6.0 6.0 7.0
000120 00 00 e0 40 00 00 e0 40 00 00 e0 40 00 00 e0 40
       7.0 7.0 7.0 7.0
000130 00 00 e0 40 00 00 e0 40 00 00 e0 40 00 00 e0 40
       7.0 7.0 7.0 7.0
000140 00 00 e0 40 00 00 00 41 00 00 00 41 00 00 00 41
       7.0 8.0 8.0 8.0
000150 00 00 00 41 00 00 00 41 00 00 00 41 00 00 00 41
       8.0 8.0 8.0 8.0
000160 00 00 00 41 00 00 00 41 00 00 00 41 00 00 10 41
       8.0 8.0 8.0 9.0
000170 00 00 10 41 00 00 10 41 00 00 10 41 00 00 10 41
       9.0 9.0 9.0 9.0
000180 00 00 10 41 00 00 10 41 00 00 10 41 00 00 10 41
       9.0 9.0 9.0 9.0
000190 00 00 10 41
       9.0

tensor f4 [101, 10]
000000 e9 b7 af 3d a8 35 cd 3d d3 4d e2 3d 45 d8 f0 3d
       0.0858 0.1002 0.1105 0.1176
000010 3f c6 dc 3d 15 1d c9 3d 7a a5 ac 3d e5 61 a1 3d
       0.1078 0.0982 0.0843 0.0788
000020 54 52 a7 3d 07 ce 99 3d 26 e4 c3 3e e3 a5 bb 3e
       0.0817 0.0751 0.3826 0.3665
000030 4d 84 ad 3e fe d4 78 3e c9 e5 3f 3e 74 24 17 3e
       0.3389 0.243 0.1874 0.1476
000040 49 9d 00 3e 8c db e8 3d 8a b0 e1 3d a8 57 ca 3d
       0.1256 0.1137 0.1102 0.0988
000050 cc 5d 0b 3f dc 46 03 3f 6d e7 fb 3e 8f c2 b5 3e
       0.5444 0.5128 0.492 0.355
000060 44 8b 8c 3e bd e3 54 3e f7 75 20 3e 84 9e 0d 3e
       0.2745 0.2079 0.1567 0.1383
000070 8c 4a ea 3d 86 38 d6 3d 27 a0 19 3f 38 f8 12 3f
       0.1144 0.1046 0.6001 0.5741
000080 84 9e 0d 3f 39 d6 c5 3e f5 db 97 3e f8 53 63 3e
       0.5532 0.3864 0.2966 0.222
000090 d5 78 29 3e 52 27 20 3e 13 61 03 3e f9 0f e9 3d
       0.1655 0.1564 0.1283 0.1138
0000a0 58 a8 45 3f e0 9c 41 3f 4e 62 40 3f 5b 42 0e 3f
       0.7721 0.7563 0.7515 0.5557
0000b0 3e e8 d9 3e 77 be 9f 3e 07 ce 59 3e 71 3d 4a 3e
       0.4256 0.312 0.2127 0.1975
0000c0 4d f3 0e 3e 91 7e fb 3d 01 4d 44 3f 13 f2 41 3f
       0.1396 0.1228 0.7668 0.7576
0000d0 40 a4 3f 3f af 25 14 3f 96 21 ee 3e 46 b6 b3 3e
       0.7486 0.5787 0.4651 0.351
0000e0 ed 9e 7c 3e 52 b8 5e 3e f2 b0 10 3e 86 38 d6 3d
       0.2467 0.2175 0.1413 0.1046
0000f0 cb a1 45 3f ae d8 3f 3f cd 3b 3e 3f 09 f9 10 3f
       0.772 0.7494 0.7431 0.5663
000100 5d dc e6 3e e0 be ae 3e e6 ae 65 3e 27 31 48 3e
       0.4509 0.3413 0.2243 0.1955
000110 48 50 fc 3d ce 19 d1 3d 4c 37 49 3f 58 ca 42 3f
       0.1232 0.1021 0.786 0.7609
000120 09 f9 40 3f c5 fe 12 3f 0c 93 e9 3e 4d f3 ae 3e
       0.7538 0.5742 0.4562 0.3417
000130 c3 f5 68 3e 84 0d 4f 3e 6f f0 05 3e ab cf d5 3d
       0.2275 0.2022 0.1308 0.1044
000140 54 e3 25 3f 6d 56 1d 3f a8 c6 1b 3f 01 de e2 3e
       0.648 0.6146 0.6085 0.4431
000150 a2 45 b6 3e b0 72 88 3e 39 d6 45 3e d8 f0 34 3e
       0.356 0.2665 0.1932 0.1767
000160 d7 34 ef 3d 5c 20 c1 3d bf 0e 4c 3f e6 3f 44 3f
       0.1168 0.0943 0.7971 0.7666
000170 d7 a3 40 3f 05 34 11 3f 6f f0 e5 3e b1 50 ab 3e
       0.7525 0.5672 0.4491 0.3346
000180 53 96 61 3e df e0 4b 3e 15 8c 0a 3e 46 b6 f3 3d
       0.2203 0.1991 0.1353 0.119
000190 ea 95 52 3f 3a 23 4a 3f c7 4b 47 3f 22 8e 15 3f
       0.8226 0.7896 0.7785 0.5842
0001a0 8d 28 ed 3e a8 35 ad 3e e3 a5 5b 3e 5d fe 43 3e
       0.4632 0.3383 0.2145 0.1914
0001b0 92 cb ff 3d ac 8b db 3d ae b6 52 3f e1 0b 53 3f
       0.1249 0.1072 0.8231 0.8244
0001c0 80 b7 50 3f 02 2b 27 3f 01 4d 04 3f e8 6a cb 3e
       0.8153 0.653 0.5168 0.3973
0001d0 de 02 89 3e c6 6d 74 3e 9b 55 1f 3e 94 87 05 3e
       0.2676 0.2387 0.1556 0.1304
0001e0 ac ad 58 3f 78 7a 55 3f ee 5a 52 3f 4b 59 26 3f
       0.8464 0.8339 0.8217 0.6498
0001f0 54 52 07 3f be c1 d7 3e 51 6b 9a 3e 83 51 89 3e
       0.5286 0.4214 0.3016 0.2682
000200 58 39 34 3e a8 35 0d 3e ef 38 55 3f b4 59 55 3f
       0.176 0.1379 0.8329 0.8334
000210 aa f1 52 3f 27 c2 26 3f 27 c2 06 3f 84 0d cf 3e
       0.824 0.6514 0.5264 0.4044
000220 83 2f 8c 3e ec c0 79 3e 0a d7 23 3e 4c a6 0a 3e
       0.2738 0.2439 0.16 0.1354
000230 b8 1e 55 3f ab cf 55 3f af 94 55 3f 56 0e 2d 3f
       0.8325 0.8352 0.8343 0.676
000240 3b 70 0e 3f be 9f da 3e 59 17 97 3e 38 67 84 3e
       0.5564 0.427 0.2951 0.2586
000250 e5 61 21 3e 23 db f9 3d cb 10 57 3f 15 1d 59 3f
       0.1576 0.122 0.8401 0.8481
000260 9d 80 56 3f 53 05 33 3f b8 1e 15 3f 32 55 f0 3e
       0.8379 0.6993 0.5825 0.4694
000270 a8 c6 ab 3e 3d 2c 94 3e 48 bf 3d 3e 28 7e 0c 3e
       0.3355 0.2894 0.1853 0.1372
000280 dc 68 50 3f 4f 40 53 3f ce 19 51 3f 03 09 2a 3f
       0.8141 0.8252 0.8168 0.6642
000290 27 a0 09 3f 99 bb d6 3e 61 c3 93 3e 15 1d 89 3e
       0.5376 0.4194 0.2886 0.2678
0002a0 a2 b4 37 3e 3d 2c 14 3e a6 0a 56 3f f5 db 57 3f
       0.1794 0.1447 0.8361 0.8432
0002b0 b9 8d 56 3f 7a a5 2c 3f d6 56 0c 3f 23 4a db 3e
       0.8381 0.6744 0.5482 0.4283
0002c0 e2 58 97 3e f9 0f 89 3e 6a de 31 3e 17 b7 11 3e
       0.2956 0.2677 0.1737 0.1423
0002d0 ec 51 48 3f 87 16 49 3f 14 d0 44 3f 7f fb 1a 3f
       0.7825 0.7855 0.7688 0.6054
0002e0 07 ce f9 3e 36 cd bb 3e f7 75 80 3e 9a 77 5c 3e
       0.4879 0.3668 0.2509 0.2153
0002f0 f0 16 08 3e cf 66 d5 3d 57 ec 4f 3f fb 5c 4d 3f
       0.1329 0.1042 0.8122 0.8022
000300 d5 78 49 3f e5 61 11 3f 04 e7 ec 3e 22 8e b5 3e
       0.787 0.5679 0.4627 0.3546
000310 49 2e 7f 3e 53 96 61 3e 8b fd 25 3e 4e d1 11 3e
       0.2492 0.2203 0.1621 0.1424
000320 c3 d3 5b 3f bf 7d 5d 3f 0c 93 59 3f 82 73 26 3f
       0.8587 0.8652 0.8499 0.6502
000330 c2 17 06 3f b3 7b d2 3e 45 47 92 3e 65 aa 80 3e
       0.5238 0.4111 0.2857 0.2513
000340 58 ca 32 3e f5 db 17 3e de 93 57 3f 7f fb 5a 3f
       0.1746 0.1483 0.8421 0.8554
000350 8c db 58 3f 58 39 34 3f 14 d0 14 3f ba 6b e9 3e
       0.8471 0.704 0.5813 0.4559
000360 e5 d0 a2 3e a8 c6 8b 3e fd f6 35 3e bf 0e 1c 3e
       0.318 0.273 0.1777 0.1524
000370 68 b3 5a 3f 52 49 5d 3f 9f cd 5a 3f 81 26 32 3f
       0.8543 0.8644 0.8547 0.6959
000380 65 aa 10 3f ae d8 df 3e f5 4a 99 3e 38 67 84 3e
       0.5651 0.4372 0.2994 0.2586
000390 e9 26 31 3e 63 7f 19 3e fb cb 5e 3f 2e ff 61 3f
       0.173 0.1499 0.8703 0.8828
0003a0 92 cb 5f 3f a4 70 3d 3f cc 5d 1b 3f f3 8e f3 3e
       0.8742 0.74 0.6069 0.4757
0003b0 0b 24 a8 3e bd e3 94 3e 36 3c 3d 3e f5 b9 1a 3e
       0.3284 0.2908 0.1848 0.1511
0003c0 8f 53 54 3f 1e 16 5a 3f b0 03 57 3f 02 2b 37 3f
       0.8294 0.8519 0.8399 0.7155
0003d0 e6 3f 14 3f 71 3d ea 3e 41 f1 a3 3e 71 1b 8d 3e
       0.5791 0.4575 0.3202 0.2756
0003e0 66 f7 24 3e b6 f3 fd 3d 19 04 56 3f ac ad 58 3f
       0.1611 0.124 0.836 0.8464
0003f0 27 c2 56 3f a3 01 2c 3f 23 db 09 3f 19 73 d7 3e
       0.8389 0.6719 0.5385 0.4208

net.net.0.weight f4 [100, 784]
000000 35 fe 59 bd 3e 4a 94 bd ac 35 77 3d a0 71 bb 3b
       -0.053220946 -0.07240723 0.06035392 0.0057203323
000010 69 d8 d9 3c 7e fc e1 bb 5c 74 ec 3b 21 ab 3c bd
       0.02659245 -0.0068965545 0.0072160196 -0.04606164
000020 99 d0 66 3d f6 50 8c bd 53 df f9 bc 17 fb 37 3d
       0.056351278 -0.068513796 -0.030501997 0.044917192
000030 cd 90 62 bd 93 0f 48 3c 91 d5 6b 3d 60 7b a7 3d
       -0.055313874 0.012210744 0.05757672 0.08177829
000040 4d 8d 7c 3d cf e2 20 bd b9 6c 60 3d 2d a8 26 bc
       0.061658192 -0.0392788 0.054791186 -0.010171932
000050 dd e8 3a bd 67 25 9a bd d7 bf 1c bd c8 ad 7c bd
       -0.045632232 -0.07526665 -0.03826889 -0.06168917
000060 00 84 53 3c 6a 63 8e bd dd 6e 35 bd 7c de 87 bd
       0.012909889 -0.069525555 -0.04429518 -0.066342324
000070 c2 98 4c bd 88 15 40 3d a0 80 e6 3b c0 d9 94 bb
       -0.04995037 0.046895534 0.0070343763 -0.0045425594
000080 4d c7 e4 bc ad 9b 3d bd a9 b7 05 3c d3 91 60 bd
       -0.027927065 -0.046291042 0.008161464 -0.05482657
000090 2e fd 50 3c df 1b 0e 3d cb e8 83 3d 97 fa e1 3d
       0.012755675 0.03469455 0.06440886 0.11034124
0000a0 3c ce 9e 3d 89 dd c8 3c 8d cd 9c 3d 4e ed cd bc
       0.0775418 0.024519699 0.07656393 -0.02513757
0000b0 d2 93 7c 3d 17 db 6c bc 79 69 1c bc d6 55 32 3b
       0.06166441 -0.014456532 -0.009546631 0.0027211807
0000c0 cb 31 56 bc 0a 32 ca 3c 1b a7 81 3d fb ab 86 bd
       -0.013073395 0.024682064 0.06330701 -0.065757714
0000d0 a4 21 b2 bc 3c eb 3c bd 58 9b a1 bc 36 9d 02 3d
       -0.021744557 -0.046122774 -0.019727394 0.03188821
0000e0 80 bf 8a 3c 96 3d d0 bc 78 08 9e bd c4 8f 65 3d
       0.016937017 -0.025419991 -0.07716459 0.05604531
0000f0 b1 83 92 bd 09 87 3c 3d 72 49 d9 3b a5 c6 68 3d
       -0.071540244 0.046027217 0.00663107 0.056830067
000100 ee ee 1a 3d cc 4c d9 3c 40 e8 bb 3d 86 56 52 3d
       0.037825517 0.026525877 0.091751575 0.051352046
000110 4e 30 8b 3c b1 8e 3c 3d 12 f8 79 3c 6a ec 06 bd
       0.016990807 0.04603452 0.0152568985 -0.032940306
000120 b6 a1 28 3c c7 7f 8f bd ab 0a d2 bc 0b 60 84 3c
       0.010292461 -0.070067935 -0.025639853 0.016159078
000130 fc 63 8a bd d7 c7 5a bd 56 2c 9b 3c 1f e7 83 3c
       -0.06757352 -0.05341324 0.01894204 0.016101418
000140 db 88 15 bd 60 53 da 3b 54 c3 89 bd f0 d4 87 3d
       -0.03650747 0.006662771 -0.06726709 0.066324115
000150 fa 8b d5 bc b8 c7 ae 3c b8 39 2d 3d 83 7d 13 bd
       -0.026067723 0.021335468 0.042291373 -0.03600837
000160 40 66 8b 3d 0d 77 99 3c 7c 96 4a bd d2 a1 27 bd
       0.06806612 0.018733526 -0.04945992 -0.04092581
000170 10 31 69 3d a1 3f b5 3d 0a 99 8f 3d a3 aa 43 3d
       0.056931555 0.08850027 0.07011612 0.047770154
000180 be 4d 1d 3d 02 1a bd bd 39 ee 0b 3b c5 a8 0b bd
       0.03840422 -0.09233476 0.0021351709 -0.034096498
000190 81 4f f6 3b 5b 13 3c bd 7e e7 75 bc 92 b1 f1 bc
       0.007516802 -0.045916896 -0.015008805 -0.029503617
0001a0 5f c2 cc 3d 4b b9 ca 3d 69 20 d4 3d c3 a9 70 3d
       0.09998011 0.09898623 0.10357744 0.058755647
0001b0 2a d1 04 bd ce 64 38 3c 18 8c ec 3c 58 58 6e 3d
       -0.032426037 0.011254502 0.028875396 0.05818972
0001c0 80 1d 17 3b a0 3d 5f bb 50 06 1f bd 08 c6 f0 3c
       0.0023058355 -0.003406383 -0.03882438 0.029391304
0001d0 fb 08 e4 3c 20 dd 3c 3d 1c 83 ad 3d a2 f7 c8 3d
       0.027836313 0.04610932 0.08472273 0.09812857
0001e0 78 a2 1b bd de f7 d1 3d da 80 da 3d e0 92 81 bc
       -0.03799674 0.10252355 0.10669108 -0.015817106
0001f0 c2 0d 8d bd 16 b8 7f bc 7b a2 9d bd bd 99 34 3c
       -0.0688739 -0.015607854 -0.07697006 0.011022982
000200 cf f9 67 bd b0 b9 5d bd b5 29 84 bd 7d 60 08 bc
       -0.05663472 -0.054132164 -0.064532675 -0.008323786
000210 ac ed de 3d 4d 62 bd 3d ef 4d 7f bd 6a c5 b7 3d
       0.10885176 0.09247265 -0.062330183 0.089732006
000220 09 37 e1 b8 d3 d8 89 bd a0 55 86 bc a4 72 9c bc
       -0.00010739087 -0.06730809 -0.016398251 -0.019097634
000230 dc 83 26 3d 7c f6 4c 3c d0 9c 38 3d c0 f2 27 3c
       0.040653095 0.012509938 0.045071423 0.010250747
000240 0f fa 27 3d d9 de 0f 3d e3 89 60 3a 53 37 9c 3c
       0.04100996 0.035124633 0.00085654686 0.01906935
000250 cb 27 d4 3d be 0c 99 3c 88 45 93 3b e5 cf 3a 3d
       0.103591524 0.018682834 0.0044943728 0.04560842
000260 ae 50 4c 3d 91 53 55 bd 3d 14 ac 3c c2 02 ba 3c
       0.04988163 -0.05208165 0.021005744 0.022706393
000270 77 97 4c bd 9b a6 8c bb b3 0b 0f be a6 ea f2 bc
       -0.049949136 -0.004292322 -0.13969307 -0.029652905
000280 cc 4b bb 3c fc 40 2a 3c e3 c1 8c 3d ec 5b 89 bd
       0.022863291 0.01039147 0.068729185 -0.06706986
000290 6a 81 0e 3d 87 e7 f1 bc 4f b7 b1 3c 78 fa 77 3c
       0.034791388 -0.029529346 0.021693854 0.0151354
0002a0 88 b6 6c bc e5 6d a3 bd f0 c2 6a bd 9a 41 f7 3c
       -0.014447816 -0.07979945 -0.057314813 0.030182648
0002b0 6f 2e 9e bd 80 84 17 bd d8 da c3 bc f4 5a a3 3c
       -0.077237 -0.036991596 -0.023908064 0.01994083
0002c0 10 d1 cb bc 2e 8c 8d 3d 50 22 4d 3d b3 e5 38 bc
       -0.024879962 0.06911503 0.05008155 -0.011285233
0002d0 90 24 a4 bd 7d 6b 7b bd 67 16 9f bd 2f c0 03 bc
       -0.08014786 -0.061381806 -0.07767945 -0.008041426
0002e0 08 61 92 bb c9 ea 9c bc 99 87 40 bd 95 c7 28 bd
       -0.0044671334 -0.019154923 -0.047004316 -0.04120596
0002f0 ed 19 13 be ca 0d ee 3c 4d 1c c8 3d 2a d7 ee 3c
       -0.14365359 0.02905931 0.09771023 0.029155333
000300 5d a7 7f bd 55 85 6c 3d 0c 96 94 3d fc 24 81 bc
       -0.06241547 0.057744343 0.07255182 -0.015764706
000310 9c bb 5e 3d bc 45 21 3d a5 a5 02 3d b7 4a b1 3c
       0.054378137 0.039373145 0.031896252 0.021642072
000320 c3 38 fe 3b 1a c8 b7 bc 09 2b 17 3c 48 47 e6 3c
       0.0077582314 -0.022434283 0.009226569 0.028110161
000330 9c 3c 19 bc 09 fa 5e 3c 0b 49 8b 3d 92 3a 60 3d
       -0.009352829 0.013609418 0.06801041 0.054743357
000340 92 2e 1a be e7 1a 73 bd 7f b5 90 bd 80 78 01 be
       -0.15056828 -0.059351828 -0.07065868 -0.12643623
000350 b8 49 79 bd c9 71 7a bd 65 11 fb bd d7 3d 33 bd
       -0.06086132 -0.06114367 -0.12259177 -0.043760147
000360 0f 9c 27 be 04 3f 86 3c dc 6c 23 bd 13 56 4a 3d
       -0.16368125 0.01638747 -0.03989874 0.049398493
000370 6f a8 9c bd 30 d5 94 bd 02 dc 2f bd e0 33 81 bb
       -0.07649314 -0.07267225 -0.042934425 -0.0039429516
000380 b8 47 21 3d 60 fd 82 bd fe 7e 94 3d 27 12 63 bb
       0.039375037 -0.06395984 0.07250784 -0.003464827
000390 4f 77 2a 3d 1b ee 1a be ec 32 e3 bd 27 32 41 3d
       0.041617688 -0.15129893 -0.11093697 0.04716697
0003a0 8e ca d4 3d 8c 66 a0 3d 20 f3 bc 3d 1d 6e cc b9
       0.10390197 0.07832059 0.0922606 -0.00038991953
0003b0 4a 8d d6 bd be b7 1b be ae 3b b4 bd f1 8a 58 be
       -0.104761675 -0.15206811 -0.088004455 -0.21146752
0003c0 b8 77 24 be b3 19 06 be 85 15 a5 bd 79 21 2f 3c
       -0.16061294 -0.13095741 -0.08060745 0.010689133
0003d0 66 e7 c0 bc c9 b2 42 bd 91 40 17 3d 22 5a 19 bd
       -0.02354784 -0.047533784 0.03692681 -0.037439473
0003e0 0b 75 23 39 ac 74 ac bd 65 43 93 bd 6b ba 6b bd
       0.00015588493 -0.08420691 -0.07190589 -0.05755083
0003f0 28 96 ef bc 2f b1 e4 bc 5e 81 56 3c 19 b8 38 bd
       -0.029246405 -0.027916519 0.013092367 -0.045097444

net.net.0.bias f4 [100]
000000 9b a1 f5 3d 6a d0 9f 3b e3 5a 19 bc 6e fc df 3d
       0.119937144 0.00487714 -0.009360048 0.10936819
000010 c1 50 e7 3c c1 a3 05 bd f4 cf 0e 3c cf 78 c0 3d
       0.028236749 -0.03262687 0.008716572 0.093980424
000020 c3 93 98 3d 52 50 96 3d f6 5a e6 bc 23 e8 28 bc
       0.07450058 0.07339539 -0.028119545 -0.010309252
000030 8e 6c b2 bb 95 e1 37 3d 24 0d 42 be c8 f9 0d 3e
       -0.0054450696 0.044892866 -0.18950325 0.13864815
000040 33 1b 22 bd 88 6a 4c bc e9 69 1b bd 5b 5b 82 bd
       -0.03957672 -0.012476571 -0.0379428 -0.06365081
000050 05 bc 78 bc c1 ca f5 bc 84 3d a6 3b 7b 0c 62 3d
       -0.015181546 -0.030003907 0.005073251 0.055187684
000060 dc b1 b7 bc 5a 84 f6 3d 02 42 a7 3d 3b 7d e2 bd
       -0.022423677 0.12036963 0.08166887 -0.11059042
000070 4b f9 d5 bc 65 ea 2c be 72 60 18 3e 11 f9 e8 bb
       -0.026119849 -0.1688629 0.14880541 -0.007109769
000080 3f 6b 32 3d 63 07 a3 bc a4 f2 60 3b 80 9e 5c bd
       0.04355931 -0.019900983 0.0034324313 -0.053862095
000090 f3 1e fd bc c4 24 36 bd de b6 dc bc 33 ec 46 3c
       -0.030898547 -0.044468656 -0.026942667 0.012141275
0000a0 60 e2 1c bd 0e e6 bf 3d 87 4c 04 bd 98 c0 01 3e
       -0.038301826 0.09370051 -0.032299545 0.12671125
0000b0 97 bd cf 3d d7 45 0a 3e 31 5b cc bc 9c 2b 50 bd
       0.10143583 0.13503204 -0.024945827 -0.05082284
0000c0 a1 55 33 bd c6 91 de bd 81 7d f2 3c dd 97 47 3e
       -0.043782834 -0.10867648 0.02960086 0.19491525
0000d0 12 d3 44 3d bc 36 e0 3d 1c 6d a1 bc d8 39 bd 3d
       0.048052855 0.1094794 -0.019705348 0.092395484
0000e0 96 35 87 bc eb 5d f9 3d 43 f5 d1 bd 1d e8 84 3c
       -0.016505044 0.121761166 -0.10251858 0.016223961
0000f0 8b 2f ec 3c e7 36 ee 3c f1 52 20 bc 28 a1 ff bd
       0.028831264 0.029078914 -0.0097854 -0.1248191
000100 a4 9e 95 3c e0 e0 52 3d 6d 12 08 bd 54 7d 50 bd
       0.018264122 0.05148399 -0.033220697 -0.050900772
000110 10 3b c1 3d 36 97 1e bc 76 45 0a 3e 16 9b e7 bd
       0.094350934 -0.009679606 0.1350306 -0.11308877
000120 fe aa 89 bc fa 0d 98 3d 0f a0 9d 3d 99 5e 7f bd
       -0.016805168 0.07424541 0.076965444 -0.062346075
000130 43 3f 34 3d 58 4b 77 3c 82 66 87 bc de d8 c5 3c
       0.044005644 0.015093647 -0.016528372 0.024151262
000140 7b eb 39 3d b8 b1 ca 3d 16 dc f5 bd 9d e8 7b bd
       0.045390587 0.098971784 -0.12004869 -0.061501134
000150 c3 21 80 3d d2 c2 40 3d 32 3e df bd 93 3b 92 bc
       0.062564395 0.047060795 -0.10900535 -0.017850673
000160 ef 0b 36 bd 6c f0 54 3e 49 c1 13 be 18 bf 75 bc
       -0.044444975 0.20794839 -0.14429201 -0.014999174
000170 43 5d 2a bc fa e7 3d bd 05 54 8f 3b 1a 6d db 3d
       -0.010398212 -0.04636381 0.0043740296 0.10714169
000180 8c 2f f6 3c 2d ba 11 3d 95 cc 32 bd aa 2e 1a 3b
       0.030051969 0.03557794 -0.043652136 0.002352635

net.net.2.weight f4 [100, 100]
000000 86 be 0b 3e df fd f9 3d 83 a3 1a bc 58 e6 b6 3d
       0.13646898 0.12206625 -0.009438398 0.08930653
000010 54 2c 7f be 5d 5f b8 bd 38 2e 24 3e d8 6a 0f 3d
       -0.24919254 -0.09002564 0.16033256 0.035014004
000020 db 74 85 3d c4 09 5d 3e 43 4f c7 3b 0c a8 0a bd
       0.06516429 0.21585757 0.006082447 -0.03385167
000030 1f 81 43 be d4 ee 85 3d e3 b5 f1 bb 08 a0 28 be
       -0.19092225 0.065396935 -0.007376419 -0.16467297
000040 2a 6e 67 be a8 bd b1 bd a2 11 ba 3d dc af d8 3d
       -0.22600618 -0.08678752 0.090853944 0.105804175
000050 5e c9 14 bd 9a 29 f1 3d d6 85 66 3e ec 18 ce 3d
       -0.03632485 0.11775513 0.22511992 0.10063347
000060 48 ac d4 3d 0b 0b e1 bd d6 55 8d 3d f1 01 51 3e
       0.103844225 -0.109884344 0.069011375 0.20410897
000070 77 71 13 be 95 b2 9e bd bd 2a 4b 3d ba 52 18 3e
       -0.14398752 -0.077489056 0.049601305 0.14875308
000080 36 52 41 bc 14 48 eb bd 4e 25 09 3e b6 35 63 bd
       -0.011799386 -0.11488357 0.13393137 -0.055471145
000090 1b 5d c4 bd c5 ab 5e 3e bb 4f 29 3e 97 81 de 3d
       -0.09588071 0.21745212 0.16534321 0.10864561
0000a0 83 00 ee 3c 42 a6 02 bd 4e f8 bc 3c 60 91 d3 bd
       0.029052978 -0.031896837 0.02306762 -0.103304625
0000b0 0b f2 82 be 89 69 34 3e 4e f2 48 bb 2e 80 c4 bd
       -0.2557529 0.17618383 -0.0030662003 -0.09594761
0000c0 20 06 52 3d 76 8c 99 3b 9a 72 d3 3c a9 c4 f0 bd
       0.051275373 0.0046859337 0.025811482 -0.1175626
0000d0 4d 09 71 be a3 7d 8a 3e 80 62 20 3e d1 47 7c bd
       -0.23538704 0.27048978 0.15662575 -0.061591927
0000e0 95 7d 04 3e 0f a7 94 bd e7 65 0b 3d bd b4 f9 bd
       0.1293853 -0.072584264 0.03403273 -0.12192676
0000f0 57 8c d3 3d 63 a2 ff 3a 5d e9 99 bd de ea f1 bd
       0.10329502 0.0019503351 -0.07515214 -0.118123755
000100 ab 55 c0 bd f2 40 fe bd 1e 3e 16 3d d5 36 55 3e
       -0.0939134 -0.12414731 0.036680333 0.20821698
000110 3a 06 21 bc 48 03 49 3b 58 1f 17 3d 10 dd a1 3d
       -0.009828145 0.0030672122 0.036895126 0.079034925
000120 01 62 1f be ff f3 96 3d db 38 00 be a4 3f dd 3d
       -0.1556473 0.07370757 -0.12521689 0.10803154
000130 e4 d3 f2 3d 68 b3 87 3c fa 94 a7 bd f7 31 19 3e
       0.11856821 0.01656504 -0.08182712 0.14960466
000140 bd 8b 43 bd a3 72 17 3c 74 02 f5 bd 14 a2 f5 3b
       -0.047740687 0.00924364 -0.119633585 0.007496128
000150 6e bf aa 3b f2 39 9e 3d 28 8e 8c 3c 6f 0a 9f bd
       0.0052108085 0.07725896 0.01715763 -0.07765662
000160 22 4c 3c 3e ff 52 35 bd 8b 27 ec 3b 8b c7 c5 bd
       0.18388417 -0.044268604 0.0072068623 -0.096572004
000170 c4 71 1d 3d d4 14 3a bd 65 07 26 3c 57 b1 7f bd
       0.038438573 -0.04543002 0.010133599 -0.062424984
000180 90 fc f4 3c f0 4e 0b 3e 9e 72 2b 3e ba de 3a 3e
       0.029905587 0.13604331 0.16742942 0.18249026
000190 89 15 ee 3d ec bb 92 3d 7f 28 84 bd 14 35 ed bc
       0.11625201 0.071647495 -0.064530365 -0.028955974
0001a0 1f 9d bb 3d a0 96 90 bd 03 22 ae bd 42 cf dc bd
       0.09160828 -0.070599794 -0.08502581 -0.10781719
0001b0 87 32 e4 bd f9 84 0c ba b5 0e 9b ba a8 68 5a bd
       -0.1114245 -0.00053603906 -0.0011829945 -0.053322464
0001c0 21 ac 15 be 03 6a b8 ba b3 4b b1 bd 54 31 a4 bd
       -0.14616443 -0.001406968 -0.086570166 -0.08017221
0001d0 42 bf 47 bd d0 e5 e2 bc 82 03 f7 bd 76 4f 02 3e
       -0.048766382 -0.027697474 -0.12061216 0.12725624
0001e0 9a de aa bd 26 32 56 bd 4b bd e1 bd 75 65 0b 3e
       -0.08343239 -0.05229392 -0.11022433 0.13612922
0001f0 26 71 3d ba 8f e5 12 3e b5 90 2a be df 94 01 be
       -0.0007226638 0.14345382 -0.16656764 -0.12654446
000200 8b f6 e5 bb 24 70 e4 bd b7 7d 54 bd fd 43 b3 bc
       -0.0070179156 -0.111542016 -0.051877704 -0.021883005
000210 f1 b1 b8 bc 5c 15 02 be 05 a5 07 3d 99 fd 24 be
       -0.022545787 -0.1270346 0.03311636 -0.16112365
000220 1c a0 94 bd 01 0c 14 be 14 d7 2d bd 31 a1 09 3d
       -0.07257101 -0.14457704 -0.042441443 0.03360099
000230 7e 35 2d 3e 08 cf 9b bd ed 77 79 3d 38 02 5e bc
       0.16914937 -0.076078475 0.060905386 -0.013550334
000240 06 71 4e bb 1d b9 ba bc 35 45 01 bd 80 34 05 be
       -0.0031500473 -0.022793347 -0.03156014 -0.13008308
000250 5f 9a ca bd 74 77 d9 3d 0b 56 1a bd c0 a2 0b be
       -0.09892725 0.10618487 -0.037679713 -0.13636303
000260 a0 68 8c bd d4 d7 d6 bd 58 27 0b bc 77 9e 05 be
       -0.06855893 -0.10490385 -0.008493267 -0.13048731
000270 3c 38 d7 3d d1 f6 f1 3d ce 82 ea bd 3c 03 c2 3d
       0.10508773 0.118146546 -0.1145073 0.09473273
000280 3d e4 02 be f0 2b 4f 3d 00 58 30 3e 99 60 24 3d
       -0.12782378 0.05057901 0.1722107 0.040131185
000290 58 54 2b be 1c 59 7f 3d 1a d1 0c be 11 73 33 3e
       -0.16731393 0.06234084 -0.13751641 0.17524363
0002a0 63 15 c4 3d d4 5b c3 3d e3 30 74 bd c9 69 0e be
       0.09574392 0.09538999 -0.059616935 -0.13907541
0002b0 bf 82 ff 3d 36 2b 07 3e e2 d8 69 3d 9c f9 bc bc
       0.1247611 0.13200077 0.0570916 -0.023068242
0002c0 ef a4 21 be cf 88 26 3d db 2f b0 3d 43 5f 2f 3e
       -0.15785573 0.040657815 0.08602878 0.17126183
0002d0 e5 18 1c be b2 d5 d5 bc c7 21 54 3d 20 2b 9f bd
       -0.15243872 -0.026102874 0.051790025 -0.07771897
0002e0 8d 66 59 3d 43 36 48 bd c5 7a c3 bd 6f 83 14 be
       0.053076316 -0.048879873 -0.09544901 -0.14503263
0002f0 a9 09 c8 3d f8 e4 cd bd c0 28 a5 bd 2b c0 95 bc
       0.097674675 -0.10053438 -0.08064413 -0.01828011
000300 ed f0 11 3c b3 8b 9d bd c4 dc d8 bd 20 24 57 3d
       0.008907539 -0.07692661 -0.10588983 0.052524686
000310 93 66 9d bd f0 14 01 be 5d d3 98 bd ca 15 f1 bd
       -0.0768558 -0.12605643 -0.07462189 -0.11771734
000320 49 73 23 3e 61 28 9c 3d 71 50 fc 3d 75 11 52 3e
       0.15961947 0.07624889 0.123200305 0.20514472
000330 63 b9 28 be a2 33 41 bd f3 6a b6 3d b3 41 4c 3e
       -0.1647697 -0.04716838 0.08907118 0.19946937
000340 05 81 2c be f4 52 23 3c da c4 ea 3b 27 3b bb bd
       -0.16846092 0.009968508 0.00716458 -0.09142142
000350 60 1a 5b be c8 2a c5 3d c2 f2 1a be 8d 61 85 bd
       -0.2139678 0.096273005 -0.15131667 -0.06512747
000360 00 3b 4d bc 1d 70 01 be c0 69 61 3e 79 6e 99 3d
       -0.012526274 -0.12640424 0.22012997 0.07491774
000370 b3 4b 30 3d d2 10 dc bd 6b b0 37 3e ac c9 24 be
       0.043040942 -0.10745396 0.17938392 -0.16092557
000380 71 21 0c 3d 4c 78 a0 3d d0 97 c2 3d 74 6f 48 be
       0.03421158 0.07835445 0.09501612 -0.19573766
000390 64 0f 00 be dc d7 ad bd fe 92 46 3e a8 85 5c bd
       -0.12505871 -0.084884375 0.1939201 -0.053838402
0003a0 6a 0e c9 3d 8a b1 d2 3d 6f ca 15 3e 6e 49 04 3e
       0.098172024 0.10287769 0.14628004 0.12918636
0003b0 6b 2e 1b be 5d 71 57 3e 94 c3 1d be ac 89 c2 bd
       -0.15154426 0.21039338 -0.15406638 -0.09498915
0003c0 11 32 01 be c5 e5 46 3e 97 1c 99 3c d2 46 b0 3d
       -0.12616755 0.19423588 0.01869039 0.08607258
0003d0 b1 73 6b bd 1e a5 fa 3d 8f b0 78 bd 41 d1 10 be
       -0.05748338 0.12238525 -0.060715254 -0.14142324
0003e0 9f 02 75 bd c2 2c 55 3e af c1 d5 3d 5d 0c ed 3d
       -0.059816953 0.20817855 0.10437333 0.11574624
0003f0 8d b2 59 be 31 b3 05 3d 0d 19 fe bd 92 3b 89 bd
       -0.21259518 0.032641593 -0.12407122 -0.06700815

net.net.2.bias f4 [100]
000000 a6 b0 09 3e f2 03 af 3a ba d0 b3 3e e4 23 b7 bb
       0.13446292 0.0013352616 0.35120183 -0.0055889953
000010 5e ac 5a 3e 4f dd a5 3d d8 c0 ad bd 06 74 57 bd
       0.21354815 0.08098852 -0.08484048 -0.052600883
000020 cc b2 ce 3e b8 74 86 3d b3 69 b1 3e d4 63 c7 3e
       0.40370786 0.06565231 0.34650955 0.3894335
000030 75 bf 40 3e 7a f1 dc 3d 24 f5 24 3f 57 e7 8a 3d
       0.18823035 0.107882455 0.64436555 0.06782406
000040 a3 c4 56 3d b6 73 46 3f 18 c2 84 3d d6 23 cd 3e
       0.05243362 0.7752031 0.06482333 0.40066403
000050 b6 79 2a bd 74 c2 9f 3e 84 7d 43 3e e4 55 89 be
       -0.04161998 0.31203043 0.19090849 -0.26823342
000060 14 53 37 be ae df 9f 3a 9c 17 10 bd ca dd 5a 3e
       -0.17902786 0.0012197399 -0.035178766 0.21373668
000070 7a ac e5 3e c2 97 fb bc 9f e9 ef 3e e1 25 b8 bc
       0.44858152 -0.030712012 0.46857926 -0.022479
000080 58 d6 e8 bd 70 e2 33 be 19 33 70 3e 9e d0 d6 3d
       -0.11369008 -0.17566848 0.23456992 0.10489009
000090 70 5e fd 3c 13 6e b6 3e b6 73 2c 3e 3e 22 8e 3e
       0.03092882 0.35630855 0.16841015 0.277605
0000a0 b5 5a 8f 3e 9a e3 b2 bd 3f e4 fa 3e 1d 26 bf 3e
       0.2799889 -0.08734818 0.49002263 0.37333766
0000b0 63 f6 73 be 37 e7 2d be 43 18 33 3f 59 6f 95 bc
       -0.23824458 -0.16982733 0.69958895 -0.018241571
0000c0 01 c4 70 bd be 2c ed 3d 94 17 02 3e 6b 97 42 bd
       -0.058780674 0.115807995 0.12704307 -0.047507685
0000d0 7f ad ac 3e 09 da a2 3e 0b 99 34 3e bb e2 a0 3e
       0.33726117 0.31806973 0.17636506 0.31422982
0000e0 36 1f 53 bb 20 f9 3a 3e d9 e4 42 3d 06 d4 83 3e
       -0.0032214648 0.18259096 0.047581527 0.257477
0000f0 db 01 aa bc 37 2f 4e 3e 3b 9e 55 3e f1 74 58 be
       -0.020752838 0.20135199 0.20861141 -0.2113836
000100 92 ad 85 3e 50 01 a4 3d e3 fd 6c 3e cf 1f 0c 3d
       0.26108986 0.08008063 0.23143725 0.034210023
000110 63 0c 9a 3b be 4e 84 bc b8 55 42 be 17 5a 17 be
       0.0047011836 -0.016150828 -0.18978012 -0.1478046
000120 88 ee 23 bd 4b 1d bc 3c cc d7 80 3c 93 89 3c bd
       -0.040022403 0.022963187 0.0157279 -0.04602964
000130 10 50 d8 bb bb 4d 52 3f b6 93 42 bd 57 e7 23 3e
       -0.006601341 0.8214986 -0.04750415 0.16006218
000140 e1 52 4a 3f 71 c4 31 be ee 0b d2 3e 12 bc 03 3f
       0.79032713 -0.17360093 0.41024727 0.5145885
000150 73 d4 58 bc c4 0e 0d 3f 78 ec b1 3c 92 bf dd 3e
       -0.013234246 0.55100656 0.021719202 0.4331022
000160 74 af 40 bd 1a 0c ea 3e a4 a3 fc 3e e2 f9 b2 bd
       -0.047042325 0.45712358 0.49343598 -0.087390676
000170 0f b8 13 3f 8e 80 0d 3f 5c d2 a6 3e 5a c7 05 bd
       0.57702726 0.55274284 0.32582366 -0.03266082
000180 e0 cd df 3e 24 ef 82 3e 71 97 57 3e 3a 14 87 3d
       0.43711758 0.25573075 0.21053864 0.06595655

net.net.4.weight f4 [10, 100]
000000 23 0e 45 bd b7 e6 c0 3d 17 1b 6f be 58 16 b5 3e
       -0.048109185 0.09419005 -0.23350178 0.3536861
000010 aa 0b 13 be d3 25 50 be 4a 21 72 3e 8a 38 66 be
       -0.14359918 -0.20326929 0.23645511 -0.22482505
000020 59 93 76 3e 4e 74 86 be cd 5c 70 be d2 35 c4 3e
       0.24079646 -0.26260608 -0.234729 0.38322312
000030 03 1a 81 be e1 ab 0e be c1 c6 e0 be 09 23 a3 3e
       -0.25215158 -0.13932754 -0.43901637 0.31862667
000040 fd 4a 5f 3e b5 a1 8e be 57 12 12 3e 60 7d e6 bd
       0.2180595 -0.27857748 0.14264809 -0.11254382
000050 16 13 aa bc b3 b7 78 3d 9e 4c 4d be 7b 86 0b 3e
       -0.020761054 0.060722064 -0.20048758 0.13625519
000060 ed 47 8d be 77 8b 6f bd e0 54 5e 3d b4 65 19 3f
       -0.27593938 -0.058482613 0.05428016 0.5992081
000070 5a be 2c be f7 e2 3f 3e 2d f6 e1 bd 1d 87 21 be
       -0.16869488 0.18738924 -0.110332824 -0.15774198
000080 d6 40 39 3d 05 e4 de 3d 0a f4 8c 3e e9 2f 86 3e
       0.045227848 0.10883335 0.27529937 0.26208428
000090 0c 83 c3 3e 92 89 af 3d 65 74 02 be 2a 6e 5c be
       0.38185918 0.08571161 -0.12739713 -0.21526399
0000a0 18 43 53 3e ef 1e 78 be f2 70 eb bd 63 a1 9f be
       0.20631063 -0.2423055 -0.11496152 -0.31177816
0000b0 79 4e 87 3e 14 ab 73 3e 37 ea 9e bd 18 2c 30 be
       0.26427057 0.2379573 -0.07759517 -0.1720432
0000c0 65 2e 51 3e 92 80 cb 3d f4 0a aa bd 81 84 09 3e
       0.20427854 0.09936632 -0.083028704 0.13429452
0000d0 28 ac 4b be 35 bc a9 3e 69 a8 32 be 95 2c 76 b9
       -0.19889891 0.33151403 -0.17447056 -0.00023476996
0000e0 e5 86 cf bd 5c 5a 3b 3e 19 1e c9 3d 5c 8a 40 be
       -0.10133151 0.18296188 0.09820194 -0.1880278
0000f0 d6 ab a5 3d 56 4b 8c 3b ca 31 85 3d 16 f3 80 3e
       0.08089416 0.0042814417 0.06503637 0.2518546
000100 ba 63 82 bd 7f b2 3f be ff 7f f9 ba 3f 96 8e be
       -0.063666776 -0.18720435 -0.0019035338 -0.27849004
000110 d9 c0 87 bd 2c 67 31 3e af 26 5b be cd 09 24 3e
       -0.0662858 0.17324513 -0.21401475 0.16019364
000120 15 34 8f bc 99 9e 5f bd ca 64 d3 bd e5 79 30 3e
       -0.01748089 -0.05459461 -0.10321958 0.17233999
000130 3b 07 4c be ca 3b 80 be 7b a7 be bd 29 d7 df bb
       -0.19924633 -0.25045615 -0.09309288 -0.006831069
000140 1e 9f d1 be ac df 33 3c a4 d4 7d bd 11 e6 95 be
       -0.4094171 0.0109786205 -0.061970368 -0.2927709
000150 f0 82 f8 bd 94 28 8c 3e a3 40 e8 3d 10 d8 b1 3d
       -0.12134349 0.2737471 0.113404535 0.08683789
000160 09 33 5c 3e 09 b4 54 be 23 bb 04 bf 2f 00 8e be
       0.21503843 -0.20771803 -0.5184805 -0.27734515
000170 16 63 54 bc 5a 0c 4e bd 48 47 db 3e cb ac 4d 3d
       -0.012963077 -0.050304748 0.4282782 0.050213616
000180 43 c2 8d be 06 fd 37 3e be 4a 38 bd 68 92 31 3e
       -0.27687272 0.17967615 -0.044993155 0.17341006
000190 c9 e0 8c 3e 35 bf 57 3e a5 29 db 3e eb c9 ae be
       0.27515247 0.21069033 0.4280521 -0.34138426
0001a0 6a 3b 12 3e 1e 28 42 3e 77 c4 14 be f4 5c e8 3d
       0.14280477 0.18960616 -0.1452807 0.113458544
0001b0 03 80 83 3e 9f 1a 8c bd 98 e4 6c 3e 0e 13 a5 be
       0.25683603 -0.06841015 0.23134077 -0.322411
0001c0 ba 20 cb 3d a4 f3 2d 3e 84 8b c0 bd 46 57 e2 bd
       0.099183515 0.16987473 -0.094016105 -0.11051802
0001d0 a0 ec 15 be 70 d3 b4 3e 0b c6 28 3e 03 36 4e 3d
       -0.14641047 0.35317564 0.16481797 0.05034448
0001e0 47 a5 07 3e 0f e0 8f be 9a 19 7d 3e 9b b4 6d 3b
       0.13246642 -0.2810063 0.24716797 0.003627098
0001f0 79 e0 44 bd 01 61 f8 bd 06 eb 59 bd 77 91 ab 3d
       -0.048065636 -0.12127877 -0.05320265 0.083773546
000200 04 19 8a 3e 88 f6 17 be c7 7b c1 3d 21 f8 91 3e
       0.2697221 -0.14840138 0.09447437 0.2850962
000210 e8 57 09 bd 40 6a 3f 3d 72 95 00 be 28 f6 c7 bd
       -0.0335311 0.046732187 -0.12557009 -0.097637475
000220 08 ca e5 bd 00 07 66 3d 70 92 26 3d 33 b0 c8 be
       -0.11220175 0.05615902 0.040666997 -0.3919693
000230 e2 01 de be 04 d1 c0 3e 8d b6 03 3e d4 a9 2d 3f
       -0.4336081 0.37659466 0.12862606 0.6783726
000240 5c f3 47 bd 59 67 a2 bd 1a 97 ce be f1 02 23 be
       -0.04881607 -0.07929868 -0.40349656 -0.15919091
000250 e7 e2 82 be e3 34 d9 be 32 9f 82 be 78 dc 44 3e
       -0.25563738 -0.42423162 -0.2551208 0.19224727
000260 5b 9a 73 be e7 be 76 3b bf 22 33 3c 7b 4e 33 3e
       -0.2378935 0.0037650408 0.010933577 0.17510407
000270 6c fa 0b 3d 4f 37 ab bd 41 f2 a7 bb 19 ce b4 3e
       0.034174368 -0.08360159 -0.0051253145 0.3531349
000280 1a 9e 94 bd 38 d1 19 3e 6c 03 ec 3e 6f 9f c5 bc
       -0.07256718 0.15021217 0.4609636 -0.024123875
000290 0a d1 6d 3d c8 c2 92 bd f2 f7 a1 3e 7f 62 6c be
       0.058060683 -0.07166058 0.3163448 -0.23084448
0002a0 c3 3e 61 be 19 33 eb 3d 92 bc 59 be 75 3d 63 be
       -0.21996598 0.114843555 -0.2126334 -0.22191413
0002b0 2e 60 e0 bd e2 49 d8 3c 14 02 5e 3e 62 f1 32 bd
       -0.10955845 0.026402418 0.2168048 -0.04368723
0002c0 01 a1 17 3e 2e 02 9f be c6 8a e6 bb 1e 83 15 3f
       0.14807512 -0.3105635 -0.007035586 0.58403194
0002d0 1d 0e 63 3e 2c 84 bb bd 7e 86 8d be 85 54 d0 be
       0.22173353 -0.09156069 -0.27641672 -0.40689483
0002e0 e1 0b 9a 3c cc 72 01 3e 84 df b1 bd 49 d7 8a be
       0.018804492 0.12641448 -0.0868521 -0.27117375
0002f0 18 0d 2f be d5 d6 8d be b4 6f 72 be e1 4c 3d 3d
       -0.17094839 -0.27702966 -0.23675424 0.046215896
000300 04 c0 eb 3b 30 e3 88 be 5b cc 57 be 85 4d f6 bd
       0.007194521 -0.2673583 -0.21074049 -0.120265044
000310 c1 b2 03 3e d2 d6 53 be 29 5d 11 3e 54 61 2f be
       0.12861158 -0.20687416 0.14195694 -0.17126971
000320 2a f1 cc bd 1c 05 8f 3b 65 c1 ce be a5 cc ef 3e
       -0.10006936 0.0043646228 -0.40381923 0.4683582
000330 a9 7b f9 bc 17 5e 90 3d 53 97 13 3e b7 8f ec bc
       -0.030454474 0.07049196 0.14413194 -0.028877122
000340 ed 12 b0 be e0 9a bc 3d ad 63 63 be d0 ce f1 bd
       -0.3438944 0.092092276 -0.22205992 -0.118070245
000350 12 a9 b7 bd 1b 90 0d 3e b9 4c d3 bd bc 82 2b 3e
       -0.089677945 0.13824503 -0.10317368 0.1674909
000360 1f 53 8a 3d 2a de 43 be 96 a2 3d 3e 4e db 0e be
       0.06754135 -0.19127718 0.18519053 -0.13950846
000370 c2 31 01 3d c1 75 9c 3e c9 6d 80 bd d7 d8 00 bd
       0.031541593 0.3055859 -0.0627094 -0.031456795
000380 ac 07 a4 3e 42 6b 91 3e 35 c6 d4 3d 75 51 8e be
       0.32037103 0.28402144 0.103893675 -0.27796522
000390 d5 71 c3 3d c9 a8 65 3e dd 9c e9 bd d1 ef 5a 3e
       0.09543196 0.22427668 -0.114068724 0.21380545
0003a0 7a 1b 39 bc d8 cd a5 3e 00 f2 cd 3c 9f bd 7d 3e
       -0.011298055 0.3238361 0.025139809 0.24779366
0003b0 21 53 3d 3e 6a 9f 53 3e c4 51 b1 3d 5c 57 67 3d
       0.18488742 0.2066628 0.08658174 0.056479797
0003c0 1a 9b 8a bd 8e 4c 9f 3e 64 b5 4d 3d 91 92 19 3d
       -0.067678645 0.31113094 0.050221816 0.037493292
0003d0 ff ea 88 3e 1d 58 e9 3e 6b 88 00 be 52 72 8b 3b
       0.26741788 0.45575038 -0.1255204 0.0042555714
0003e0 93 21 59 3c bb 3b 33 be 67 5f 28 be 9e d0 d0 3d
       0.013252634 -0.17503254 -0.16442643 0.101960406
0003f0 d5 50 0c be 3c 7f 64 be e3 8c 80 be 7d c9 87 3e
       -0.1370271 -0.22314161 -0.25107488 0.2652091

net.net.4.bias f4 [10]
000000 c6 de a4 bd df 9c e2 3d dd 21 7a bf f4 ef 2e be
       -0.08050303 0.11065077 -0.9770792 -0.17083722
000010 4e 01 30 3e 6b af 3f bf a5 89 35 3f 81 6c 08 3e
       0.17187998 -0.7487704 0.70913154 0.13322641
000020 2f 57 e2 3e 86 08 d2 3e
       0.4420714 0.41022128
