continual learning/ModTest2/results/gem_GMod2Cov_nv_0.0_False_5_mnist_rotations_reduced.pt_2021_08_13_19_30_27_0cc09b5628834ab7a821791a3ad4494c.pt (torch, 368925 bytes, 8 tensors)

tensor f4 [101]
000000 00 00 00 00 00 00 00 00 00 00 00 00 00 00 00 00
       0.0 0.0 0.0 0.0
000010 00 00 00 00 00 00 00 00 00 00 00 00 00 00 00 00
       0.0 0.0 0.0 0.0
000020 00 00 00 00 00 00 00 00 00 00 00 00 00 00 80 3f
       0.0 0.0 0.0 1.0
000030 00 00 80 3f 00 00 80 3f 00 00 80 3f 00 00 80 3f
       1.0 1.0 1.0 1.0
000040 00 00 80 3f 00 00 80 3f 00 00 80 3f 00 00 80 3f
       1.0 1.0 1.0 1.0
000050 00 00 80 3f 00 00 00 40 00 00 00 40 00 00 00 40
       1.0 2.0 2.0 2.0
000060 00 00 00 40 00 00 00 40 00 00 00 40 00 00 00 40
       2.0 2.0 2.0 2.0
000070 00 00 00 40 00 00 00 40 00 00 00 40 00 00 40 40
       2.0 2.0 2.0 3.0
000080 00 00 40 40 00 00 40 40 00 00 40 40 00 00 40 40
       3.0 3.0 3.0 3.0
000090 00 00 40 40 00 00 40 40 00 00 40 40 00 00 40 40
       3.0 3.0 3.0 3.0
0000a0 00 00 40 40 00 00 80 40 00 00 80 40 00 00 80 40
       3.0 4.0 4.0 4.0
0000b0 00 00 80 40 00 00 80 40 00 00 80 40 00 00 80 40
       4.0 4.0 4.0 4.0
0000c0 00 00 80 40 00 00 80 40 00 00 80 40 00 00 a0 40
       4.0 4.0 4.0 5.0
0000d0 00 00 a0 40 00 00 a0 40 00 00 a0 40 00 00 a0 40
       5.0 5.0 5.0 5.0
0000e0 00 00 a0 40 00 00 a0 40 00 00 a0 40 00 00 a0 40
       5.0 5.0 5.0 5.0
0000f0 00 00 a0 40 00 00 c0 40 00 00 c0 40 00 00 c0 40
       5.0 6.0 6.0 6.0
000100 00 00 c0 40 00 00 c0 40 00 00 c0 40 00 00 c0 40
       6.0 6.0 6.0 6.0
000110 00 00 c0 40 00 00 c0 40 00 00 c0 40 00 00 e0 40
       6.0 6.0 6.0 7.0
000120 00 00 e0 40 00 00 e0 40 00 00 e0 40 00 00 e0 40
       7.0 7.0 7.0 7.0
000130 00 00 e0 40 00 00 e0 40 00 00 e0 40 00 00 e0 40
       7.0 7.0 7.0 7.0
000140 00 00 e0 40 00 00 00 41 00 00 00 41 00 00 00 41
       7.0 8.0 8.0 8.0
000150 00 00 00 41 00 00 00 41 00 00 00 41 00 00 00 41
       8.0 8.0 8.0 8.0
000160 00 00 00 41 00 00 00 41 00 00 00 41 00 00 10 41
       8.0 8.0 8.0 9.0
000170 00 00 10 41 00 00 10 41 00 00 10 41 00 00 10 41
       9.0 9.0 9.0 9.0
000180 00 00 10 41 00 00 10 41 00 00 10 41 00 00 10 41
       9.0 9.0 9.0 9.0
000190 00 00 10 41
       9.0

tensor f4 [101, 10]
000000 ce 88 d2 3d ac ad d8 3d 86 c9 d4 3d 5a 64 bb 3d
       0.1028 0.1058 0.1039 0.0915
000010 0e be b0 3d 9d 80 a6 3d 95 d4 89 3d e8 d9 ac 3d
       0.0863 0.0813 0.0673 0.0844
000020 ee 7c bf 3d ea 95 b2 3d ec c0 b9 3e 3e 79 b8 3e
       0.0935 0.0872 0.3628 0.3603
000030 58 39 b4 3e 28 0f 8b 3e b1 50 6b 3e 10 e9 37 3e
       0.352 0.2716 0.2298 0.1796
000040 81 26 02 3e 8f e4 f2 3d 7e 8c b9 3d 53 05 a3 3d
       0.1271 0.1186 0.0906 0.0796
000050 ce 19 01 3f 9b 55 ff 3e 48 e1 fa 3e cd cc cc 3e
       0.5043 0.4987 0.49 0.4
000060 70 5f a7 3e 12 a5 7d 3e 37 1a 40 3e 1e 16 2a 3e
       0.3269 0.2477 0.1876 0.1661
000070 d6 56 ec 3d 19 73 d7 3d 0b 24 28 3f 4a 7b 23 3f
       0.1154 0.1052 0.6568 0.6386
000080 28 7e 1c 3f fa 7e ea 3e 23 db b9 3e 4f 40 93 3e
       0.6113 0.458 0.363 0.2876
000090 3e 79 58 3e 6f 81 44 3e 4b c8 07 3e 96 b2 0c 3e
       0.2114 0.1919 0.1326 0.1374
0000a0 d9 3d 09 3f ca 32 04 3f f6 28 fc 3e 77 2d c1 3e
       0.5361 0.5164 0.4925 0.3773
0000b0 58 39 94 3e 0e be 70 3e 7b 83 2f 3e 42 cf 26 3e
       0.2895 0.2351 0.1714 0.1629
0000c0 f6 28 dc 3d 14 d0 c4 3d 0f 9c 33 3f 20 63 2e 3f
       0.1075 0.0961 0.7016 0.6812
0000d0 55 c1 28 3f 19 73 f7 3e 51 da bb 3e b3 7b 92 3e
       0.6592 0.4833 0.3669 0.2861
0000e0 3f 35 5e 3e cf f7 53 3e 1a 51 1a 3e 73 d7 12 3e
       0.217 0.207 0.1507 0.1434
0000f0 8f 53 44 3f 4d f3 3e 3f 15 1d 39 3f 17 b7 01 3f
       0.7669 0.7459 0.7231 0.5067
000100 cc 7f c8 3e fc a9 91 3e 4e d1 51 3e ca 54 41 3e
       0.3916 0.2845 0.2049 0.1888
000110 28 0f 0b 3e 93 a9 02 3e e7 fb 49 3f 0f 0b 45 3f
       0.1358 0.1276 0.789 0.7697
000120 60 76 3f 3f 77 be 0f 3f f6 28 dc 3e 4b c8 a7 3e
       0.7479 0.5615 0.43 0.3277
000130 0a 68 62 3e b7 d1 40 3e b2 2e ee 3d ec c0 b9 3d
       0.2211 0.1883 0.1163 0.0907
000140 8a 8e 54 3f 64 5d 4c 3f 9d 80 46 3f c1 39 13 3f
       0.8303 0.7983 0.7754 0.5751
000150 e3 a5 db 3e d1 22 9b 3e 4c a6 4a 3e e7 fb 29 3e
       0.429 0.303 0.1979 0.166
000160 d0 b3 d9 3d 33 c4 b1 3d b0 72 48 3f 25 75 42 3f
       0.1063 0.0868 0.783 0.7596
000170 9a 77 3c 3f 6d c5 0e 3f 38 f8 e2 3e 31 99 aa 3e
       0.7362 0.5577 0.4433 0.3332
000180 f8 53 63 3e 12 a5 3d 3e 25 75 02 3e 1b 9e de 3d
       0.222 0.1852 0.1274 0.1087
000190 b7 62 4f 3f 8c db 48 3f 66 f7 44 3f bc 74 13 3f
       0.8101 0.7846 0.7694 0.576
0001a0 39 45 e7 3e 55 c1 a8 3e 0a 68 62 3e 48 bf 3d 3e
       0.4517 0.3296 0.2211 0.1853
0001b0 1b 0d e0 3d 10 7a b6 3d 0d 71 4c 3f 6c 09 49 3f
       0.1094 0.0891 0.7986 0.7853
0001c0 3d 2c 44 3f fa ed 1b 3f c7 ba f8 3e 8a b0 c1 3e
       0.7663 0.6091 0.4858 0.3783
0001d0 4b c8 87 3e 68 91 6d 3e 2e ff 21 3e cf 66 15 3e
       0.2652 0.232 0.1582 0.1459
0001e0 5f 07 4e 3f e3 36 4a 3f 14 3f 46 3f 78 7a 15 3f
       0.8048 0.7899 0.7744 0.5839
0001f0 16 6a ed 3e ad fa bc 3e 1e 16 8a 3e 1b 0d 80 3e
       0.4637 0.3691 0.2697 0.2501
000200 fe 43 3a 3e 2f 6e 23 3e bd e3 54 3f 1d 5a 54 3f
       0.1819 0.1596 0.8316 0.8295
000210 f3 8e 53 3f 6d 56 2d 3f fe 43 0a 3f 17 48 d0 3e
       0.8264 0.6771 0.5401 0.4068
000220 36 3c 7d 3e 19 e2 58 3e 91 7e fb 3d a6 9b c4 3d
       0.2473 0.2118 0.1228 0.096
000230 57 ec 4f 3f 92 5c 4e 3f 03 09 4a 3f f7 75 20 3f
       0.8122 0.8061 0.7892 0.6268
000240 0e be 00 3f 83 2f cc 3e f2 b0 90 3e 09 f9 80 3e
       0.5029 0.3988 0.2826 0.2519
000250 af 25 24 3e 4d 15 0c 3e cd cc 5c 3f e8 6a 5b 3f
       0.1603 0.1368 0.8625 0.8571
000260 63 7f 59 3f 9a 77 2c 3f 30 2a 09 3f e1 0b d3 3e
       0.8496 0.6737 0.5358 0.4122
000270 96 21 8e 3e 5b b1 7f 3e 2e ff 21 3e de 93 07 3e
       0.2776 0.2497 0.1582 0.1324
000280 e4 14 4d 3f f7 e4 51 3f 0e be 50 3f 25 75 32 3f
       0.8011 0.8199 0.8154 0.6971
000290 5c 8f 12 3f 01 4d e4 3e 59 86 98 3e af 25 84 3e
       0.5725 0.4459 0.2979 0.2581
0002a0 3d 9b 15 3e 1f 85 eb 3d a4 df 4e 3f 68 b3 4a 3f
       0.1461 0.115 0.8081 0.7918
0002b0 02 2b 47 3f 31 99 1a 3f 10 58 f9 3e 9b e6 bd 3e
       0.778 0.6039 0.487 0.3709
0002c0 6f 81 84 3e e9 48 6e 3e 67 d5 27 3e 04 56 0e 3e
       0.2588 0.2327 0.1639 0.139
0002d0 a8 57 5a 3f b6 84 5c 3f 71 3d 5a 3f bc 96 30 3f
       0.8529 0.8614 0.8525 0.6898
0002e0 72 f9 0f 3f b7 d1 e0 3e c0 ec 9e 3e 7b 83 8f 3e
       0.5624 0.4391 0.3104 0.2803
0002f0 49 9d 40 3e 1c eb 22 3e 28 7e 5c 3f db 8a 5d 3f
       0.1881 0.1591 0.8613 0.8654
000300 fa ed 5b 3f 32 55 30 3f b7 62 0f 3f 09 8a df 3e
       0.8591 0.6888 0.5601 0.4366
000310 21 1f 94 3e 38 f8 82 3e 65 aa 20 3e 70 5f 07 3e
       0.2893 0.2558 0.1569 0.1322
000320 22 6c 58 3f 56 9f 5b 3f c3 64 5a 3f 10 7a 36 3f
       0.8454 0.8579 0.8531 0.7128
000330 4b c8 17 3f 83 2f ec 3e 1d 5a a4 3e 58 a8 95 3e
       0.5929 0.4613 0.321 0.2923
000340 01 de 42 3e 1b 2f 1d 3e d8 f0 54 3f 59 86 58 3f
       0.1903 0.1535 0.8318 0.8458
000350 4b c8 57 3f 9d 11 35 3f 94 f6 16 3f 28 7e ec 3e
       0.8429 0.7073 0.5897 0.4619
000360 f7 75 a0 3e 4d 15 8c 3e d8 f0 34 3e bc 96 10 3e
       0.3134 0.2736 0.1767 0.1412
000370 68 b3 5a 3f d2 00 5e 3f e8 6a 5b 3f 7d ae 36 3f
       0.8543 0.8672 0.8571 0.7136
000380 55 c1 18 3f 7d d0 f3 3e f1 63 ac 3e a2 45 96 3e
       0.5967 0.4762 0.3367 0.2935
000390 15 8c 4a 3e 69 00 2f 3e 19 04 56 3f a4 70 5d 3f
       0.1978 0.1709 0.836 0.865
0003a0 a4 70 5d 3f 69 6f 40 3f 58 ca 22 3f ca 54 01 3f
       0.865 0.7517 0.6359 0.5052
0003b0 3d 0a b7 3e a5 4e a0 3e 50 fc 58 3e 7b 83 2f 3e
       0.3575 0.3131 0.2119 0.1714
0003c0 5f 29 5b 3f 89 41 60 3f 12 14 5f 3f ee eb 40 3f
       0.8561 0.876 0.8714 0.7536
0003d0 06 81 25 3f 26 53 05 3f 1b 2f bd 3e 27 c2 a6 3e
       0.6465 0.5208 0.3695 0.3257
0003e0 1b 2f 5d 3e b3 7b 32 3e b8 1e 55 3f 7f 6a 5c 3f
       0.216 0.1743 0.8325 0.861
0003f0 df e0 5b 3f 96 21 3e 3f 58 39 24 3f 9e ef 07 3f
       0.8589 0.7427 0.6415 0.531

net.net.0.weight f4 [100, 784]
000000 70 24 0a bd ab a0 53 bd 50 5a b5 3c 40 1f ef ba
       -0.033726156 -0.051666897 0.02213779 -0.0018243566
000010 59 c3 a1 bd d0 6c 23 3c 40 b9 f4 bc d0 e9 93 bc
       -0.07898588 0.009974673 -0.02987349 -0.018055826
000020 b8 54 11 bd 56 48 98 3d ea 15 4b bc df 07 13 bd
       -0.035481185 0.07435672 -0.012395361 -0.03589618
000030 55 67 63 bc 2a e4 31 bd 8c 9e a5 3c e6 d8 c1 bc
       -0.013879617 -0.043430485 0.020217203 -0.023662996
000040 a3 e2 90 3b 4e 4f 8b 3b 18 85 73 bc 28 eb 45 bd
       0.0044215485 0.004251397 -0.014863275 -0.048319966
000050 d7 a6 9a bd 6e 1a bc bc e8 ae fc 3c e8 fa 8b bc
       -0.075513534 -0.022961821 0.03084512 -0.017087415
000060 7b 80 9f bd 2e 24 36 bd 24 4c 29 3d 39 b6 3e bd
       -0.077881776 -0.044468097 0.04133238 -0.0465605
000070 fc 2a e7 3c 39 de 95 bd 3c 58 b5 3c 00 0c 44 bb
       0.028218739 -0.07317776 0.0221368 -0.002991438
000080 fe 6c 96 bd 6c e9 a0 bd cf f9 7c bd 81 a5 0c bd
       -0.07345007 -0.07857022 -0.061761674 -0.034337524
000090 78 fb d4 3c 1b 48 10 3d ac 83 ef bb ed 25 fa bc
       0.025998816 0.035225015 -0.0073093977 -0.030535663
0000a0 92 0a 55 3d 06 b6 16 3c 85 60 b8 3c 5c f3 c1 bb
       0.052012034 0.009198671 0.022506962 -0.0059189033
0000b0 a6 0c ad 3b da 7e 04 bd 8e 75 2d 3d d5 ca 84 3d
       0.005281049 -0.032347538 0.042348437 0.06484
0000c0 c3 9f 9c 3d e6 1f a8 3d 58 8c bf bc 16 6c 9f bc
       0.0764766 0.08209209 -0.02338235 -0.01946072
0000d0 32 47 79 bd 74 fb db 3c e8 8f 77 3d 78 7e b6 3c
       -0.060858913 0.0268533 0.060439974 0.022277102
0000e0 aa 63 69 bd 20 69 82 3b d4 a8 02 bd 68 16 7d 3d
       -0.056979813 0.003979817 -0.03189929 0.061788946
0000f0 cc 6c 88 3c f5 49 07 bd 1b 16 8e 3d 34 02 85 3d
       0.01665344 -0.033029515 0.0693781 0.06494561
000100 5b 20 49 3d c1 8a 95 bd 8d 04 ab 3c 19 d9 19 3d
       0.049103122 -0.07301856 0.020876193 0.037560556
000110 a8 09 83 3d 55 0c c5 3c e6 ec b4 bd ed a4 c9 bc
       0.06398326 0.024053732 -0.08834247 -0.024614776
000120 5b 86 86 3b 2a 62 e1 bc f5 05 8a 3d db ee 50 3d
       0.004105372 -0.027512629 0.067394175 0.05100904
000130 5d 0a 6e 3d 12 f6 4b bc 08 20 1c bc e2 57 82 bd
       0.058115352 -0.012448804 -0.009529121 -0.063644186
000140 ba 9e 30 bd a0 58 65 bd fc 98 61 bd 1c 7f a3 bc
       -0.043120123 -0.055992723 -0.055077538 -0.019958071
000150 66 49 a3 3d 34 25 cd bc 8d a7 91 bd 50 33 5b bc
       0.07972984 -0.025042154 -0.07112036 -0.013378933
000160 30 f1 a4 3b 12 d6 7f bd 02 ae 79 bc fc fa 05 bd
       0.0050336346 -0.062460013 -0.015239241 -0.03271006
000170 75 61 90 bd ae f0 47 3d 51 e4 2e 3d 21 cd 7c bd
       -0.070498385 0.048813514 0.04269821 -0.061719064
000180 89 6f 08 3c 26 0a 8f bd 2c 6d b6 bd 96 75 68 3d
       0.008327373 -0.069843575 -0.08907542 0.056752764
000190 cf cf 2e 3d 8a 3e 64 bd 9e 47 ae bc 95 e9 b3 bd
       0.04267865 -0.055723704 -0.021274384 -0.087847866
0001a0 dc 5f fa 3b bd 34 30 bd 0c 87 45 bd 92 75 96 3d
       0.007640822 -0.043019045 -0.048224494 0.073466435
0001b0 3d 5a a4 3d 91 9f 86 bd 72 d0 8f bd 94 ce 5e 3d
       0.08025024 -0.065734036 -0.0702218 0.054396227
0001c0 a5 81 44 bd 98 7d e2 3c 7a 8c 22 3d de ed 92 3d
       -0.0479752 0.027647778 0.03968475 0.07174276
0001d0 9d 3a 57 bc c5 e3 25 bd e8 64 66 3d 89 a6 95 3c
       -0.013136533 -0.04050042 0.056248575 0.018267887
0001e0 23 f9 a8 3d 33 4e 80 3c ce 5e 64 3c 8c 58 0c 3c
       0.08250644 0.015662288 0.013938619 0.008566033
0001f0 62 4e 96 bc 1d 7a ab 3d cc 0a 0d bd 59 93 c0 bd
       -0.018347923 0.08372901 -0.034434125 -0.09403104
000200 1c 86 3a bc 6f d2 d1 bd 15 a8 65 bd b6 8a 13 bd
       -0.011384513 -0.10245215 -0.0560685 -0.036020957
000210 3d 71 3a bd 2b f2 15 bd 51 28 8f bd e6 c7 49 3c
       -0.04551815 -0.036607902 -0.069901116 0.012315726
000220 ba ed a1 bd 20 fd 41 bb 62 12 9f 3d de 03 8c bd
       -0.07906671 -0.0029600337 0.07767178 -0.06836675
000230 18 fd f6 3c d4 c5 5d 3d b0 0b 51 3d c7 ce ef bc
       0.030149981 0.05414374 0.051036537 -0.029273404
000240 3d ec 42 bd 66 b1 60 bd 29 25 82 bd 61 14 24 bd
       -0.047588576 -0.05485668 -0.06354744 -0.040058497
000250 82 ef 1f 3d 75 d8 a5 bd c5 18 46 bd 0c 05 93 bd
       0.03904677 -0.080979265 -0.048363466 -0.07178697
000260 ef 59 95 3d 19 5c 98 bc f2 71 2d bd 85 e5 96 bc
       0.07292544 -0.018598603 -0.042344995 -0.01841999
000270 4d ac c3 bd 5b fd 39 bd 74 4d ea bd 4a 0b 86 bd
       -0.09554348 -0.045407634 -0.11440554 -0.06545122
000280 08 28 42 3c 66 34 fc bc 8d ec 64 bc 55 26 05 3d
       0.0118503645 -0.030786704 -0.013972414 0.03250726
000290 8f b7 89 bd 7c d5 4a 3d 80 cd 39 bc d4 b7 1d 3d
       -0.06724464 0.04952 -0.011340499 0.03850539
0002a0 00 99 49 ba 62 60 99 bd e4 64 c2 3c ee 99 98 bd
       -0.000769034 -0.07489087 0.023729749 -0.07451235
0002b0 51 37 59 3d b1 78 98 bd 1f 14 96 bd b9 7e 1c bd
       0.05303127 -0.07444895 -0.073280565 -0.03820679
0002c0 92 e0 b6 bb cd e4 e5 3c 98 ba ac 3c 75 3d 57 bc
       -0.00558097 0.028063202 0.021085069 -0.013137211
0002d0 50 3e 7d 3d 5f ed 51 bb ea 96 34 bd cf d8 76 3d
       0.061827004 -0.0032032353 -0.044089235 0.06026536
0002e0 28 26 39 bd dc 9a 08 3c 25 d8 b2 bd 8f c7 50 3c
       -0.045202404 0.008337703 -0.087326325 0.012742891
0002f0 b8 45 12 bd bb a4 55 bd f6 43 66 bd 82 4f bc 3c
       -0.03571102 -0.052159052 -0.056217156 0.022987131
000300 22 bf a1 bd 32 d2 5e bd 0c f7 76 bc eb 42 aa 3c
       -0.07897784 -0.054399677 -0.015073549 0.020783862
000310 45 f3 38 bd 92 df 7f 3d 0d 4e 87 bd a2 ec ea bc
       -0.045153875 0.062469073 -0.06606684 -0.028677288
000320 ff 9a e1 3c 72 0c 4d 3b 30 f0 41 bc 68 d7 51 3d
       0.027539728 0.0031287936 -0.01183705 0.051230818
000330 bd 0a b0 bd 2c 71 46 3d f0 7b 85 3d 81 53 99 bd
       -0.08595798 0.048447773 0.0651778 -0.0748663
000340 ab 7b b7 3d 04 2a 21 3e f4 5b 3b bc 7b fc b1 3d
       0.08959135 0.15738684 -0.011435498 0.08690735
000350 57 cd f2 bd a3 9d 7f 3c 24 1b 8f bd 54 f7 ad bd
       -0.11855572 0.015601548 -0.069875985 -0.0849444
000360 6b fa 4a bd 2a 61 2f 3d 89 a8 9d bd 9a 94 94 bd
       -0.049555223 0.042817272 -0.07698161 -0.07254906
000370 da 76 86 3d f5 92 e4 bc e9 35 89 3d 52 b8 b6 bc
       0.06565638 -0.027902106 0.06699736 -0.022304688
000380 92 6a 5e bd 79 3b 24 3d 05 f2 04 bd e2 0e 44 bd
       -0.054300852 0.04009578 -0.03245737 -0.047865756
000390 f1 6b 39 bd 99 65 12 bd 89 24 e5 bc 7d cb 1f bc
       -0.045268957 -0.035741422 -0.027971523 -0.009753105
0003a0 cc 2a 3c bd c0 3d df 3c 9b 53 8e bd 6b 44 ac ba
       -0.04593925 0.027251124 -0.0694954 -0.0013142949
0003b0 4c fe 03 3d b6 59 3e 3d 05 9f 09 3e 3f 20 8b bd
       0.03222494 0.046472274 0.13439567 -0.0679326
0003c0 bd c8 45 bd 05 c0 9e bd d1 a5 cd 39 e7 b3 6e bd
       -0.048287142 -0.077514686 0.0003922419 -0.058277037
0003d0 71 e2 46 bc e4 cb 9e bd 2f dc c5 bc dc c1 b5 bd
       -0.012138949 -0.07753733 -0.024152843 -0.08874866
0003e0 d3 9f c2 bc 85 74 82 bd 20 8e 9d 3d df 70 ba bc
       -0.02375785 -0.063698806 0.07693124 -0.0227589
0003f0 36 f3 a5 3d fa 5a 64 3d 6f bc 96 bc 79 86 56 bd
       0.081030294 0.055750825 -0.018400399 -0.052374337

net.net.0.bias f4 [100]
000000 cb db 76 3d 44 96 f9 3c da 3c 5b bc eb 3d a3 3b
       0.060268205 0.03046716 -0.013381207 0.0049817464
000010 39 15 bc bc dd 21 91 3b d1 e8 43 3d 75 83 8b bc
       -0.022959339 0.0044290856 0.047829453 -0.017030457
000020 e7 c5 a4 3d 01 23 a9 3c bd 74 ee 3d 27 ee a4 bd
       0.080455594 0.020646574 0.1164336 -0.080532365
000030 bf 6f b5 bc 88 56 2f 3b f8 47 b1 bc 20 d4 1f be
       -0.022148011 0.0026754458 -0.021640763 -0.15608263
000040 47 ba 24 bc 81 a6 44 3c c5 61 5e bd 53 15 82 bd
       -0.010054178 0.012002588 -0.05429246 -0.063517235
000050 cf b3 0a 3e e9 8e 15 3e 8b 8d 3d 3d 19 f5 a6 bd
       0.13545154 0.14605297 0.046277564 -0.081522174
000060 4a 63 36 3d 9c 14 53 3d 4c bb 04 3b c1 ee 39 bd
       0.044528283 0.051533327 0.002025324 -0.04539371
000070 cb 52 2b ba 81 97 04 3d c1 2a a5 3d 2f 06 c4 bd
       -0.00065354694 0.032371048 0.08064795 -0.09571492
000080 b3 a2 97 bc fd 05 6a 3c ab 87 89 3d 73 da 40 3d
       -0.018510198 0.014283654 0.0671533 0.04708333
000090 af 49 9b bd a2 3d ae 3d 7b f0 07 bd a6 3b 81 bd
       -0.075824134 0.08507849 -0.033188324 -0.06310205
0000a0 99 e0 c9 bd 0e a7 71 bd c9 37 2f be 6d 52 14 bd
       -0.09857292 -0.058997206 -0.17111124 -0.03621142
0000b0 9d 98 02 bc 6d 45 f4 bd 92 63 64 bd ee b5 c0 bb
       -0.007970956 -0.119273044 -0.05575902 -0.0058810627
0000c0 7a e0 fd 3b 4a 6b ce bb 10 72 9b bb eb 87 cc 3c
       0.007747707 -0.006299411 -0.004743822 0.024967154
0000d0 a8 a1 37 bc ef 54 82 3d e7 1b 0d bd 73 ba e0 3d
       -0.011207975 0.06363856 -0.034450438 0.10973062
0000e0 5b c6 b4 bb 9f bf fd bc 62 ee b4 3b a9 03 88 3c
       -0.00551681 -0.030975161 0.0055215815 0.016603308
0000f0 a9 2a 22 3d 19 fd d4 bc 28 54 b5 bc 81 2c f6 bd
       0.039591465 -0.025999593 -0.022134855 -0.12020207
000100 f7 de f9 3d 76 10 f9 3b 12 08 5a 3d b8 1f bb bc
       0.1220073 0.0076008392 0.053230353 -0.022842273
000110 23 0b 7c 3d 15 16 21 bd c6 eb 80 3d 8d be 8e 3c
       0.06153406 -0.0393277 0.0629497 0.017424846
000120 c1 cf 38 3d d9 c6 1b bd fe 33 a6 bc cf 4f a6 bc
       0.045120005 -0.038031433 -0.020288464 -0.020301728
000130 94 22 f1 3c 96 01 cd bc 98 fb b6 3d e9 bc b8 3d
       0.029435433 -0.02502517 0.089347064 0.09020407
000140 96 f8 9c bd f1 80 2f 3d e6 2c de bc 2c d9 8b 3d
       -0.076646015 0.042847577 -0.027121019 0.068285316
000150 29 db 62 ba d7 2b 00 3b 16 7a 20 bd 6b 3c 32 3d
       -0.0008653873 0.001955738 -0.03917893 0.04351465
000160 b1 1f 82 3d 67 9e b8 3c b2 89 89 bd d7 a8 53 3b
       0.06353701 0.02253647 -0.067157164 0.0032296681
000170 c0 f5 af 3d 3b 04 c9 3c 42 4e 7f 3b 30 88 bc 3c
       0.08591795 0.02453815 0.0038956557 0.023014158
000180 4b d2 a5 bc 5f 5b bc bd 65 7a 60 3d a5 aa 39 3d
       -0.020241877 -0.09197115 0.054804225 0.045328755

net.net.2.weight f4 [100, 100]
000000 8e c2 30 3d dd c4 28 3e 07 34 fc bd 3b 5a fb bd
       0.04315429 0.16481347 -0.12314611 -0.122730695
000010 3d 4a f2 bd cd d6 0f be 24 22 9a bd 22 96 28 3e
       -0.11830566 -0.14046784 -0.07526043 0.16463521
000020 27 b3 7b bb 36 6a 1c 3e e0 4b 45 3e de 17 29 bc
       -0.0038406344 0.15274891 0.19267225 -0.010320632
000030 3c 79 31 3e ef c8 25 be de dc 12 be c0 e5 a0 bd
       0.17331403 -0.16189931 -0.14342067 -0.07856321
000040 c4 fa 03 bd 83 58 30 3e 5e a0 0f bd 0d 8f b1 bb
       -0.03222157 0.17221265 -0.035065047 -0.0054186643
000050 69 34 e2 bd f4 33 96 3d 0c 6a 9d bc 70 7e 74 be
       -0.11045153 0.07334128 -0.019215606 -0.23876357
000060 13 d6 2e bd b1 8f 35 bd 9e f9 c7 bd 2a 8e 27 3d
       -0.042684626 -0.044326488 -0.097644076 0.040907063
000070 1c a1 a0 3d be 53 06 be 34 6e 0c 3e 9d 1d 8b 3d
       0.07843229 -0.13117883 0.13713914 0.06792758
000080 1d c4 e1 3d e7 1b b6 bd 2e e9 82 3d b8 11 04 bc
       0.11023734 -0.08892041 0.06392132 -0.008060865
000090 c8 23 fb bd ae 25 03 3a 6a d5 fb 3d e4 b8 69 bd
       -0.12262684 0.0005002868 0.12296565 -0.05706109
0000a0 1d a0 a1 bd 0b f1 2a bd b6 9d b0 be 20 82 16 3d
       -0.07891867 -0.041733783 -0.34495324 0.03674519
0000b0 0b ea 70 bd cd 58 26 be 9e 79 6c 3d 5e 2c 5f bd
       -0.05881695 -0.16244812 0.05773317 -0.05448567
0000c0 41 bc 61 be 54 29 e0 bd 0a 4a d1 3d 10 db ce bd
       -0.2204447 -0.10945383 0.102192 -0.101003766
0000d0 02 01 96 bd 25 8d 3d be b3 fc 09 bd 57 01 2c 3e
       -0.07324411 -0.18510874 -0.03368826 0.16797386
0000e0 6b b3 06 bd eb af c3 3d cb 5b d2 3c 4a 05 c5 bd
       -0.03288595 0.09555038 0.025678536 -0.096201494
0000f0 e9 a3 8a 3d 7f a7 26 bd 3e 42 37 be 45 6c 91 3d
       0.06769545 -0.04068708 -0.17896363 0.07100729
000100 eb 73 06 3e 6d 38 06 be 84 19 48 be 37 b2 92 3d
       0.13130157 -0.13107462 -0.19540983 0.07162898
000110 d2 91 72 bd dd 8f 55 3d a2 6a 79 bd 4a 45 f5 bd
       -0.059221096 0.05213915 -0.06089271 -0.119761065
000120 56 d5 5f 3e 08 fd e6 3d 60 7a 6d bd a8 31 f0 bd
       0.21858725 0.11278731 -0.057978034 -0.11728221
000130 75 2e 95 3d 6b 02 0f be a4 89 34 bd d2 2f 57 3e
       0.072842516 -0.13965766 -0.044076577 0.21014336
000140 4d d6 16 be 4d 19 39 3e b8 37 7f be 36 84 cd 3c
       -0.14730187 0.18076058 -0.24923599 0.025087457
000150 d9 34 0e be 21 00 d8 3d 7a a4 f5 bc 56 ca 0e 3e
       -0.13887347 0.105468996 -0.029985655 0.13944373
000160 97 d5 87 bd 92 d4 d1 bd c1 76 6c 3d 64 d6 8c 3d
       -0.06632536 -0.10245623 0.05773044 0.06876829
000170 39 10 ae 3c d2 74 ee 3d d2 f0 65 bd a4 5b a3 bd
       0.02124797 0.116433755 -0.056137867 -0.079764634
000180 67 21 ea bd 42 54 d0 bd b2 fa 31 be 4e 2d 82 bd
       -0.11432152 -0.10172321 -0.17380789 -0.063562974
000190 f5 e0 e8 3d c1 31 c3 3d 12 45 54 be 42 66 f8 3d
       0.11371032 0.09530974 -0.20729473 0.12128879
0001a0 96 28 05 3e 2c 3d 18 3e 65 27 3f 3e 9b 66 ce 3d
       0.13003764 0.14867085 0.18667372 0.10078164
0001b0 26 21 f4 3d 07 93 19 3e f3 5f 1e 3e 2c a6 1f be
       0.11920385 0.14997493 0.15466289 -0.15590733
0001c0 78 07 d1 3d 72 27 91 bd 4e 52 aa bd d6 53 34 be
       0.10206503 -0.07087602 -0.083164796 -0.17610106
0001d0 61 6e b8 3c 38 0a ba bd bf e0 39 be 06 90 3b bd
       0.02251357 -0.0908398 -0.1815214 -0.04579165
0001e0 15 dc cc 3c 3e 22 54 be 27 da a4 bd a9 48 73 bd
       0.025007287 -0.20716187 -0.08049422 -0.059395466
0001f0 fb 0d 3e bd 01 ad b8 3d 23 06 3c bd 6b 0e 11 3e
       -0.04640005 0.09017373 -0.04590429 0.14165656
000200 4c aa c3 bd 98 52 4f bd 56 32 1f 3e 90 26 49 3d
       -0.09553966 -0.050615877 0.15546545 0.04910904
000210 5f 05 13 be bf eb 81 bd f2 a6 26 be e1 4a 29 bd
       -0.14357518 -0.06343793 -0.16274622 -0.041331176
000220 47 74 cf 3d 0d 7a 14 3e fe 43 8f bc fd 35 32 be
       0.101296 0.14499684 -0.017488476 -0.17403407
000230 58 8b 80 ba 48 fa 92 bd 7b f2 2a bc fc 15 54 be
       -0.0009807153 -0.071766436 -0.010433788 -0.20711511
000240 32 17 04 be 30 d1 4b 3d 41 0d 79 3b 5a a6 15 be
       -0.12899473 0.049760044 0.0038002285 -0.1461424
000250 ec 0c 46 bd b3 74 09 be a7 e6 a9 bc af 28 eb 3d
       -0.048352167 -0.13423423 -0.020739866 0.11482369
000260 98 f5 df 3c bb 69 48 be b6 e9 49 3e 2f 32 77 3e
       0.027338788 -0.19571583 0.1971806 0.24140237
000270 32 37 86 3d 8a b5 e5 bd 7d bf 75 bd 7e 86 c2 bd
       0.065534964 -0.112162665 -0.05999707 -0.094983086
000280 51 5a e1 bd 68 2a 1a 3d d5 d1 6c 3d 74 4d 34 bd
       -0.110035546 0.037638098 0.0578173 -0.044019178
000290 99 d7 24 3c 06 ce 3c bd 26 fd 17 be 01 62 15 3e
       0.010061168 -0.046094917 -0.14842662 0.14588167
0002a0 96 45 49 be 5e a0 49 3c 4f ce 26 3d 0a ae f3 3d
       -0.19655451 0.012306301 0.040724095 0.1189843
0002b0 3a 3b fc bd b6 fc 4b 3e ad 16 b5 3d f7 60 0d 3d
       -0.12315984 0.1992062 0.08842216 0.0345163
0002c0 05 2b e3 3d b4 47 f3 bd 2d d3 20 3e 59 57 93 3e
       0.1109219 -0.11878911 0.15705557 0.28777578
0002d0 17 93 95 3b 5a 7c 16 be c3 bf 1b be 1d 8b ad 3c
       0.0045646536 -0.14695874 -0.1520987 0.021184498
0002e0 bc 77 12 3d 59 d3 8b bd b4 e2 c6 bb ec e7 11 3d
       0.03575872 -0.06827421 -0.0060695056 0.03562157
0002f0 f8 8c 4e bc f9 78 9a bd 5f 1f 5b be f6 86 b1 bd
       -0.012606852 -0.07542605 -0.21398686 -0.0866832
000300 ba d9 05 be 87 bc 31 3d 3d 27 d4 bd fc bd 0b bd
       -0.13071337 0.043392684 -0.103590466 -0.03411673
000310 ae fb 8f 3d c6 f8 ac bc 02 46 0b bb 79 e2 58 3d
       0.07030426 -0.021114718 -0.0021251445 0.052950356
000320 9a 2a a9 bd 1c f1 42 3e f7 b8 90 bc 5f 41 75 bd
       -0.08260079 0.19037288 -0.017666323 -0.059876796
000330 8e 4a 26 be 37 95 90 3d f2 81 1c be a9 a7 09 bd
       -0.16239378 0.070597105 -0.15283945 -0.03360716
000340 95 38 77 3e 12 b6 6d bc f4 63 9a 3c d5 9c 21 be
       0.24142678 -0.014508741 0.01884649 -0.15782483
000350 27 d9 09 3e 15 d9 f7 3d a5 e0 94 3d e5 32 5b be
       0.13461743 0.12101952 0.0726941 -0.21406133
000360 81 ae df bd d0 41 00 be 3c 4b 04 be 31 e3 1d 3c
       -0.10921956 -0.12525105 -0.12919325 0.009636686
000370 c0 be ef 3d 1d 6c 95 3d 8b e1 51 3e bb 5e 23 bc
       0.117063046 0.072960116 0.20496194 -0.009971316
000380 10 0a a4 3d 61 20 82 3d ad 1d 2d 3d ba b9 0f bd
       0.08009732 0.06353832 0.04226463 -0.035089232
000390 4a 45 89 bc b2 f5 e6 3b 99 36 52 3e 7c d5 56 bd
       -0.016756672 0.007048332 0.2052864 -0.05244969
0003a0 50 f1 1c 3d ca 5c a0 bd cd 1b 11 bd fa 10 66 3b
       0.03831607 -0.07830198 -0.035426904 0.0035105334
0003b0 23 2f d6 3d 7a 64 26 3e b6 ef 20 bb 3d 43 ca 3c
       0.10458209 0.16249266 -0.0024556941 0.024690265
0003c0 b5 1a 67 be e4 4e e3 bd 1d ad 6b bd c7 1e 25 bd
       -0.22568782 -0.110990316 -0.05753814 -0.040312555
0003d0 75 92 e2 bd be cd 78 3c 34 be cb 3d 62 d9 ce bd
       -0.11063091 0.0151857715 0.09948388 -0.10100056
0003e0 5e f2 7a bd a6 8c 08 be 36 6f 56 3d 02 61 06 be
       -0.061266296 -0.13334903 0.052352153 -0.13122943
0003f0 19 93 d4 bd 4e 6c e6 3d aa 4a 9d 3d 3e 13 54 3e
       -0.10379619 0.11251126 0.07680257 0.20710465

net.net.2.bias f4 [100]
000000 b7 63 34 3e b9 27 99 3e 9d 33 77 be bb 30 3f 3f
       0.17616163 0.29913118 -0.24140783 0.7468373
000010 9b d6 4f 3d c4 f4 dc bc 89 ad af 3e c0 2b f6 3e
       0.050741773 -0.026972182 0.34312084 0.48080254
000020 80 c9 a6 3e 2a 9e 0a bd 57 aa 3a be 1b b9 68 3e
       0.32575607 -0.033842243 -0.18229042 0.22726862
000030 30 54 f4 be c3 83 0f bc 8d 18 50 bc 3e 55 3a 3f
       -0.4772048 -0.008759442 -0.012701166 0.7278632
000040 5d 8a 9d 3e 94 f0 b9 bd 55 05 47 3e f7 e3 f7 3d
       0.30769625 -0.0907909 0.19435628 0.12104028
000050 1b dc c6 bd 85 95 f7 3d 55 12 a2 3e bd 13 ba bc
       -0.097099505 0.120890655 0.3165461 -0.02271449
000060 f8 09 06 3f 47 e3 b7 3e 82 b6 66 3e 75 77 4c 3e
       0.5235896 0.35915586 0.22530559 0.19967444
000070 17 40 b2 bd 72 b9 41 3f ce 91 cb 3e 9a fa ce bc
       -0.087036304 0.7567359 0.39759678 -0.02526598
000080 51 c5 6c 3e d6 4c 5d 3e 2c d8 f5 3d 69 c5 fb 3d
       0.23122145 0.21611342 0.12004122 0.122935124
000090 04 d0 b4 3e dd be 9d 3e d9 f8 f4 bd f2 94 67 3e
       0.35314953 0.3080968 -0.119615264 0.22615412
0000a0 1b 7d 5a 3e 1e 66 1f 3e 8e 44 41 3f 51 82 53 3d
       0.21336786 0.15566298 0.7549523 0.05163795
0000b0 2b bf 95 3e 79 88 94 3e 85 7b f8 bc 63 10 b6 3e
       0.29247412 0.2901037 -0.030332336 0.35559377
0000c0 5c 7d 5e 3e 97 81 b4 3d 44 3b b9 bd 7e 24 af be
       0.21727508 0.0881378 -0.09044507 -0.3420753
0000d0 2b 51 19 3b be 31 38 bd 9d 73 c6 bd 61 0d 89 be
       0.0023394327 -0.044969313 -0.0969002 -0.2676802
0000e0 13 47 bf 3e fc 87 36 3e e3 84 40 3e 5d 64 9a 3e
       0.37358913 0.17825311 0.18800692 0.30154696
0000f0 9a 5c 6f bd 63 87 45 3c fd 5c 66 3e 33 aa ac 3e
       -0.05843792 0.0120562045 0.2249641 0.33723602
000100 77 a1 b2 be 5d 25 95 3d de 40 1a 3e 5d f2 32 3d
       -0.34888813 0.07282517 0.15063807 0.043688167
000110 57 7f 47 3e 69 dd 1d 3f 53 39 41 3e d4 5b 01 bd
       0.1948217 0.6166597 0.18869524 -0.031581715
000120 9c 8e 8b 3e a8 f5 b9 3e a1 6b 47 bd 65 2d 25 be
       0.2725724 0.36320233 -0.048686627 -0.16130598
000130 1b 52 20 3f b4 0d e6 3d 34 ba fd be 35 a0 25 be
       0.62625283 0.112330824 -0.49556124 -0.16174395
000140 63 60 a0 be 8c 7d 72 3d 7e cd 04 3f 93 5a 48 bd
       -0.31323537 0.059201762 0.51876056 -0.048914503
000150 0e 0f b1 bb 19 0f e4 3e 1b 41 28 be 5f 3b 3a be
       -0.005403406 0.4454277 -0.16431086 -0.18186711
000160 7e 7d ee 3e 98 3c 4b 3f 29 d3 4c 3d d5 b1 69 3e
       0.46580118 0.79389334 0.050006066 0.22821744
000170 b2 df 90 3e 42 69 f8 3e 1c ff b9 3e b0 80 e2 3e
       0.28295666 0.48517805 0.36327446 0.44238806
000180 99 09 3a 3e 27 57 59 3d 63 ac 13 3e 71 2b 47 be
       0.18167724 0.05306163 0.14421229 -0.19450165

net.net.4.weight f4 [10, 100]
000000 cb fd c6 3d 59 d9 20 3c 05 f6 3a 3e ab 37 57 be
       0.09716376 0.009817445 0.18257912 -0.2101733
000010 1c 25 0e bd ab db 2c be dd b6 9d be c4 74 45 3c
       -0.03470336 -0.16880672 -0.30803576 0.012051765
000020 81 7a 48 be d4 96 ff bd 48 59 15 bd 1c c1 d2 3d
       -0.19577982 -0.1247994 -0.0364621 0.10290739
000030 e1 b5 9d be 8e a9 16 3e fc a3 6d be 17 4b ba be
       -0.30802825 0.14713117 -0.23207086 -0.36385414
000040 96 7a 85 be c6 20 18 3e b9 d5 a2 be d4 da e8 3e
       -0.26070088 0.14856252 -0.31803682 0.45479453
000050 02 a8 6a be 4b 12 da 3d 50 02 65 3e bd 1b f3 3c
       -0.22915652 0.1064802 0.22364163 0.029676313
000060 50 9c d8 be 8a af 1a 3e f6 f9 99 3e 15 85 45 be
       -0.42306757 0.15106025 0.30073518 -0.19289048
000070 2f bc fa 3c 5e 0a ed 3a 70 f6 33 bd 61 3e 12 be
       0.030607311 0.0018084755 -0.043936193 -0.14281608
000080 3e d4 0e 3e f3 d8 0e be e2 31 3d 3e dc 8f d8 bd
       0.13948151 -0.13949947 0.1847606 -0.10574314
000090 bf a7 1b bd ad 2c 07 3e 47 ee 13 be 53 0f c1 3e
       -0.038001772 0.13200636 -0.14446364 0.37707004
0000a0 2d 9d 2a be 76 ed ef 3e 3a 47 a9 be 32 1d ca 3e
       -0.1666152 0.46860856 -0.33062154 0.394754
0000b0 a6 6a fd 3c ad d9 2a 3c 90 46 41 be 7c 67 ce be
       0.030934643 0.0104278745 -0.18874574 -0.40313327
0000c0 37 ab 62 be a3 d4 2b be 89 fd d0 bd 0e 95 02 be
       -0.22135626 -0.16780333 -0.10204608 -0.12752172
0000d0 67 a6 58 3e 7e c6 7d be e2 14 22 be 8d 7f ad 3e
       0.21157227 -0.2478275 -0.15828279 0.33886376
0000e0 2a 8c 64 3e 15 3d 09 be f4 cb bd be c3 87 8b 3b
       0.22319093 -0.13402207 -0.37069666 0.0042581274
0000f0 33 7a 3c 3e 4e a6 2b bd 98 37 da 3d c5 f6 bf 3d
       0.1840599 -0.041906647 0.10655135 0.093732394
000100 40 08 d9 3d b9 2e 8c be d8 9a b3 3d 31 24 03 be
       0.10597277 -0.27379397 0.087697685 -0.12806775
000110 b5 a3 1a bd 01 9f ab 3c bf 74 61 be 86 48 1c bd
       -0.03775378 0.020949842 -0.22017191 -0.0381551
000120 b2 6c 59 3e 2f ac 95 3d dc a2 f0 bd 4c 72 f7 3e
       0.2123287 0.07308232 -0.11749813 0.4832939
000130 da 53 74 be 72 c9 a3 be f4 70 d9 bc 90 c0 c3 bd
       -0.23860112 -0.31989628 -0.026543118 -0.09558213
000140 37 e1 4b 3e 96 17 e1 39 01 43 7b bd 86 9c 16 3e
       0.19910131 0.00042932917 -0.061343197 0.14708146
000150 24 01 00 be 40 4c 97 bc c0 53 0e 3e b0 cf cc be
       -0.12500435 -0.018468976 0.13899136 -0.40002203
000160 af 54 ab be 1b 6a 2a 3d e7 f3 c3 3e 72 c2 b8 bd
       -0.33463046 0.041605096 0.3827202 -0.090214625
000170 30 d9 f3 bd 72 67 7d 3c f8 31 1d bd 36 b1 ac 3e
       -0.119066596 0.015466558 -0.038377732 0.3372895
000180 82 08 5a 3e 0b 5c 65 be 05 0e 72 3e 71 1a 65 be
       0.21292308 -0.22398393 0.2363816 -0.22373368
000190 a4 c8 63 bd 84 56 b3 bd 90 81 ff bc 7b 84 a8 3e
       -0.055611268 -0.08756736 -0.03118971 0.32913575
0001a0 75 b1 fc bc 2f 7f 78 be 0d 40 02 3f e2 7f 71 be
       -0.030846337 -0.24267267 0.50878984 -0.2358394
0001b0 a8 17 b5 3e 05 57 dc 3e cb 59 93 bd 42 99 c8 bd
       0.3536961 0.4303514 -0.07194861 -0.097948566
0001c0 30 b5 ac 3d 5e 4e d1 3d 25 67 00 be 88 13 97 bd
       0.08432996 0.102200255 -0.12539347 -0.07376772
0001d0 76 dd 4a be 84 9b 60 3e 24 d9 8f bd ea 33 99 be
       -0.19811043 0.21934325 -0.07023838 -0.2992242
0001e0 f1 7a 58 bd 25 77 5b be 40 ec 13 be 7c 2e a0 3d
       -0.05285162 -0.21432169 -0.14445591 0.07821366
0001f0 11 01 53 3e c9 b0 27 3e 70 fc 99 be e0 af 95 be
       0.20605876 0.16376032 -0.30075407 -0.29235744
000200 ec 9f 1d 3d 45 5e 9b be 96 0b 11 3e 1e 49 ba bd
       0.03848259 -0.3034536 0.14164576 -0.09095977
000210 7a e7 a7 3e 37 cc 11 bc ca 2a ea bd eb f8 37 3e
       0.3279379 -0.008898786 -0.114339426 0.17966048
000220 aa 17 3f 3e 74 d6 bf 3d ca 4e ea bd 4f 6f e9 bd
       0.18661371 0.093670756 -0.11440809 -0.113981836
000230 04 8b 89 be f2 b4 ff bd 63 5c 10 3f 2f a9 2d bd
       -0.26863873 -0.124856845 0.5639097 -0.042397674
000240 c1 d9 95 be 0f 14 1a be b6 47 ee bc 12 92 a8 3d
       -0.29267696 -0.15046714 -0.029086929 0.08230986
000250 0f 74 14 be 46 ae 36 3e 68 76 96 3d ce b8 5b bd
       -0.14497398 0.17839918 0.07346803 -0.05364304
000260 ae 49 b1 be a1 d3 47 3e dd 5e 03 3e 78 08 c8 be
       -0.34626526 0.19514324 0.12829156 -0.3906896
000270 07 0a 91 bd 6d a2 30 3f 28 5b a5 be 5e cb b7 3d
       -0.07081991 0.6899784 -0.3229611 0.08974336
000280 1a b5 af bc 79 48 52 be 69 07 ef 3d 9b b0 35 be
       -0.02144866 -0.20535459 0.11671335 -0.17743151
000290 5e 46 47 be b4 89 3b be df bf 2a be 9f 9b 5f be
       -0.19460437 -0.18314248 -0.16674756 -0.21836708
0002a0 0e c7 4c 3e 72 e8 f2 3d 65 4a 82 bd fe 30 b6 bd
       0.19997808 0.11860742 -0.06361846 -0.08896063
0002b0 02 45 83 bd 2c 03 b2 bc db fa 31 3e eb b9 ae 3b
       -0.064096466 -0.021730028 0.1738085 0.0053322217
0002c0 0b d1 54 bd b4 6d f1 3e 0c d7 91 be 2a 2b 80 be
       -0.05195717 0.4715401 -0.2848438 -0.25032932
0002d0 f7 8a b4 be ca 0f 45 be b4 55 a2 3e 98 24 f2 bd
       -0.35262272 -0.19244304 0.3170601 -0.11823386
0002e0 58 19 04 be 74 d6 7c be ca 7a 5c be 59 2e bc bd
       -0.12900293 -0.24691182 -0.21531215 -0.091885276
0002f0 38 7e ad 3e 42 2d d6 be 02 20 91 be bd 34 4c be
       0.3388536 -0.41831404 -0.28344733 -0.19941993
000300 a1 41 fe bc 43 f9 89 be 48 66 12 be 3d 1a 1e be
       -0.031037154 -0.26947984 -0.1429683 -0.15439697
000310 47 a6 a7 bd fb af a0 3e 8d 7a 8a bd 83 78 a3 3d
       -0.08186012 0.31384262 -0.06761656 0.0798197
000320 f0 12 e3 bd 5b 1b 40 3e 2e 11 bf 3e 38 12 b1 3e
       -0.110875964 0.18760435 0.37317795 0.34584212
000330 77 9f 81 bd 6a cf 13 bd eb 40 7d 3e 1b 7d 8a 3c
       -0.06329244 -0.036086477 0.24731795 0.016905358
000340 9b 70 d5 be a3 72 46 be 38 c1 95 3d c2 c6 25 3e
       -0.41687474 -0.19379668 0.07312244 0.16189101
000350 3b d6 ab 3e 65 8f 47 bb c5 57 05 3d ce 92 88 bd
       0.33561882 -0.003045046 0.032554407 -0.06668626
000360 2a fc 95 be 07 59 43 be df 45 61 be a0 8c 27 3e
       -0.29293948 -0.1907693 -0.2199931 0.16362238
000370 e7 63 da 3e 27 76 53 3e bd dc d0 3d 3e 22 1f 3e
       0.42654344 0.2065054 0.101983525 0.15540406
000380 67 d9 90 bd 09 fe d1 be 75 56 f4 bd 0a f6 7c bd
       -0.07072716 -0.41014126 -0.11930553 -0.06175808
000390 ca 65 f5 3c 86 37 c7 3c 82 0e 22 be 3d aa 92 3d
       0.029955763 0.024318468 -0.15825847 0.071613766
0003a0 7f 68 21 3e d2 76 83 3e d1 08 4e 3e cd bb 3a be
       0.15762518 0.2567659 0.2012055 -0.18235703
0003b0 0b 97 b0 3d 63 21 73 3d 1b 2e a5 bd 5e 9b 59 3d
       0.08622559 0.059358012 -0.080654345 0.053126685
0003c0 19 03 38 3e bf 37 3a bc d8 c1 99 be fe 0a 09 3e
       0.17969932 -0.01136583 -0.30030704 0.133831
0003d0 f6 5b 64 be e7 22 9c 3e 4c 69 58 3e f8 dd df be
       -0.22300705 0.30495378 0.21133918 -0.43724036
0003e0 7c a8 2e bd 94 78 55 3e 40 12 de bd 16 44 88 bd
       -0.042641148 0.20846778 -0.10843325 -0.06653611
0003f0 1c 9f 6b 3e f3 14 0d be 1a 97 61 3e 3e 7c 29 bd
       0.23009914 -0.13777523 0.22030297 -0.041378252

net.net.4.bias f4 [10]
000000 89 58 08 be a2 f5 0c 3f 61 95 d3 bd 17 f5 ec be
       -0.13315023 0.55062306 -0.10331226 -0.4628074
000010 d0 ea 14 3f c0 93 28 bd 31 38 31 3e b7 83 1e be
       0.58170795 -0.04115653 0.17306592 -0.15479933
000020 34 d9 a4 bf 14 b1 60 3f
       -1.2878785 0.877702
