continual learning/ModTest2/results/gem_GMod2Cov_nv_0.0_False_5_fashion_mnist_permutations_reduced.pt_2021_08_13_14_11_20_ee7c5ca307fb41c99c8e5231404273b4.pt (torch, 368925 bytes, 8 tensors)

tensor f4 [101]
0.0 0.0 0.0 0.0 0.0 0.0 0.0 0.0
0.0 0.0 0.0 1.0 1.0 1.0 1.0 1.0
1.0 1.0 1.0 1.0 1.0 2.0 2.0 2.0
2.0 2.0 2.0 2.0 2.0 2.0 2.0 3.0
3.0 3.0 3.0 3.0 3.0 3.0 3.0 3.0
3.0 4.0 4.0 4.0 4.0 4.0 4.0 4.0
4.0 4.0 4.0 5.0 5.0 5.0 5.0 5.0
5.0 5.0 5.0 5.0 5.0 6.0 6.0 6.0
6.0 6.0 6.0 6.0 6.0 6.0 6.0 7.0
7.0 7.0 7.0 7.0 7.0 7.0 7.0 7.0
7.0 8.0 8.0 8.0 8.0 8.0 8.0 8.0
8.0 8.0 8.0 9.0 9.0 9.0 9.0 9.0
9.0 9.0 9.0 9.0 9.0
00000000: 0000 0000 0000 0000 0000 0000 0000 0000
00000010: 0000 0000 0000 0000 0000 0000 0000 0000
00000020: 0000 0000 0000 0000 0000 0000 0000 803f
00000030: 0000 803f 0000 803f 0000 803f 0000 803f
00000040: 0000 803f 0000 803f 0000 803f 0000 803f
00000050: 0000 803f 0000 0040 0000 0040 0000 0040
00000060: 0000 0040 0000 0040 0000 0040 0000 0040
00000070: 0000 0040 0000 0040 0000 0040 0000 4040
00000080: 0000 4040 0000 4040 0000 4040 0000 4040
00000090: 0000 4040 0000 4040 0000 4040 0000 4040
000000a0: 0000 4040 0000 8040 0000 8040 0000 8040
000000b0: 0000 8040 0000 8040 0000 8040 0000 8040
000000c0: 0000 8040 0000 8040 0000 8040 0000 a040
000000d0: 0000 a040 0000 a040 0000 a040 0000 a040
000000e0: 0000 a040 0000 a040 0000 a040 0000 a040
000000f0: 0000 a040 0000 c040 0000 c040 0000 c040
00000100: 0000 c040 0000 c040 0000 c040 0000 c040
00000110: 0000 c040 0000 c040 0000 c040 0000 e040
00000120: 0000 e040 0000 e040 0000 e040 0000 e040
00000130: 0000 e040 0000 e040 0000 e040 0000 e040
00000140: 0000 e040 0000 0041 0000 0041 0000 0041
00000150: 0000 0041 0000 0041 0000 0041 0000 0041
00000160: 0000 0041 0000 0041 0000 0041 0000 1041
00000170: 0000 1041 0000 1041 0000 1041 0000 1041
00000180: 0000 1041 0000 1041 0000 1041 0000 1041
00000190: 0000 1041

tensor f4 [101, 10]
0.0717 0.0608 0.1105 0.118 0.0424 0.0863 0.0955 0.0583
0.1684 0.0355 0.3957 0.1006 0.0823 0.0856 0.1017 0.1785
0.0993 0.0904 0.1587 0.0978 0.5479 0.1419 0.0982 0.15
0.1066 0.1384 0.1098 0.1116 0.126 0.109 0.5568 0.1384
0.0798 0.1508 0.0986 0.1456 0.1275 0.1046 0.1294 0.1342
0.4541 0.1405 0.1333 0.1553 0.1132 0.1608 0.1371 0.1093
0.1226 0.162 0.5862 0.1154 0.1052 0.1475 0.0932 0.1324
0.116 0.0971 0.118 0.1364 0.617 0.1402 0.1607 0.1437
0.1243 0.154 0.1406 0.1391 0.1361 0.1628 0.6425 0.1353
0.1243 0.1652 0.0787 0.1273 0.1361 0.1192 0.1157 0.1528
0.5433 0.125 0.0681 0.0956 0.0432 0.0821 0.0559 0.0736
0.0667 0.0859 0.5958 0.1368 0.1125 0.1905 0.06 0.1029
0.1333 0.1013 0.1371 0.1604 0.6806 0.1513 0.1363 0.2059
0.077 0.1261 0.1258 0.1105 0.1144 0.1695 0.6916 0.5222
0.1721 0.1797 0.0873 0.132 0.1402 0.1365 0.123 0.1717
0.7009 0.6252 0.1594 0.1392 0.0923 0.1269 0.1356 0.1302
0.1207 0.1696 0.6748 0.5743 0.1487 0.1255 0.0993 0.1145
0.1466 0.1116 0.1173 0.1646 0.6667 0.6298 0.1533 0.1314
0.1017 0.1233 0.1484 0.1228 0.1152 0.1599 0.6865 0.6637
0.1499 0.1199 0.1013 0.1159 0.1491 0.1423 0.1277 0.1643
0.632 0.626 0.1587 0.1486 0.1191 0.1328 0.1446 0.135
0.1337 0.1648 0.6393 0.6177 0.1667 0.1625 0.1203 0.1451
0.1416 0.148 0.1373 0.1735 0.6911 0.6752 0.1327 0.147
0.0653 0.083 0.1129 0.1095 0.103 0.1806 0.6874 0.63
0.1534 0.1301 0.0894 0.1252 0.1577 0.1423 0.135 0.1784
0.6828 0.6931 0.1442 0.1623 0.0941 0.1426 0.1359 0.139
0.1432 0.1744 0.6878 0.6528 0.5277 0.1542 0.1102 0.1194
0.1537 0.1329 0.1359 0.1746 0.6831 0.6806 0.6313 0.1672
0.1031 0.127 0.1478 0.1282 0.1466 0.1781 0.6744 0.6632
0.6114 0.1438 0.1007 0.1052 0.1328 0.1151 0.1111 0.1503
0.6833 0.6699 0.7156 0.1491 0.103 0.0952 0.1383 0.11
0.1228 0.1512 0.6795 0.6941 0.6692 0.1731 0.1255 0.1189
00000000: 73d7 923d 6c09 793d d34d e23d fca9 f13d
00000010: 9fab 2d3d 0ebe b03d 8195 c33d fbcb 6e3d
00000020: 0d71 2c3e 7368 113d 3199 ca3e 5f07 ce3d
00000030: e78c a83d 0e4f af3d 1748 d03d b4c8 363e
00000040: cc5d cb3d a323 b93d 4182 223e 5e4b c83d
00000050: 2d43 0c3f 3c4e 113e 151d c93d 9a99 193e
00000060: 1a51 da3d bbb8 0d3e d3de e03d 8a8e e43d
00000070: 2506 013e 643b df3d 728a 0e3f bbb8 0d3e
00000080: 2f6e a33d 516b 1a3e ccee c93d 2b18 153e
00000090: 5c8f 023e 8638 d63d 6f81 043e ba6b 093e
000000a0: cc7f e83e 3bdf 0f3e cc7f 083e f706 1f3e
000000b0: 67d5 e73d c1a8 243e f163 0c3e aed8 df3d
000000c0: b515 fb3d 54e3 253e 3411 163f d656 ec3d
000000d0: 1973 d73d 3d0a 173e a4df be3d de93 073e
000000e0: 6891 ed3d 5ddc c63d fca9 f13d 71ac 0b3e
000000f0: b6f3 1d3f 9790 0f3e 8a8e 243e 1826 133e
00000100: 0091 fe3d 2db2 1d3e 72f9 0f3e 3b70 0e3e
00000110: cc5d 0b3e 0bb5 263e e17a 243f 158c 0a3e
00000120: 0091 fe3d 302a 293e 772d a13d ee5a 023e
00000130: cc5d 0b3e 211f f43d 1ff4 ec3d 9a77 1c3e
00000140: b515 0b3f 0000 003e 0378 8b3d efc9 c33d
00000150: 7cf2 303d 0b24 a83d 66f7 643d 99bb 963d
00000160: 029a 883d 57ec af3d 5986 183f 4d15 0c3e
00000170: 6666 e63d 6f12 433e 8fc2 753d 3cbd d23d
00000180: cc7f 083e 6076 cf3d f163 0c3e e63f 243e
00000190: cd3b 2e3f 63ee 1a3e 3a92 0b3e 73d7 523e
000001a0: 2db2 9d3d 5c20 013e b7d1 003e d34d e23d
000001b0: 8c4a ea3d 6891 2d3e b30c 313f e6ae 053f
000001c0: fb3a 303e 4703 383e 58ca b23d 022b 073e
000001d0: 9790 0f3e a8c6 0b3e 6de7 fb3d 20d2 2f3e
000001e0: 2f6e 333f 1b0d 203f c139 233e 728a 0e3e
000001f0: c807 bd3d 13f2 013e bada 0a3e 2653 053e
00000200: 9031 f73d 9fab 2d3e b1bf 2c3f 5305 133f
00000210: d044 183e 1283 003e cc5d cb3d fa7e ea3d
00000220: 4f1e 163e 8a8e e43d fb3a f03d e78c 283e
00000230: daac 2a3f 933a 213f adfa 1c3e b98d 063e
00000240: 1748 d03d b684 fc3d 2bf6 173e 917e fb3d
00000250: faed eb3d d3bc 233e 77be 2f3f 3ee8 293f
00000260: 637f 193e 228e f53d 6076 cf3d fb5c ed3d
00000270: acad 183e 17b7 113e cac3 023e 423e 283e
00000280: c1ca 213f 8941 203f 4182 223e 992a 183e
00000290: b3ea f33d b9fc 073e 0612 143e 713d 0a3e
000002a0: a7e8 083e 55c1 283e 2aa9 233f 9621 1e3f
000002b0: 68b3 2a3e 6666 263e d95f f63d 1895 143e
000002c0: 97ff 103e 508d 173e 5f98 0c3e fca9 313e
000002d0: eeeb 303f e8d9 2c3f 82e2 073e 2b87 163e
000002e0: 02bc 853d e7fb a93d 1d38 e73d 8941 e03d
000002f0: aaf1 d23d 35ef 383e 72f9 2f3f ae47 213f
00000300: e414 1d3e ef38 053e 5917 b73d 6e34 003e
00000310: 1c7c 213e 17b7 113e 713d 0a3e 7dae 363e
00000320: fbcb 2e3f 006f 313f 2aa9 133e f931 263e
00000330: 80b7 c03d bc05 123e 5f29 0b3e 0456 0e3e
00000340: 05a3 123e ea95 323e a913 303f e71d 273f
00000350: 5917 073f 9be6 1d3e 8ab0 e13d fd87 f43d
00000360: 8863 1d3e f016 083e 5f29 0b3e 58ca 323e
00000370: a4df 2e3f cd3b 2e3f e09c 213f 7a36 2b3e
00000380: 1826 d33d 4a0c 023e e258 173e dc46 033e
00000390: 4f1e 163e d95f 363e 7aa5 2c3f 7ac7 293f
000003a0: b684 1c3f 4f40 133e cd3b ce3d 1973 d73d
000003b0: b9fc 073e 8cb9 eb3d 6688 e33d 3ee8 193e
000003c0: c0ec 2e3f 917e 2b3f 9031 373f acad 183e
000003d0: aaf1 d23d 38f8 c23d 849e 0d3e ae47 e13d
000003e0: 917e fb3d 2cd4 1a3e b6f3 2d3f 8ab0 313f
000003f0: b150 2b3f 2041 313e 1283 003e d881 f33d

net.net.0.weight f4 [100, 784]
0.05086496 0.07552066 0.01043928 0.055670433 -0.07519568 -0.063391976 0.035209887 -0.013531879
-0.005416884 -0.005285456 0.060854644 -0.029428562 0.036997396 -0.02024059 -0.04953032 -0.07842528
0.03522683 0.090254344 -0.0572534 -0.017119966 -0.06346732 -0.0051187584 -0.0021521514 -0.02908286
-0.0821644 0.067293614 -0.06962809 -0.038762633 -0.059162766 -0.026205007 0.049863145 -0.015483425
-0.09625636 0.028915588 0.04366562 -0.059475794 -0.051071223 -0.06917895 -0.069075115 0.08218369
-0.08030313 -0.044015583 0.04196165 0.010861465 -0.07526638 0.012653255 -0.033439033 -0.061393544
0.02776254 0.10312368 0.07103925 -0.03291929 -0.0062731076 -0.0020256557 -0.0524066 -0.012261593
0.08576767 -0.014090439 -0.005072039 0.039944798 0.011252677 0.048999727 0.05784254 -0.028676985
-0.0008236956 -0.07222591 0.06950378 -0.051308308 -0.018277626 0.0055610836 -0.06568694 0.01883884
0.0077491836 0.04614621 -0.021720387 0.00065987953 0.05304704 -0.019471569 0.05274707 -0.016957367
0.09399488 -0.09364321 -0.07337522 0.04706714 0.08392776 0.015945634 -0.011193024 0.075096354
-0.045646008 -0.008187746 -0.02670673 -0.0024590266 -0.049174752 -0.0068736244 -0.072589606 0.028775651
0.01384998 -0.07628102 0.07794232 -0.053317953 -0.013977225 -0.093260884 0.021118695 -0.037637185
-0.006499617 0.019745328 -0.017757736 -0.007285766 -0.09338349 0.05221784 0.06860165 0.0126570985
0.0334749 -0.081085466 -0.05159712 0.029416969 0.057692274 -0.068452254 -0.07420554 -0.061826106
0.04855075 -0.047247164 -0.056901634 -0.051063668 -0.071626246 0.0045792456 -0.088391356 0.021913495
-0.015262109 0.046657134 0.027331034 -0.039267793 -0.011797143 0.04603342 -0.09506386 0.0071468963
0.048576627 0.053405806 -0.050143104 -0.07017664 0.012644298 -0.037362542 0.008308055 -0.049808595
-0.02571598 -0.06664133 0.016574446 -0.075691774 0.0013980858 -0.11652818 -0.054288525 -0.052328486
0.034125768 -0.07669961 -0.032233823 0.016945118 0.06369651 -0.07178388 0.0027698504 0.020872036
-0.036582503 -0.05906633 0.016120758 0.0025269496 0.015712988 -0.07146552 -0.08083799 -0.056855347
-0.05740164 0.017807515 0.052682195 -0.050172135 -0.0037792446 0.04448724 0.078594886 -0.056930237
-0.005800752 0.03105987 0.008991373 -0.036980525 0.026909634 -0.059743915 -0.09005349 -0.035274774
-0.07534082 -0.078702115 -0.06322431 -0.031056827 -0.08720206 0.07626974 0.012426236 -0.0030848938
-0.023586811 0.04221741 0.08538497 0.05394303 -0.07773569 0.017239101 0.02615117 0.045010634
-0.04802418 -0.103587985 0.066458 0.0566326 -0.019883389 0.025250707 -0.052074734 -0.022893192
-0.049844153 0.06702302 0.01853714 0.040296964 -0.052152798 0.061211366 0.0127341505 -0.06999101
-0.010534045 -0.041215606 -0.028336337 0.07566004 0.08365232 0.054529637 0.05716659 0.018808225
0.037123855 -0.010331908 0.06452155 0.06436209 -0.015196845 0.009460724 -0.1004483 0.012974087
-0.013409003 -0.011306732 0.064037494 -0.022656234 -0.10861198 -0.034057673 -0.039054815 0.060439114
0.044618126 0.04391715 -0.03872094 0.054440558 0.028031828 0.03345738 -0.05092153 -0.05486172
0.015688047 -0.06447166 -0.08137836 0.07321776 0.046355356 0.010597736 -0.024881952 0.028938929
00000000: c757 503d 93aa 9a3d 8409 2b3c ae06 643d
00000010: 3100 9abd a7d3 81bd 3e38 103d d0b4 5dbc
00000020: 1e80 b1bb 9e31 adbb b842 793d 2b14 f1bc
00000030: 958a 173d 98cf a5bc 4ee0 4abd 6f9d a0bd
00000040: 024a 103d 45d7 b83d 8b82 6abd 2c3f 8cbc
00000050: 27fb 81bd 42bb a7bb 1c0b 0dbb 2e3f eebc
00000060: cf45 a8bd 3cd1 893d 2c99 8ebd 91c5 1ebd
00000070: a854 72bd e2ab d6bc 4c3d 4c3d 31ae 7dbc
00000080: 0e22 c5bd 62e0 ec3c b9da 323d e49c 73bd
00000090: 0f30 51bd b1ad 8dbd 4177 8dbd ec4f a83d
000000a0: f875 a4bd af49 34bd fbdf 2b3d 49f4 313c
000000b0: 4325 9abd 994f 4f3c 5ef7 08bd cc77 7bbd
000000c0: 446e e33c 8232 d33d 077d 913d 61d6 06bd
000000d0: a48e cdbb ddc0 04bb 4ea8 56bd d9e4 48bc
000000e0: f6a6 af3d 96db 66bc 5933 a6bb 289d 233d
000000f0: 265d 383c f0b3 483d 4dec 6c3d ffeb eabc
00000100: 47ed 57ba 2eeb 93bd ff57 8e3d a928 52bd
00000110: f6ba 95bc c039 b63b e086 86bd e953 9a3c
00000120: ddec fd3b cf03 3d3d f4ee b1bc c4fb 2c3a
00000130: da47 593d d782 9fbc 500d 583d 2dea 8abc
00000140: 6380 c03d 03c8 bfbd bf45 96bd 79c9 403d
00000150: 51e2 ab3d 6ba0 823c f262 37bc 1ecc 993d
00000160: 4ff7 3abd e525 06bc 12c8 dabc 9f27 21bb
00000170: 776b 49bd 243c e1bb dca9 94bd eaba eb3c
00000180: 07eb 623c 3939 9cbd 39a0 9f3d ed63 5abd
00000190: bb00 65bc 90ff bebd 1d01 ad3c 7329 1abd
000001a0: bdfa d4bb f4c0 a13c ac78 91bc 6fbd eebb
000001b0: d83f bfbd 60e2 553d 067f 8c3d b85f 4f3c
000001c0: fa1c 093d 2310 a6bd 8057 53bd dbfb f03c
000001d0: bc4e 6c3d b230 8cbd 13f9 97bd 5f3d 7dbd
000001e0: 27dd 463d 3e86 41bd b011 69bd 2328 51bd
000001f0: c8b0 92bd 7f0d 963b 8706 b5bd ee83 b33c
00000200: ed0d 7abc 8d1b 3f3d 55e5 df3c 44d7 20bd
00000210: ce48 41bc 8a8d 3c3d d7b0 c2bd 8330 ea3b
00000220: 49f8 463d 0cc0 5a3d db62 4dbd c5b8 8fbd
00000230: 082a 4f3c 7709 19bd 821e 083c 1904 4cbd
00000240: 52aa d2bc 407b 88bd 22c7 873c 4a04 9bbd
00000250: fa3f b73a 54a6 eebd a55d 5ebd 6556 56bd
00000260: 76c7 0b3d af14 9dbd 9d07 04bd 7dd0 8a3c
00000270: 5173 823d 6d03 93bd 6186 353b d5fb aa3c
00000280: 89d7 15bd 89ef 71bd ae0f 843c 2e9b 253b
00000290: 86b8 803c 845c 92bd 638e a5bd 27e1 68bd
000002a0: fb1d 6bbd 11e1 913c 49c9 573d 4c81 4dbd
000002b0: 34ad 77bb 4138 363d 5bf6 a03d ae2f 69bd
000002c0: 3c14 bebb 4571 fe3c 8d50 133c e478 17bd
000002d0: 9871 dc3c 09b6 74bd f76d b8bd 487c 10bd
000002e0: 4a4c 9abd 932e a1bd bf7b 81bd e36a febc
000002f0: fe96 b2bd 4f33 9c3d 6997 4b3c ee2b 4abb
00000300: 2139 c1bc 2aec 2c3d 51de ae3d 5ef3 5c3d
00000310: e433 9fbd 0439 8d3c fa3a d63c 125d 383d
00000320: 01b5 44bd f025 d4bd 221b 883d 96f7 673d
00000330: 7de2 a2bc 92da ce3c 514c 55bd 818a bbbc
00000340: 6229 4cbd 5d43 893d 33db 973c 6e0e 253d
00000350: 2c9e 55bd c5b8 7a3d e6a2 503c 7257 8fbd
00000360: fd96 2cbc b2d1 28bd 9b21 e8bc a7f3 9a3d
00000370: e851 ab3d 785a 5f3d 8427 6a3d b513 9a3c
00000380: 2f0f 183d 2a47 29bc e023 843d 45d0 833d
00000390: 30fc 78bc 2701 1b3c d7b7 cdbd 4491 543c
000003a0: 6fb1 5bbc df3f 39bc 1726 833d 9199 b9bc
000003b0: f56f debd 0f80 0bbd f1f7 1fbd 018f 773d
000003c0: 7fc1 363d 78e2 333d d999 1ebd 10fd 5e3d
000003d0: 01a3 e53c 9b0a 093d 1893 50bd afb6 60bd
000003e0: 3884 803c b809 84bd b3a9 a6bd 31f3 953d
000003f0: 1ddf 3d3d 20a2 2d3c 3cd5 cbbc 5511 ed3c

net.net.0.bias f4 [100]
0.048112538 0.032841746 0.07597063 -0.016043406 -0.3152232 -0.013024463 0.09275748 0.20224327
-0.22134675 0.08587924 0.22383395 0.10899908 -0.02663961 0.0030661707 0.18614873 -0.2855556
0.28217554 0.07747657 0.02313371 0.2768936 0.04032764 0.2376685 -0.040657733 -0.44105497
0.19764325 0.12917222 0.017052602 -0.0010645041 0.10314 0.074756965 -0.032006603 -0.0031078772
-0.10526456 0.2614035 0.21874191 0.01049611 0.12929548 -0.17975841 0.16383865 0.22791879
0.12982112 0.30649206 0.051306248 -0.032950662 -0.12235828 0.00711499 -0.019794116 -0.07348694
-0.03858738 -0.011541222 0.014170973 0.18425687 -0.045269635 0.008606935 0.00633344 0.0651244
-0.053931493 -0.011778297 -0.066642605 0.1462089 0.09938177 0.07630825 0.059275318 0.027644096
0.15931547 -0.12041566 0.20324993 0.066555396 0.049587272 0.30184507 -0.03087175 0.011888498
0.07209369 -0.1450496 0.18794405 0.19234587 0.23450984 0.014202528 0.12034681 -0.24197239
0.06294027 0.135964 0.026315866 0.16004433 -3.26141e-05 -0.007920782 -0.4169623 0.12033034
0.029862795 -0.10465757 0.35834616 0.1965908 -0.081196226 0.01825648 -0.01247238 0.023809101
0.16218323 0.09531281 0.04339682 0.12778905
00000000: a711 453d 1185 063d 7d96 9b3d 766d 83bc
00000010: ef64 a1be 8f64 55bc a2f7 bd3d dc18 4f3e
00000020: b9a8 62be 74e1 af3d ba34 653e e93a df3d
00000030: 503b dabc cff1 483b c69d 3e3e 5834 92be
00000040: 5079 903e 09ac 9e3d e882 bd3c ffc4 8d3e
00000050: 982e 253d 5f5f 733e b988 26bd f5d1 e1be
00000060: fe62 4a3e b945 043e e6b1 8b3c d586 8bba
00000070: 103b d33d 2e1a 993d 5b19 03bd 87ad 4bbb
00000080: f294 d7bd aed6 853e e1fd 5f3e e0f7 2b3c
00000090: 0966 043e 9712 38be 52c5 273e 8b63 693e
000000a0: d4ef 043e 87ec 9c3e 8026 523d 46f7 06bd
000000b0: fa96 fabd dd24 e93b 4527 a2bc 5280 96bd
000000c0: cd0d 1ebd 6517 3dbc 5e2d 683c d5ad 3c3e
000000d0: a76c 39bd 1a04 0d3c bf88 cf3b f15f 853d
000000e0: 45e7 5cbd c2f9 40bc eb7b 88bd c9b7 153e
000000f0: ab88 cb3d 8047 9c3d adca 723d df75 e23c
00000100: 9823 233e 7c9c f6bd c020 503e 324e 883d
00000110: 061c 4b3d 708b 9a3e c1e6 fcbc fac7 423c
00000120: dba5 933d e287 14be 6874 403e 51f6 443e
00000130: 5923 703e b8b1 683c 6378 f63d 9cc7 77be
00000140: d4e6 803d 263a 0b3e 5f94 d73c a9e2 233e
00000150: 20cb 08b8 2bc6 01bc 157c d5be c16f f63d
00000160: d2a2 f43c b556 d6bd 2679 b73e 194f 493e
00000170: 354a a6bd 9d8e 953c f458 4cbc 4e0b c33c
00000180: 5c13 263e 5d33 c33d ddc0 313d 22db 023e

net.net.2.weight f4 [100, 100]
0.025278805 -0.15018629 0.02382139 0.11196079 -0.03912496 -0.0017814487 0.12822403 -0.13855772
0.07166458 0.14904146 -0.10186811 0.027583595 -0.10051879 -0.13920045 0.12620135 -0.13907614
-0.06769567 -0.11730575 0.11095634 0.016400166 0.16668363 0.12544298 0.10324074 0.15273114
0.13956758 -0.14288488 -0.091079675 -0.07410832 -0.13340658 -0.11081118 -0.15149677 -0.034597833
0.073320046 -0.061534934 0.1396681 -0.081959695 -0.1730243 0.057516366 -0.0051029795 -0.13844322
0.15308224 -0.09893286 -0.15146531 -0.00073445385 0.10514656 -0.1143183 -0.037619967 -0.09182094
-0.029785553 -0.07273888 -0.029529618 -0.0261988 -0.04766535 -0.047068227 -0.086425945 -0.06876991
0.1412741 -0.051818762 0.06688513 0.116470896 -0.15232784 -0.113907725 0.11964254 -0.03815372
0.046349686 0.13149832 0.0049465466 0.12345382 0.1266923 -0.115768075 0.058546867 -0.042926308
0.10527405 -0.039763555 -0.11288684 -0.09003224 -0.03377923 -0.15459388 -0.14325896 -0.131285
0.12515396 -0.008797364 -0.067873135 0.023012884 -0.11682495 -0.08161212 -0.17919005 -0.10232969
-0.11433154 -0.11840427 -0.054787606 0.020874012 0.17465872 0.08149472 0.0535104 -0.108336605
-0.06467892 -0.0015494027 -0.0069357404 0.017003931 0.18081917 0.037827045 0.196732 0.1241765
-0.05357204 0.07471954 0.14357883 -0.12703358 -0.035362758 -0.05066961 -0.05316379 -0.0052505923
-0.14386883 -0.03748223 -0.02742626 -0.2652362 0.18693046 -0.05867655 0.010447093 0.045678727
0.1412524 0.033158924 0.0685032 0.29299808 -0.045611043 0.19548844 0.07094883 0.1364174
-0.04546448 0.04758608 0.04261472 -0.0565522 0.07702281 0.028042013 0.0021722096 -0.13418598
0.1294224 0.28871468 0.085490055 0.06576851 -0.050979637 -0.02392866 -0.18269683 -0.08764699
-0.03160072 -0.09933513 0.06749377 0.20314412 -0.09393693 -0.11560889 -0.018778741 0.17110677
-0.11467885 -0.21485886 0.005071083 -0.12377407 -0.09290971 -0.20627807 0.1550689 0.11232039
0.0981869 0.20383793 0.016282523 -0.17431578 -0.16876934 0.1621821 -0.006539049 0.107015
0.035995446 0.057975836 -0.11412995 0.20110004 0.10829334 0.059252325 0.091573834 -0.030359022
0.010603209 0.1769709 0.06891208 0.083107896 -0.075351484 0.15855962 -0.048390508 -0.057304926
-0.081836574 0.05546769 -0.18694884 0.10993706 0.2187696 -0.17126751 0.045564655 0.17652662
-0.13705587 0.12854685 0.092694566 -0.1265821 0.061562225 -0.012164895 -0.031067874 -0.034682907
-0.021791432 -0.16237114 0.022832314 -0.013621736 0.032512683 0.17257069 -0.16867654 -0.17603934
0.016692087 0.102306485 -0.024568025 -0.053767875 -0.13336459 -0.017637586 -0.044046625 0.05963767
0.15083344 -0.016717318 0.09067262 0.029283542 0.034587413 0.065671034 -0.12185882 0.11145546
0.064696394 -0.038502034 0.0573664 0.12548119 0.047528926 0.13144986 0.08434838 0.1458387
-0.12597692 0.06550421 -0.06941793 -0.07990976 -0.0529485 0.1998044 -0.19562525 -0.16030228
-0.05274111 -0.026848001 0.10193437 0.007435281 0.28444856 0.060674272 -0.13515279 0.091352955
-0.2272043 -0.02016625 -0.14400499 0.019569155 -0.06528357 0.17030919 -0.1673904 0.06359563
00000000: 7f15 cf3c 6fca 19be 1325 c33c b34b e53d
00000010: 7e41 20bd 807f e9ba 294d 033e 13e2 0dbe
00000020: e1c4 923d 539e 183e 3aa0 d0bd fef6 e13c
00000030: ccdc cdbd 908a 0ebe ed3a 013e fa69 0ebe
00000040: 07a4 8abd ff3d f0bd 143d e33d a459 863c
00000050: 1daf 2a3e 2074 003e e26f d33d 8d65 1c3e
00000060: ceea 0e3e 6a50 12be fb87 babd 1ac6 97bd
00000070: bc9b 08be f9f0 e2bd f821 1bbe 75b6 0dbd
00000080: d228 963d 0e0c 7cbd 2805 0f3e 7cda a7bd
00000090: 482d 31be 4896 6b3d e536 a7bb 0fc4 0dbe
000000a0: 97c1 1c3e 509d cabd b919 1bbe 5d88 40ba
000000b0: 1457 d73d b61f eabd 6517 1abd 9e0c bcbd
000000c0: d500 f4bc 1ff8 94bd 19e8 f1bc de9e d6bc
000000d0: be3c 43bd 9dca 40bd 1600 b1bd 3dd7 8cbd
000000e0: 28aa 103e e93f 54bd 12fb 883d 4b88 ee3d
000000f0: d4fb 1bbe 7448 e9bd 2607 f53d 1347 1cbd
00000100: 2bd9 3d3d 7fa7 063e a416 a23b 5bd5 fc3d
00000110: a0bb 013e d017 edbd d7ce 6f3d 7fd3 2fbd
00000120: ec99 d73d 1cdf 22bd 3731 e7bd d362 b8bd
00000130: 175c 0abd dc4d 1ebe 7ab2 12be 936f 06be
00000140: 5c28 003e d222 10bc 1201 8bbd 8485 bc3c
00000150: eb41 efbd 4124 a7bd 997d 37be 3a92 d1bd
00000160: a826 eabd f07d f2bd f868 60bd faff aa3c
00000170: bcd9 323e b4e6 a63d b92d 5b3d 95df ddbd
00000180: 6276 84bd 5415 cbba 3545 e3bb d44b 8b3c
00000190: a928 393e 88f0 1a3d 1d74 493e 4050 fe3d
000001a0: 5b6e 5bbd 8f06 993d 5406 133e 1715 02be
000001b0: 8ad8 10bd f08a 4fbd 46c2 59bd 290d acbb
000001c0: 5a52 13be f886 19bd 09ad e0bc 0acd 87be
000001d0: b36a 3f3e d256 70bd 492a 2b3c 9e19 3b3d
000001e0: 78a4 103e a7d1 073d 684b 8c3d d803 963e
000001f0: a5d2 3abd 1f2e 483e 9f4d 913d 01b1 0b3e
00000200: f638 3abd 9fe9 423d c68c 2e3d 48a3 67bd
00000210: 23be 9d3d 5db8 e53c a15b 0e3b 0d68 09be
00000220: 4e87 043e 69d2 933e 6915 af3d a4b1 863d
00000230: 06d0 50bd 0a06 c4bc e114 3bbe 4480 b3bd
00000240: c26f 01bd 3770 cbbd 2c3a 8a3d 0305 503e
00000250: 0162 c0bd 5bc4 ecbd e0d5 99bc 9d36 2f3e
00000260: bfdc eabd f603 5cbe 542b a63b 427d fdbd
00000270: 7247 bebd 8f3a 53be 62ca 1e3e 3c08 e63d
00000280: 3716 c93d e4ba 503e ed62 853c d67f 32be
00000290: dfd1 2cbe 1013 263e 8545 d6bb ae2a db3d
000002a0: f66f 133d 1278 6d3d f7bc e9bd 2bed 4d3e
000002b0: e6c8 dd3d 91b2 723d 108b bb3d 7cb3 f8bc
000002c0: 15b9 2d3c dc37 353e c721 8d3d 7934 aa3d
000002d0: e151 9abd 745d 223e 2035 46bd 92b8 6abd
000002e0: ef99 a7bd 1732 633d 846f 3fbe ae26 e13d
000002f0: 2305 603e c060 2fbe 01a2 3a3d 65c3 343e
00000300: 6058 0cbe c9a1 033e a6d6 bd3d bd9e 01be
00000310: ac28 7c3d 454f 47bc 0e82 febc aa0f 0ebd
00000320: f283 b2bc 9f44 26be d50a bb3c b42d 5fbc
00000330: 052c 053d 5fb6 303e 8bb9 2cbe a843 34be
00000340: d8bd 883c 1086 d13d e242 c9bc b43b 5cbd
00000350: ba90 08be b37c 90bc 3c6a 34bd a146 743d
00000360: 1574 1a3e c2f2 88bc 91b2 b93d 0ae4 ef3c
00000370: 88ab 0d3d 897e 863d 1e91 f9bd c342 e43d
00000380: 8b7f 843d 4fb4 1dbd 08f9 6a3d 247e 003e
00000390: b1ad 423d cb9a 063e d8be ac3d bd56 153e
000003a0: 1800 01be 1227 863d fd2a 8ebd baa7 a3bd
000003b0: 87e0 58bd 8699 4c3e fc51 48be 4826 24be
000003c0: 1007 58bd 57f0 dbbc f8c2 d03d a8a3 f33b
000003d0: 3ea3 913e 9685 783d 7e65 0abe 4217 bb3d
000003e0: 3ea8 68be b133 a5bc 0b76 13be 7e4f a03c
000003f0: 64b3 85bd 8865 2e3e 6468 2bbe 6d3e 823d

net.net.2.bias f4 [100]
0.11510724 0.3583497 0.6395448 -0.057197895 0.057304274 0.30490872 0.41137627 0.10555346
0.73479074 0.08724237 0.081114314 0.40392438 1.1037669 -0.038456094 0.11091755 -0.011320194
0.026211726 0.032198917 0.2171435 0.0691752 0.39206034 0.23875794 0.2815656 0.42227626
0.047031883 0.10779237 0.13339259 0.010084123 0.27747536 0.2788678 0.21432021 0.43685803
-0.020344676 0.11025079 0.07941356 0.21323164 0.5433477 -0.020765675 0.90166163 0.010730287
0.19885026 0.14609833 1.2317725 0.69879365 0.64347935 0.51740223 0.2718834 0.12216807
-0.0014317926 0.034447026 0.5955067 0.09995425 0.14174682 0.31956187 0.2827529 0.640693
0.15481494 0.094604075 0.2099901 0.40105534 0.08542022 0.25346443 0.20578961 0.5126651
0.10931977 0.058297906 -0.05506019 -0.033580884 0.12377165 0.021489844 -0.0069041075 0.23983762
0.065401845 0.10321325 -0.09821528 0.19591065 -0.097008824 0.25087523 0.007015704 0.13167323
-0.003960201 -0.08416115 0.16609277 0.11728482 0.17139745 0.5565811 0.8860842 0.7797427
0.37041125 0.5118143 1.6155086 -0.4130637 0.0036144415 0.200888 0.19406065 0.76157975
0.2845235 0.049753614 -0.06770486 0.3127767
00000000: 58bd eb3d 9d79 b73e 35b9 233f 5748 6abd
00000010: e3b7 6a3d ff1c 9c3e e99f d23e 6a2c d83d
00000020: 3f1b 3c3f 21ac b23d 431f a63d 2dcf ce3e
00000030: 3c48 8d3f 2384 1dbd be28 e33d 5678 39bc
00000040: f9b9 d63c 03e3 033d de5a 5e3e baab 8d3d
00000050: 22bc c83e f67c 743e 5e29 903e 9834 d83e
00000060: 81a4 403d 3fc2 dc3d 1198 083e e137 253c
00000070: 4011 8e3e c3c7 8e3e c276 5b3e dbab df3e
00000080: e1a9 a6bc 2bcb e13d 94a3 a23d 6559 5a3e
00000090: d618 0b3f c71c aabc 4cd3 663f 16ce 2f3c
000000a0: 679f 4b3e cd9a 153e b9aa 9d3f 24e4 323f
000000b0: 10bb 243f 7974 043f 4d34 8b3e 4133 fa3d
000000c0: fdaa bbba 5318 0d3d 2173 183f d0b4 cc3d
000000d0: 1426 113e 9d9d a33e fdc4 903e 7504 243f
000000e0: cf87 1e3e c8bf c13d a507 573e 2057 cd3e
000000f0: ccf0 ae3d 17c6 813e 83ba 523e 053e 033f
00000100: 0be3 df3d c9c9 6e3d cb86 61bd 1c8c 09bd
00000110: fe7b fd3d 780b b03c da3b e2bb fe97 753e
00000120: 67f1 853d 7861 d33d 1825 c9bd cd9c 483e
00000130: 90ac c6bd b872 803e fee3 e53b 59d5 063e
00000140: 93c4 81bb ae5c acbd 3914 2a3e 0633 f03d
00000150: d082 2f3e 197c 0e3f 6ad6 623f 389d 473f
00000160: 8ba6 bd3e 4306 033f fcc8 ce3f 167d d3be
00000170: 44e0 6c3b 95b5 4d3e d6b7 463e e4f6 423f
00000180: 10ad 913e 72ca 4b3d d8a8 8abd 4524 a03e

net.net.4.weight f4 [10, 100]
0.05077311 -0.31050313 0.28075048 -0.1883505 -0.12705171 -0.13052884 -0.24609116 -0.23336498
0.42087302 -0.07561729 0.12384732 0.26895633 -0.31251958 0.04922762 -0.13538344 0.22719495
-0.0025473658 -0.09112608 0.13406578 0.05055191 -0.019699942 0.114082694 -0.03769832 -0.046790857
-0.14823335 0.17268473 -0.13701116 -0.18742509 0.18036124 0.13385613 0.026631799 -0.32489553
0.077928126 -0.017110957 -0.48400316 0.21564794 0.2539998 0.089528866 0.031052835 0.09905349
-0.11181372 -0.15278603 -0.46979716 0.13141365 0.30141363 0.45430595 -0.12872353 0.08652714
0.013303757 0.16769616 -0.063507944 0.1561867 0.15740237 0.26527753 -0.013527944 -0.08353558
0.1994351 -0.012669814 0.3052897 0.078769155 -0.20823984 0.042800628 -0.25620425 0.3844688
0.020225799 0.12367964 -0.019482542 -0.049940594 -0.16976646 -0.09782552 0.23935615 -0.16691989
-0.08452769 0.07390904 -0.0004877785 -0.17663458 0.061908342 -0.21751256 -0.16087794 -0.08523295
-0.11842632 -0.06596222 -0.15489405 0.029126119 -0.22479019 0.13641658 0.79066217 0.38596946
0.38516605 -0.24297771 -0.4751913 -0.10339418 -0.12767673 -0.24464977 -0.056338105 0.01231897
-0.13277271 -0.21686274 -0.03355859 -0.15938824 0.063610286 -0.19258134 -0.110557534 -0.18586753
0.23709595 -0.29449672 0.041130353 -0.13957056 0.095843814 -0.15801832 -0.12762749 0.018523071
0.06591329 -0.1322389 0.25814772 -0.11069659 0.21185146 0.52275914 -0.30431998 0.39342287
0.13948575 0.07470107 -0.101280615 -0.03141625 0.2016405 0.027427483 0.29400137 0.20404628
-0.06561996 -0.18858774 -0.07273787 0.3090458 0.42705595 -0.17329077 0.035838515 -0.063166454
-0.3683317 -0.103543505 0.016896043 -0.16618246 0.07261452 0.27424985 -0.10814653 0.17621635
0.47254404 0.02368327 0.26942557 0.020723384 -0.006125198 0.12617865 0.08242335 -0.11769801
-0.18226752 -0.31782606 0.20475422 0.16874377 -0.090139195 0.483836 0.07686956 0.065446295
-0.27620822 -0.1724383 -0.31784242 -0.34603608 0.060322803 0.08180636 -0.040800266 -0.032269947
0.14168207 -0.15880124 0.32965305 -0.27693763 0.06665952 -0.086387224 -0.10354978 -0.15763113
-0.011990444 -0.29412642 -0.07669433 0.62701297 0.2357691 0.23384266 0.3243899 0.086935006
0.1816105 0.27383167 -0.15317735 -0.028587783 0.19605139 -0.12380326 -0.39088732 -0.12750395
-0.06922001 -0.32163608 0.09611459 -0.29413322 -0.16672243 0.43203017 -0.06490533 -0.0019348684
0.17306164 -0.29801464 -0.14032355 0.23339306 0.2975682 -0.43699533 -0.028471276 -0.17097563
-0.22488403 -0.1857079 -0.02779599 -0.03515024 -0.23485321 -0.1716058 0.13441159 0.117722705
-0.17084199 -0.0005649336 -0.32454833 -0.15267138 0.0694654 -0.106906846 -0.13370158 0.088326655
0.55167586 -0.05065521 -0.075007774 -0.21069194 0.086112365 0.120789126 -0.09209645 -0.22552346
0.2850485 -0.13085331 0.30188268 0.20085202 -0.012528976 0.15458173 0.39230818 0.08977359
-0.10564264 -0.1878742 0.08880314 0.37031668 -0.54373616 -0.008052591 -0.18016522 -0.34313905
-0.13833061 -0.007089556 0.2901198 -0.05075181 -0.016464217 0.04222256 -0.2667479 -0.14395845
00000000: 77f7 4f3d 44fa 9ebe 87be 8f3e f4de 40be
00000010: d819 02be 5aa9 05be 52ff 7bbe 3bf7 6ebe
00000020: ab7c d73e 3ddd 9abd aaa3 fd3d a5b4 893e
00000030: 9102 a0be e7a2 493d f5a1 0abe cba5 683e
00000040: b5f1 26bb 4fa0 babd 8a48 093e 850f 4f3d
00000050: c661 a1bc 30a4 e93d 8e69 1abd c5a7 3fbd
00000060: 7cca 17be 44d4 303e a74c 0cbe 5dec 3fbe
00000070: 9eb0 383e 9511 093e ee2a da3c b558 a6be
00000080: c898 9f3d 472c 8cbc 43cf f7be d0d2 5c3e
00000090: 430c 823e e95a b73d 8462 fe3c 8edc ca3d
000000a0: 97fe e4bd f173 1cbe 4189 f0be 4d91 063e
000000b0: e352 9a3e ca9a e83e 1ad0 03be 2435 b13d
000000c0: 00f8 593c 8bb8 2b3e 7410 82bd 68ef 1f3e
000000d0: 162e 213e 75d2 873e 4fa4 5dbc b414 abbd
000000e0: b738 4c3e 0d95 4fbc ee4e 9c3e b951 a13d
000000f0: d33c 55be b64f 2f3d 342d 83be 18d9 c43e
00000100: 93b0 a53c c04b fd3d da99 9fbc 828e 4cbd
00000110: 42d7 2dbe bf58 c8bd c719 753e 0ced 2abe
00000120: db1c adbd 9f5d 973d 86bc ffb9 b2df 34be
00000130: 9a93 7d3d 9dbb 5ebe 30bd 24be 9d8e aebd
00000140: 8089 f2bd 3317 87bd 8c9c 1ebe e699 ee3c
00000150: 662f 66be cab0 0b3e d668 4a3f ca9d c53e
00000160: 7c34 c53e 26cf 78be 464c f3be 54c0 d3bd
00000170: b0bd 02be 7885 7abe c9c2 66bd 81d5 493c
00000180: 92f5 07be 4411 5ebe bb74 09bd ac36 23be
00000190: 1c46 823d 0b34 45be fd6b e2bd 0f54 3ebe
000001a0: 48c9 723e 46c8 96be 4d78 283d 96eb 0ebe
000001b0: c349 c43d 8ecf 21be c8b0 02be b2bd 973c
000001c0: 8cfd 863d a269 07be f02b 843e e5b4 e2bd
000001d0: 97ef 583e 8bd3 053f d4cf 9bbe b96e c93e
000001e0: 5ad5 0e3e e0fc 983d 366c cfbd 53ae 00bd
000001f0: d97a 4e3e 9aaf e03c 5987 963e 82f1 503e
00000200: c263 86bd 251d 41be 98f7 94bd 403b 9e3e
00000210: 14a7 da3e 2373 31be 68cb 123d 6a5d 81bd
00000220: f995 bcbe 9e0e d4bd 9269 8a3c bc2b 2abe
00000230: ecb6 943d 7a6a 8c3e ee7b ddbd 0f72 343e
00000240: 4bf1 f13e 6b03 c23c 26f2 893e 16c4 a93c
00000250: e3b5 c8bb fa34 013e 93cd a83d a70b f1bd
00000260: 56a4 3abe 19ba a2be 17ab 513e 2bcb 2c3e
00000270: e69a b8bd 5ab9 f73e ca6d 9d3d b508 863d
00000280: 2a6b 8dbe aa93 30be 3ebc a2be a42b b1be
00000290: 0b15 773d 188a a73d 2e1e 27bd 7e2d 04bd
000002a0: 1b15 113e cb9c 22be 49c8 a83e c5ca 8dbe
000002b0: c984 883d c9eb b0bd e811 d4bd 0e6a 21be
000002c0: 9173 44bc bd97 96be eb11 9dbd ec83 203f
000002d0: 746d 713e 7374 6f3e 6f16 a63e fb0a b23d
000002e0: 1af8 393e aa33 8c3e 86da 1cbe ed30 eabc
000002f0: b2c1 483e 908c fdbd 6222 c8be 6590 02be
00000300: 38c3 8dbd 7cad a4be bad7 c43d a198 96be
00000310: 49b9 2abe 0f33 dd3e 16ed 84bd 699b fdba
00000320: 1237 313e 6095 98be fab0 0fbe 97fe 6e3e
00000330: dc5a 983e dabd dfbe 983c e9bc 3c14 2fbe
00000340: 0048 66be 362a 3ebe 6bb4 e3bc b3f9 0fbd
00000350: 5c7d 70be 6eb9 2fbe 31a3 093e 9a18 f13d
00000360: 34f1 2ebe 0d18 14ba 332b a6be e355 1cbe
00000370: e043 8e3d faf1 dabd 11e9 08be 9be4 b43d
00000380: a13a 0d3f d67b 4fbd ad9d 99bd a1bf 57be
00000390: ae5b b03d 4a60 f73d 109d bcbd 9fef 66be
000003a0: e1f1 913e 69fe 05be 5e90 9a3e 27ac 4d3e
000003b0: 5646 4dbc ac4a 1e3e 9edc c83e 37db b73d
000003c0: 2b5b d8bd 1862 40be 6cde b53d 269a bd3e
000003d0: 4b32 0bbf 04ef 03bc 3b7d 38be ecaf afbe
000003e0: 8aa6 0dbe 824f e8bb 958a 943e 21e1 4fbd
000003f0: f7df 86bc 90f1 2c3d 2e93 88be d869 13be

net.net.4.bias f4 [10]
0.13602486 -0.2927514 0.077846915 -0.11349864 -1.349212 0.42719987 1.655839 0.012463887
0.05054761 -0.6044745
00000000: 1a4a 0b3e 83e3 95be 346e 9f3d fa71 e8bd
00000010: fbb2 acbf f1b9 da3e 88f2 d33f 5535 4c3c
00000020: 030b 4f3d d7be 1abf
