continual learning/ModTest2/results/gem_GMod2Cov_nv_0.0_False_5_fashion_mnist_permutations_reduced.pt_2021_08_13_13_25_59_9c59262bb92b4aafa85acb295e530b8c.pt (torch, 368925 bytes, 8 tensors)

tensor f4 [101]
00000000: 0000 0000 0000 0000 0000 0000 0000 0000
00000010: 0000 0000 0000 0000 0000 0000 0000 0000
00000020: 0000 0000 0000 0000 0000 0000 0000 803f
00000030: 0000 803f 0000 803f 0000 803f 0000 803f
00000040: 0000 803f 0000 803f 0000 803f 0000 803f
00000050: 0000 803f 0000 0040 0000 0040 0000 0040
00000060: 0000 0040 0000 0040 0000 0040 0000 0040
00000070: 0000 0040 0000 0040 0000 0040 0000 4040
00000080: 0000 4040 0000 4040 0000 4040 0000 4040
00000090: 0000 4040 0000 4040 0000 4040 0000 4040
000000a0: 0000 4040 0000 8040 0000 8040 0000 8040
000000b0: 0000 8040 0000 8040 0000 8040 0000 8040
000000c0: 0000 8040 0000 8040 0000 8040 0000 a040
000000d0: 0000 a040 0000 a040 0000 a040 0000 a040
000000e0: 0000 a040 0000 a040 0000 a040 0000 a040
000000f0: 0000 a040 0000 c040 0000 c040 0000 c040
00000100: 0000 c040 0000 c040 0000 c040 0000 c040
00000110: 0000 c040 0000 c040 0000 c040 0000 e040
00000120: 0000 e040 0000 e040 0000 e040 0000 e040
00000130: 0000 e040 0000 e040 0000 e040 0000 e040
00000140: 0000 e040 0000 0041 0000 0041 0000 0041
00000150: 0000 0041 0000 0041 0000 0041 0000 0041
00000160: 0000 0041 0000 0041 0000 0041 0000 1041
00000170: 0000 1041 0000 1041 0000 1041 0000 1041
00000180: 0000 1041 0000 1041 0000 1041 0000 1041
00000190: 0000 1041
0.0 0.0 0.0 0.0 0.0 0.0 0.0 0.0
0.0 0.0 0.0 1.0 1.0 1.0 1.0 1.0
1.0 1.0 1.0 1.0 1.0 2.0 2.0 2.0
2.0 2.0 2.0 2.0 2.0 2.0 2.0 3.0
3.0 3.0 3.0 3.0 3.0 3.0 3.0 3.0
3.0 4.0 4.0 4.0 4.0 4.0 4.0 4.0
4.0 4.0 4.0 5.0 5.0 5.0 5.0 5.0
5.0 5.0 5.0 5.0 5.0 6.0 6.0 6.0
6.0 6.0 6.0 6.0 6.0 6.0 6.0 7.0
7.0 7.0 7.0 7.0 7.0 7.0 7.0 7.0
7.0 8.0 8.0 8.0 8.0 8.0 8.0 8.0
8.0 8.0 8.0 9.0 9.0 9.0 9.0 9.0
9.0 9.0 9.0 9.0 9.0

tensor f4 [101, 10]
00000000: efc9 033e 5bd3 bc3d 423e e83d 355e ba3d
00000010: 5ddc c63d 5f07 ce3d 97ff 903d b072 e83d
00000020: ceaa cf3d 3b01 cd3d 9cc4 003f 4850 fc3d
00000030: f0a7 c63d c9e5 bf3d 3e79 d83d 39d6 053e
00000040: 371a c03d 17d9 ce3d 0ad7 233e 2063 ee3d
00000050: 3f57 0b3f 448b ec3d 075f 183e 22fd f63d
00000060: 6688 e33d 705f 073e 3cbd d23d 14d0 043e
00000070: d881 f33d db8a fd3d 8716 193f ed0d be3d
00000080: 6519 e23d 36cd bb3d 6132 d53d d0b3 d93d
00000090: 2aa9 933d 1214 bf3d 234a fb3d b5a6 f93d
000000a0: 764f 1e3f 3b01 cd3d 3a23 0a3e c05b 203e
000000b0: 90a0 f83d ef38 c53d 3d2c d43d 1b9e de3d
000000c0: 3a23 0a3e 62a1 d63d 3b70 1e3f ceaa cf3d
000000d0: 86c9 d43d a52c 033e 8bfd e53d f016 c83d
000000e0: 05a3 923d 508d 973d b684 fc3d 713d 0a3e
000000f0: 2cd4 2a3f a301 bc3d 643b 1f3e cf66 153e
00000100: fb5c ed3d fe65 f73d 1214 bf3d 0000 003e
00000110: 3a92 0b3e a69b 043e a69b 343f 4013 e13d
00000120: f2b0 103e d509 283e a60a 063e 1d38 273e
00000130: 0f9c b33d 840d cf3d 832f 0c3e fc18 333e
00000140: c3d3 2b3f d044 d83d 4df3 0e3e 6c78 fa3d
00000150: faed eb3d d712 f23d 7a36 ab3d a857 ca3d
00000160: 234a fb3d 74b5 153e 643b 2f3f e2e9 153e
00000170: 5a64 3b3e 67d5 273e be30 193e 6f81 043e
00000180: 6dc5 fe3d 832f 0c3e 29cb 103e d578 293e
00000190: f54a 393f f241 0f3e b37b 323e ed0d 3e3e
000001a0: 917e fb3d 13f2 c13d f38e 133e f016 083e
000001b0: cc7f 083e 371a 003e 7aa5 2c3f c729 0a3f
000001c0: 0f9c 333e 304c 263e ac1c da3d b459 f53d
000001d0: 006f 013e fb3a f03d 4ed1 113e ee5a 023e
000001e0: 70ce 283f 70ce 183f 226c 383e 1c7c 213e
000001f0: 5f98 cc3d 4d15 8c3d e336 1a3e 94f6 063e
00000200: a54e 003e fed4 f83d f90f 293f 8cb9 0b3f
00000210: cdcc 4c3e 9a08 1b3e 10e9 b73d a52c 033e
00000220: 1ea7 283e 3fc6 1c3e 8863 1d3e 8638 d63d
00000230: 9be6 1d3f 23db 193f c0ec 1e3e d656 ec3d
00000240: d3bc e33d 4013 e13d 8b6c e73d d712 f23d
00000250: b1bf ec3d cac3 023e 166a 2d3f 0ebe 303f
00000260: e10b 533e 857c 103e 3d2c d43d ef38 053e
00000270: f4fd 143e 64cc 1d3e 98dd 133e 6154 d23d
00000280: f931 163f b1bf 2c3f 8126 423e 3945 073e
00000290: acad d83d 4703 f83d 39b4 083e ba6b 093e
000002a0: 63ee 1a3e f54a d93d 42cf 163f 23db 293f
000002b0: b9fc 473e f2b0 103e a913 d03d 48bf fd3d
000002c0: e336 1a3e 2f6e 233e 5474 243e ce88 d23d
000002d0: 46b6 033f ce88 123f d656 2c3e 4f40 133e
000002e0: fca9 f13d e3c7 183e 97ff 103e ae47 213e
000002f0: ba6b 093e de71 0a3e 7ac7 193f 7368 313f
00000300: 7671 1b3e 65aa 203e 3108 ac3d 9621 0e3e
00000310: f697 1d3e 7424 173e 50fc 183e cff7 d33d
00000320: 9a08 1b3f 3108 2c3f f241 4f3e a779 073e
00000330: 71ac 8b3d 01de 023e 5eba 093e e5f2 1f3e
00000340: 8195 033e a779 c73d 8cdb 083f c729 2a3f
00000350: 3945 e73e 38f8 423e 4d15 8c3d aa60 143e
00000360: 6c09 f93d 6154 123e ab3e 173e 158c 0a3e
00000370: 840d 0f3f d122 2b3f ee7c 0f3f 99bb 163e
00000380: abcf d53d 1b9e de3d 0091 fe3d dc68 003e
00000390: 2d21 1f3e fb3a f03d a1f8 113f 6132 353f
000003a0: e02d 203f fc18 333e 6688 e33d 8a1f e33d
000003b0: bc74 133e d0d5 163e b1bf 2c3e 5f98 0c3e
000003c0: 6891 0d3f c976 2e3f e71d 273f 3d2c 143e
000003d0: 423e e83d 92cb ff3d 029a 083e b81e 053e
000003e0: c3f5 283e fb5c ed3d 3fc6 fc3e d578 293f
000003f0: b98d 163f aeb6 e23d 1b0d e03d f5db d73d
0.1287 0.0922 0.1134 0.091 0.0971 0.1006 0.0708 0.1135
0.1014 0.1001 0.503 0.1232 0.097 0.0937 0.1057 0.1307
0.0938 0.101 0.16 0.1164 0.5443 0.1155 0.1488 0.1206
0.1111 0.1322 0.1029 0.1297 0.1189 0.1238 0.598 0.0928
0.1104 0.0917 0.1041 0.1063 0.0721 0.0933 0.1227 0.1219
0.6184 0.1001 0.1349 0.1566 0.1214 0.0963 0.1036 0.1087
0.1349 0.1048 0.6189 0.1014 0.1039 0.1281 0.1123 0.0977
0.0716 0.074 0.1233 0.135 0.6673 0.0918 0.1555 0.1459
0.1159 0.1208 0.0933 0.125 0.1363 0.1295 0.7055 0.1099
0.1413 0.1641 0.1309 0.1633 0.0877 0.1011 0.1369 0.1749
0.6712 0.1056 0.1396 0.1223 0.1152 0.1182 0.0836 0.0988
0.1227 0.1462 0.6845 0.1464 0.183 0.1639 0.1496 0.1294
0.1244 0.1369 0.1414 0.1655 0.7238 0.1399 0.1743 0.1856
0.1228 0.0947 0.1441 0.1329 0.1333 0.1251 0.6744 0.5397
0.1754 0.1624 0.1065 0.1198 0.1264 0.1173 0.1424 0.1273
0.6594 0.5969 0.1801 0.1577 0.0999 0.0684 0.1506 0.1318
0.1253 0.1215 0.6604 0.5458 0.2 0.1514 0.0898 0.1281
0.1647 0.1531 0.1537 0.1046 0.6168 0.601 0.1552 0.1154
0.1112 0.1099 0.113 0.1182 0.1156 0.1277 0.6774 0.6904
0.2061 0.1411 0.1036 0.1301 0.1455 0.1541 0.1444 0.1027
0.5867 0.6748 0.1896 0.1321 0.1058 0.1211 0.1335 0.1342
0.1513 0.1061 0.5891 0.6635 0.1953 0.1413 0.1016 0.1239
0.1506 0.1596 0.1606 0.1028 0.5145 0.5724 0.1683 0.1438
0.118 0.1492 0.1416 0.1575 0.1342 0.1352 0.6007 0.693
0.1518 0.1569 0.084 0.1388 0.1539 0.1476 0.1494 0.1035
0.6056 0.672 0.2024 0.1323 0.0682 0.1278 0.1345 0.1562
0.1285 0.0974 0.5346 0.6647 0.4517 0.1904 0.0684 0.1449
0.1216 0.1429 0.1477 0.1353 0.5588 0.6685 0.5605 0.1472
0.1044 0.1087 0.1243 0.1254 0.1554 0.1173 0.5702 0.7078
0.6257 0.1749 0.1111 0.1109 0.144 0.1473 0.1687 0.1373
0.553 0.6815 0.6528 0.1447 0.1134 0.1249 0.1334 0.13
0.165 0.1159 0.4937 0.662 0.5881 0.1107 0.1094 0.1054

net.net.0.weight f4 [100, 784]
00000000: 0410 483d e4f1 72bd 7bf0 973d 3404 6c3d
00000010: cb9c b23c 740f 253d 15e0 393c 1460 053d
00000020: 8f4c 0dbd 92c5 98bd b455 99bd 95ab 89bd
00000030: 9486 c23d ad9e 7a3d ae3c f7bc c5c0 0abc
00000040: d9f3 423c a719 103c 2519 9ebd 976c afbd
00000050: 8f29 9cbd 1193 65bd 2600 a83d 2fb5 c83d
00000060: 49d4 7ebd 9301 3abd 3815 a33c 6bc5 7c3c
00000070: c658 2ebd 8c25 c13a 5d31 3a3d 5e6f abbd
00000080: ee03 62bd c3df 98bd c0d7 ad3d 8be7 d03c
00000090: 6c57 4a3d e7d6 373d 412c 193e 96da fc3c
000000a0: d617 173d 997c 0e3b 9a2f 4b3d d5e2 9a3c
000000b0: f20b c83c ed46 bdbc 8fd5 41bd af9c 87bc
000000c0: e4db 3dbd 5688 df3b c372 b4bd b869 acbc
000000d0: 9dde 48bd 1239 4d3d 7833 fcbb 3771 c73b
000000e0: 076e c0bb 56f1 623c b497 a53c 6d41 adbd
000000f0: 218b aebd 6d05 01be 16b5 4cbd ae08 be3c
00000100: 29f2 913b a1d4 64bd 17f6 0a3d 6a4c 93bd
00000110: 46f8 a7bd 59d6 a2bd 7cb5 f6bc 7d6d 42bc
00000120: 899f af3c 6e50 edbb 201a 093d 5cf9 b23c
00000130: 0a42 b93d 3fed 99bb 6e43 cfbc 76e8 b8bd
00000140: f368 c5bd 33d4 f23c e87b 5c3d 9099 f53b
00000150: 1d90 5bbd 5614 7a3b 3858 d23c 3bdf cf3c
00000160: b7ad f1ba acf4 d93b 8a5d 3cba 5ef9 acbd
00000170: 57a9 88bd 41a4 663d dfa2 3d3d 9652 4d3a
00000180: 7188 023d 900e 8d3d a989 b1bd 9eda 3ebc
00000190: e13f 9c3d dfcf 00bd 6b85 41bc ad21 cc3b
000001a0: dc7f 353d bea0 d1bd 1294 6ebd 7b53 7abd
000001b0: 9403 14bd 65c6 4cbc a287 7ebd c7e4 f9bc
000001c0: 7d80 24bc 8102 29bd 69d0 7c3c 1cfc 85bd
000001d0: 6edc 793c 8496 8abd ca84 87bc 0f87 8ebd
000001e0: dac1 11bb e93a 7bbd 5405 c53d 936e c63d
000001f0: 0cb7 913d ff12 02bd 23c1 83bd c073 13bb
00000200: 3ffe 133d e0dd c53c 4641 2f3d e917 413d
00000210: d9bb 79bb f167 02be 2c55 043d 9e83 633d
00000220: 1e53 d73c 0c4e 03bb 6262 1c3d e1d9 b2bd
00000230: 4f23 353d f411 3d3d c8de 443c 833f 9cbd
00000240: cac0 04bd 24c8 293c 394a 80bc cbfb a6bd
00000250: 2acd b43c c055 dcbc 73ca 353d cbfa cf3c
00000260: 240a 743d 675a cf3d 1fd7 7abb 89c6 07bc
00000270: 647f 8cbc 8be4 8dbd 2b00 0e3d d81e 8fbd
00000280: 5983 fbbb fee4 073d 66ad 99bd 8b64 44bd
00000290: d8d9 bdbc 753c 3cbd 6e1b cbbc f20d 77bd
000002a0: ed59 6e3d e796 a73d fdcc d7ba 27dc a13d
000002b0: 87ec b2bd 4680 bebd ca25 e53c a4a9 a13d
000002c0: 1ec7 80bd 5d3b bdbc fd33 91bd 19ea cebb
000002d0: ee82 ab3d cd03 8bbd 87db 973d ab1c fe3c
000002e0: 436e 17bd 7204 033d 8edb af3d ceed 88bd
000002f0: 4c61 50bd 51ea 303d af52 b23d c19e 9ebd
00000300: 86f2 9ebb 7c46 5d3d e2cf a73c e08e 5ebd
00000310: 058b 683d bc1b 023d 7beb b2bd 8156 8dba
00000320: 284e 9dbc db41 5d3d 318b e03c 1c6d 54bd
00000330: a2c2 93bd 6717 a8bd 3c17 8c3c 0b91 843d
00000340: fef2 433c 0c0b d33c 708a 09bb f31c 2dbd
00000350: 744c 9fbd f64e a53c 9eb5 eabd 9f62 30bd
00000360: a2f5 9cbc c3ef efbc eb67 263c b330 50bd
00000370: 6ade 073d 959f 69bd 490d 953c fccb df3d
00000380: 194c b73c b72d 12bc dfa4 e5bd e648 c53c
00000390: c0d4 833d bb6e cabd 7930 1bbd 861c 123c
000003a0: a962 853d 0f30 04bc e09f 5b3b 6799 673d
000003b0: 8d8b b43d eaca 193d 31b5 9bbc 0f2e b7bd
000003c0: 1936 8e3d aff2 5f3c dc73 e9bd d0e0 033d
000003d0: 3dc2 6abd eb8b 9cbd 0f9e 93bd a12e daba
000003e0: 6cb3 dbbb b3cf 8e3c 7ebb 81ba 1432 93bc
000003f0: cc00 0d3d 84bf dd3c e15d 7dbd 13de 423d
0.0488434 -0.059312716 0.07418915 0.057621196 0.02180328 0.04029794 0.011344929 0.03256233
-0.03449684 -0.074595585 -0.0748705 -0.0672218 0.09498325 0.06118648 -0.030180302 -0.008468811
0.011898958 0.0087951785 -0.0771964 -0.08565634 -0.07625114 -0.056048457 0.08203153 0.09800183
-0.06221417 -0.045411658 0.019907579 0.0154279275 -0.04256513 0.0014735921 0.045457233 -0.08370851
-0.05517953 -0.07464554 0.08488417 0.025501033 0.04939978 0.04488268 0.14958288 0.030865949
0.036887966 0.0021741746 0.049605943 0.01890699 0.024419758 -0.02310511 -0.047322806 -0.016554205
-0.046352282 0.0068216724 -0.088109516 -0.021046504 -0.049040426 0.050103255 -0.0076965652 0.0060864943
-0.0058724913 0.013851484 0.02021394 -0.084597446 -0.085226305 -0.12599726 -0.049977385 0.023197498
0.0044539166 -0.05586684 0.033926096 -0.07192309 -0.08201651 -0.0795104 -0.030115835 -0.011866924
0.021438377 -0.007242254 0.03347218 0.02184742 0.09045799 -0.0046974714 -0.025300708 -0.090287134
-0.09639158 0.0296422 0.053829104 0.0074951127 -0.053604234 0.0038159094 0.025676832 0.025375
-0.0018438612 0.0066514816 -0.0007185569 -0.084460005 -0.06672924 0.05630899 0.046297904 0.00078324357
0.031868402 0.06887543 -0.08668835 -0.011648802 0.076293714 -0.03144824 -0.0118115945 0.0062296004
0.04431139 -0.10235737 -0.05824668 -0.06111477 -0.036136225 -0.012498473 -0.06214107 -0.030504597
-0.0100404 -0.041262154 0.015430548 -0.06542227 0.015250308 -0.0676699 -0.016542811 -0.06959354
-0.0022240789 -0.061335478 0.09620157 0.09689059 0.071149915 -0.031756397 -0.06433322 -0.0022499412
0.03613114 0.02415365 0.04278686 0.047141943 -0.003810635 -0.12734963 0.03230779 0.05554544
0.02628475 -0.0020035533 0.038179763 -0.08732963 0.044223126 0.0461597 0.012016006 -0.076293014
-0.03241042 0.010362659 -0.015660392 -0.081534944 0.022070486 -0.026896358 0.044382524 0.025388142
0.059579983 0.10124665 -0.0038275195 -0.008287081 -0.017150588 -0.06928357 0.03466813 -0.06988305
-0.00767557 0.03317737 -0.07503776 -0.047947448 -0.023175165 -0.045956094 -0.024793353 -0.060316034
0.05819123 0.08183079 -0.001646429 0.07903319 -0.0873652 -0.0930181 0.02797212 0.078936845
-0.062879786 -0.023099596 -0.07089994 -0.0063145277 0.08374582 -0.06787834 0.074149184 0.03101953
-0.03697039 0.03198666 0.085867986 -0.06685983 -0.05087404 0.04319221 0.08707177 -0.07745124
-0.0048506884 0.054022297 0.020484868 -0.054335475 0.056773204 0.03176473 -0.087363206 -0.0010783226
-0.019202307 0.054017883 0.027410122 -0.051861867 -0.07214858 -0.08207589 0.017100923 0.06472977
0.011959789 0.025762103 -0.0020987056 -0.042263936 -0.07778254 0.020179253 -0.11460422 -0.043062802
-0.019160096 -0.029289132 0.010156612 -0.050827693 0.033171095 -0.057036955 0.018194811 0.10927579
0.022375153 -0.008922032 -0.11213087 0.024082612 0.06437063 -0.098844014 -0.037888024 0.008917933
0.065129586 -0.008068099 0.003351204 0.05654278 0.0881568 0.03754703 -0.019007297 -0.08944332
0.06943912 0.0136687 -0.113990515 0.03219682 -0.057314146 -0.07643875 -0.07207882 -0.0016645977
-0.0067047384 0.017433023 -0.0009897796 -0.017968215 0.034424588 0.02706886 -0.061857108 0.047575068

net.net.0.bias f4 [100]
00000000: 6ef3 723e 62c2 8b3d 71da 573e ea65 cf3c
00000010: 0fdd 153d 2dc7 3a3e 290d de3d 6320 1dbd
00000020: 9d02 82bd 9f93 713c e7f0 d8bd 402c 9a3d
00000030: 79dc 9fbe 7e5c 0a3d b4fa aa3d 5c18 c13d
00000040: d888 373d d766 f33d 7a89 b83d d20e 3d3e
00000050: 3f6a 49ba 89d7 03bc 583b 40bd 9be5 7e3d
00000060: 0bbb d1bd 2028 89bd c18e 0e3a 5a05 763e
00000070: 1f31 cbbc 2a89 d33d caf1 57be b8f4 083d
00000080: 3fd3 6c3e 285e aabb 8330 643d dd1b 943e
00000090: 50fa 133e 745e 86be da8f e93d 486a 22bd
000000a0: 9bc8 4d3d 52c3 9abd 04be a8bd 0ba1 e1bd
000000b0: 3c91 d93d 7316 243e 4459 8e3c e5c3 e83d
000000c0: 6b45 543e 4b9e 7e3d eaae 87be 920d 2e3c
000000d0: 88b4 36bd 482a 023e c065 b3bc b4ee d23d
000000e0: 7831 dd3d 8175 f73d 22cc dd3d 085a 183c
000000f0: ddd5 84bd 4c67 81bd 474d 3c3d 251b f53d
00000100: 31a8 30bd 4d2c 8f3d 57b9 a6bd b5d7 fb3d
00000110: 8ebd 843b fe94 f3bc deac 083d a30f 31bd
00000120: f355 c83c 502c ae3d 43ca 0fbe 51fc 303e
00000130: 5acf b83e 79b8 483e 38bd 093e e7d4 4ebd
00000140: 7de3 703d e95a 09bd 2a15 89be 60b1 1cbd
00000150: 6adc 913d 9110 e4bc de70 d33d 539f b2be
00000160: 9b91 4c3e 40bf a23d 9a94 693e ff73 813c
00000170: 210e 4e3e c4e8 f33d e761 bd3d 5c28 743d
00000180: 522b 983d b2d7 773d c537 9b3d 404d ff3c
0.23725674 0.06824185 0.21079423 0.025317151 0.03658777 0.18240042 0.10842354 -0.038360965
-0.06348155 0.014744668 -0.105928235 0.07527971 -0.31222895 0.033779614 0.08348599 0.09428474
0.04480824 0.118848495 0.090105966 0.18462685 -0.00076833734 -0.008046993 -0.046931595 0.062230688
-0.10240754 -0.06697106 0.0005438142 0.24025479 -0.024803696 0.10328896 -0.21088329 0.033436507
0.23127459 -0.0051992126 0.055710327 0.28927508 0.14450955 -0.26243937 0.11404391 -0.03965214
0.05024014 -0.07556786 -0.082393676 -0.11017045 0.106234044 0.16024189 0.01737655 0.11365489
0.20729606 0.06216268 -0.26500636 0.010623353 -0.04460576 0.12711442 -0.021899104 0.10299435
0.10800451 0.12082959 0.10829951 0.009298809 -0.06486104 -0.063185304 0.045972135 0.11968068
-0.04312915 0.069908716 -0.081408195 0.12297002 0.004050917 -0.029734131 0.033367984 -0.043227803
0.024455046 0.08504546 -0.14042 0.17283751 0.36095697 0.1960162 0.13451087 -0.05049601
0.0588107 -0.033533964 -0.2677396 -0.038255095 0.07122119 -0.02783993 0.10324262 -0.3488718
0.19977419 0.07946634 0.22810593 0.015802382 0.20122577 0.11909631 0.09247189 0.059608802
0.07430138 0.060508437 0.075789966 0.031164765

net.net.2.weight f4 [100, 100]
00000000: 92e2 18bd 5d3b 303e 1acf 3bbe 8b31 493e
00000010: 4704 08bc b9cc bb3d db4f abbd 0323 49bb
00000020: ade5 0dbb 079d 2c3d 5c90 fe3c 7cdd 92be
00000030: fadc 52be 0fd5 103e b383 be3c 22b4 043e
00000040: a73f 3b3c db2e a33d 318c 70bc aa26 9bbd
00000050: 2789 9abd 364e f33d fe85 60bd 98fe 3dbe
00000060: 5fbf 2cbe 2e72 e13d 913f 14be abac 823d
00000070: 8d0f 16be 1e75 d1bd 76ee 0b3e 0540 2bbe
00000080: 9fb2 33bd b7f2 0ebe 4856 cd3d 2225 9cbc
00000090: 6e32 ac3c cd82 aa3d 5df2 2abe 1561 bdbd
000000a0: 668b 713e c3f5 1fbe 3491 36be 7481 f7bd
000000b0: dd31 67bd beb6 21be 072f 8bbd 49c8 c33d
000000c0: 3aa6 01bd 140c 083e ed0d c9bd be5d 013d
000000d0: 3268 773b 8e86 01be 57f1 19be f451 9bbc
000000e0: 6896 b2bc b827 9b3c fe40 dabd f4ba 98bd
000000f0: 2464 ec3d 5efe 183e f9be 86bc 3bc5 913d
00000100: 6717 cbbd 2ea9 0a3e fc25 22be abf6 a43c
00000110: f035 22be 78b9 e73c b228 97bd aabd 1abd
00000120: 00b4 013e 6096 143d 38bf a7bd 443a 18be
00000130: f205 5d3e 4581 cd3d 3e49 193c 7481 ee3d
00000140: 5e53 bb3d 841c dc3c e569 84be e9bd 85bd
00000150: 19e2 613c 3865 8dbd 1f19 acbd 4c2a babd
00000160: d792 52be d5d7 063e 79dc 313e e3a8 3ebd
00000170: fc7a b83d 3afc 0dbe f6e4 f93d be83 e1bd
00000180: df2c 163c 87bd 43be 9c41 493d 6e13 d03d
00000190: a968 b33c 651b 0fbe e4c9 bcbd bd94 783e
000001a0: e167 823d 49d1 4cbd f688 853c 29d8 793d
000001b0: 9503 af3d dc5e 3b3e 6878 063e 6645 5d3d
000001c0: 8930 c1bd 13dd 943d 3723 debd 7577 86bc
000001d0: 5a1b f43d f3cb 133e fb9e 75be b412 353c
000001e0: 968d 0e3e e868 803e b78d 08bd 8020 b93d
000001f0: 456f ac3c 65f3 fa3d e3c6 0e3d 5454 2fbe
00000200: 578b 01be 02b9 31be b8df ec3d bedb a33c
00000210: 2ef0 f23d b64e caba c285 14be f7f0 3ebe
00000220: 4076 573e 5dfb 613e cde9 513e 0bdd 32bd
00000230: ac96 25be d607 b53d 14c6 523e 097f 673e
00000240: 360e a5bd 58ce e2bd 03c5 14be 1db5 14bd
00000250: 2096 47be 87c5 56be 18ea 2d3d 0488 863d
00000260: 4fdc 22bd 409c 343e 441c b6bd 458e 973d
00000270: 1470 9abb 5192 6b3d aa8d a53d 423d f63d
00000280: 8ebd 14be 69e1 bdbd 0581 083c b54e d0bd
00000290: 79cb b7bd 14f1 02be 83b2 3b3e f7a5 983d
000002a0: c184 83bd ec38 e0bd 8116 363e e22f dbbc
000002b0: 9099 013e 06f4 1f3e 402e 1f3e bf5c 36bd
000002c0: 4fc3 26be 9a08 a8bd 1dd3 d73d a0cb 07bd
000002d0: 59e9 7d3d dc55 803d c94f d63d 5cba a5bd
000002e0: d003 853d fb80 3cbd 5c4f b6bd db98 08bd
000002f0: 33aa 9fbc ddfa 0abe a5e2 8dbd ec28 8dba
00000300: a38b 87bd b6a6 7c3d 6710 19be 51c4 513e
00000310: 182d 783c b1c3 463e b332 ed3d 3843 5f3d
00000320: 949a 223e 5554 5d3e 1cab c9bb f3a1 553e
00000330: 11d0 053e 78b8 9abc d6a4 803c d8a7 463d
00000340: 16ef 423e ed3b bc3d 769e 19be c6fe dfbb
00000350: 8aa0 59be 7b02 9fbc 15a9 07be 2b0b 5c3d
00000360: d77d 713d e118 683e 1ef0 cdbd 2225 c03d
00000370: f794 34be 7f94 2e3e 1a4d 4cbc c6b6 d5bd
00000380: b7da f7bd 33b7 85be 6e8b 323e 958c 8b3d
00000390: 8a51 c8bc f10a 13be c999 153e 9a8f e8bd
000003a0: 9bbf 2abd bf25 203e d9c5 e63d ce7a 16be
000003b0: c753 5b3e c45c ab3d c0ca 323e 88bf 083e
000003c0: 855a 39be de4b 043e 255b 683d b360 d1bc
000003d0: 894c 44be 3b58 343e b2e2 c6bc 2e86 393e
000003e0: d4a3 eebd baf1 d0bc 2781 6abc 6124 523e
000003f0: 1608 933d 7152 eabc 3142 0e3e 12c8 35be
-0.03732545 0.17210145 -0.18340722 0.19647805 -0.008301801 0.09169907 -0.083648406 -0.0030691035
-0.002165179 0.04214194 0.031074695 -0.28684604 -0.20592108 0.14143775 0.023256158 0.1295934
0.01142875 0.07967921 -0.014681862 -0.07575734 -0.07545691 0.11880152 -0.054815285 -0.18554151
-0.16869877 0.11008106 -0.14477374 0.0638059 -0.1465437 -0.102274165 0.13665184 -0.1672364
-0.04387152 -0.13959776 0.100262225 -0.019060675 0.02102014 0.083257295 -0.16694017 -0.092470326
0.23588333 -0.15621094 -0.17828828 -0.12085238 -0.056444038 -0.15792367 -0.06796079 0.09559686
-0.031652667 0.13285857 -0.09817109 0.03158354 0.0037751314 -0.12648985 -0.1503347 -0.018959977
-0.021800235 0.018939838 -0.106569275 -0.074575335 0.11542538 0.14940783 -0.016448485 0.07117697
-0.09916573 0.135411 -0.15834802 0.020137152 -0.15840888 0.02828668 -0.07380809 -0.037778534
0.12666321 0.03627622 -0.08190769 -0.14865977 0.21584299 0.10034422 0.009355841 0.11645785
0.091467604 0.026869066 -0.2586204 -0.06530363 0.013786816 -0.069040716 -0.08403229 -0.09090099
-0.20563827 0.13168271 0.1736926 -0.04654778 0.090078324 -0.13865748 0.12201874 -0.11011456
0.009165972 -0.19115268 0.049134836 0.10159956 0.021900492 -0.13975294 -0.09218195 0.24275489
0.063674696 -0.050004277 0.01630066 0.060997162 0.08545605 0.18297905 0.13131869 0.05402126
-0.094330855 0.07268729 -0.108465604 -0.016414383 0.119192794 0.14433269 -0.23986427 0.011051822
0.13921198 0.25080037 -0.033338275 0.09039402 0.021049151 0.12253455 0.034857642 -0.17122012
-0.1265081 -0.17355731 0.115661085 0.020002242 0.11862217 -0.0015434835 -0.1450415 -0.18646608
0.21041203 0.22068544 0.20499344 -0.043667834 -0.16170758 0.08839385 0.20583373 0.22607054
-0.08059351 -0.11074513 -0.14528279 -0.036305536 -0.19490862 -0.20973788 0.042459577 0.06568912
-0.039760884 0.1763773 -0.0889211 0.07400183 -0.004713068 0.057512585 0.08083661 0.12023403
-0.14525434 -0.09271509 0.008331542 -0.10171262 -0.08974356 -0.12787277 0.18329816 0.0745353
-0.06421805 -0.10948357 0.17782022 -0.02675623 0.12656236 0.15620431 0.15544987 -0.044522043
-0.16285442 -0.082047656 0.105383135 -0.033153176 0.061990116 0.062663764 0.104644366 -0.08092186
0.06494868 -0.046021443 -0.08901855 -0.0333489 -0.019490337 -0.13572259 -0.06927995 -0.0010769642
-0.066184305 0.061682425 -0.14947663 0.20485045 0.01514747 0.19410588 0.11581936 0.054507464
0.1587928 0.21614201 -0.006154431 0.2086256 0.13067652 -0.01888679 0.0157036 0.048499912
0.19036517 0.091911174 -0.15001854 -0.0068357913 -0.21252647 -0.019410362 -0.13248093 0.053721588
0.0589579 0.2266574 -0.10055564 0.093820825 -0.1763495 0.17048834 -0.012469554 -0.10435252
-0.121022634 -0.26116332 0.17436 0.06813923 -0.024452943 -0.14359643 0.14609446 -0.11355515
-0.041686635 0.15639399 0.11268205 -0.14695284 0.21418677 0.08367303 0.17460155 0.13354313
-0.18100937 0.12919566 0.056727547 -0.025558805 -0.19169821 0.17611782 -0.024278019 0.18117592
-0.116523415 -0.02550589 -0.014313019 0.2052169 0.07179277 -0.028603764 0.13892438 -0.17752102

net.net.2.bias f4 [100]
00000000: eee5 643e df66 263d 0970 0e3f 935d 0e3d
00000010: 5c32 9e3e 3171 863e 55ab 023f a8ae 5f3e
00000020: f746 51bc e509 773d f459 a03e 8695 f43c
00000030: ed1e 5ebd 6d97 903e 309e 933e 99b1 cc3d
00000040: 3a10 463e 63a8 463e 939e da3e 8c54 da3d
00000050: 856b debd 9b12 053f 1306 d3bc 5840 063e
00000060: 6102 e03e f8ef 393e 7df9 473f ddf5 823e
00000070: 8313 6b3e 963f 2c3f 7679 0ebd 2c28 1c3f
00000080: 0e5a debe 2b50 923b 5291 343f 6056 88bc
00000090: cbcd 2d3f 293b e23c bc03 e53d 3b7d a3bc
000000a0: 25f1 3b3e 31af b93e 74a3 47bb f408 0b3f
000000b0: fd10 813f e39c 3f3e 5812 51bc 463a 083e
000000c0: 1ce1 dd3e 2a60 ca3e 7e1f 823e fadd 803e
000000d0: 77fb 33bb d4e1 fd3e dd71 5c3e 71ba 493e
000000e0: 1f2f 333e d96a 8f3e 4946 9c3e 0a03 bf3d
000000f0: 04dc 7aba a085 313e 18a9 753e e41c e23e
00000100: d15f 983e 37ab 113f 8e74 c33d 84db 0f3f
00000110: 26ab f03d 0cd9 be3e 7e34 6bbe 5442 0b3f
00000120: c734 a93e dbe5 4abd 0368 dd3e 5023 9f3e
00000130: 3cfb 023f 385a fa3e 6681 e83e 6a81 c03e
00000140: afd1 cf3e 9627 1b3f 7407 043e db3d 21be
00000150: 227a 2bbc 124e 563f 8664 693e eda3 8e3e
00000160: a71e 213e be2c 193d e368 e23e 0e02 c63c
00000170: 90c6 7a3d 951e 773e da94 9d3e 5741 7c3e
00000180: 24c1 a83d 34dd f7bc d952 30bd a3c7 fa3e
0.22353336 0.04062545 0.556397 0.034757208 0.30897796 0.26258233 0.5104268 0.2184397
-0.012773267 0.06031217 0.3131863 0.029856455 -0.054228712 0.2824053 0.28831625 0.099948116
0.19342127 0.19400172 0.42699108 0.10660657 -0.108603515 0.51981515 -0.025759732 0.13110483
0.43751815 0.18157947 0.78115064 0.25578204 0.22956662 0.67284524 -0.034783803 0.609988
-0.4342808 0.004465123 0.7053424 -0.01664275 0.6789214 0.0276161 0.11182353 -0.019957175
0.18353708 0.36266473 -0.0030462416 0.54310536 1.008331 0.18712191 -0.012760721 0.1330348
0.43335807 0.39526492 0.25414652 0.25169355 -0.0027463117 0.49586356 0.2152781 0.19700028
0.17498444 0.28011206 0.30522373 0.093267515 -0.0009569528 0.1733613 0.23990285 0.44162667
0.29760602 0.5690188 0.095437154 0.5619433 0.11751394 0.3727497 -0.22969243 0.54398084
0.33048078 -0.049535614 0.43243417 0.3108163 0.51164603 0.48896956 0.45411223 0.37598735
0.40589663 0.6060728 0.12893468 -0.15746252 -0.01046613 0.83712876 0.22792253 0.2785944
0.15734349 0.037396185 0.44220647 0.024170902 0.06122452 0.2413276 0.30777627 0.246343
0.08239964 -0.030256845 -0.04304776 0.48980436

net.net.4.weight f4 [10, 100]
00000000: ccf3 acbe fac9 1b3e 7d27 80be 4457 b7bd
00000010: b8fb 77be e1c2 793e 7cfb be3e e9e9 043d
00000020: e867 483e 0592 e7bd 5089 b03e dad7 59be
00000030: b29b aebd 2089 473e b154 ac3e 269c 153c
00000040: dae8 fc3d 4798 4c3e 92cb 3a3c 120b 67be
00000050: 4ff0 94be c4f9 0c3e 7c0a 983a 9a1a 043d
00000060: 95d4 783e 2494 aebd 1cf3 80be 59cf 673b
00000070: bc7d 28be 29ee dabe b6a6 0e3e 7aef cebd
00000080: 562a 29be 6fc2 4abd e06f b83d e459 8d3d
00000090: 5e7e 853e 8989 16be e3fd 6cbd b22b 273e
000000a0: 27f0 f83c 0b66 4fbe 9fce 80be 80da ff3c
000000b0: 0268 123f 28f5 82be d23c 14be 679e 1ebe
000000c0: 9357 fd3d 70b9 53be 5488 8cbe 962e e7bb
000000d0: e20a 52be f1b7 ed3c 9f92 2fbd a48e 223e
000000e0: b51c e63d a4a5 67be 7145 2ebe df31 febd
000000f0: 41e1 4d3e 5720 27be 1ec3 5a3e a372 613e
00000100: df99 c4bd 16d0 943e 0e9c 8dbe 6be9 873d
00000110: e9e8 9e3a 91b2 8ebe a42e f1bd cb52 cbbd
00000120: b6be 113e 8e2b 123e 4509 5bbe 2f75 63bb
00000130: 322d d53e b07f 81be 82c3 34be 7e28 183e
00000140: 4b8e 0c3d 9121 c43d 7611 b03e b936 903c
00000150: 12e2 e2bd e763 383e 7df9 1a3e 3161 8bbe
00000160: 9c4e 1f3e 16d7 d03c 3d8a 623d 484f 46be
00000170: f4c7 3a3e 12d8 033e ff40 80be 908c 05bf
00000180: f4e9 293d e336 a7be bd1d f13c b91f a2be
00000190: 2a6c eebd 98ba c93e e5c1 0d3f adb1 eabd
000001a0: 2fb6 14be 3d89 c93e 779d dabe d1f7 d0bb
000001b0: 4e7f e0be 1960 463e d525 e6bb 67c0 53bd
000001c0: ea4c 00be 7027 79be 0233 b7bc 6cc9 c8bd
000001d0: ba98 f6bd 0b2d 003e e1bf 623f 50c3 fbbd
000001e0: e9fb 7cbe b1e4 163d d9d2 fb3d 4074 c93e
000001f0: 7331 43be e657 8fbb f37f 273e 26c6 873e
00000200: dd6e b23d 7b7e 8e3e c5db d9bc ffcd 5dbe
00000210: 0ccd 4ebe c0be b23d 9eba 39be 5ba6 ddbd
00000220: 03cb 80be 3c31 36be a9a7 a2bd 359f 0c3e
00000230: a0a8 86be bd48 b6be ac58 62be 0c55 8bbe
00000240: d528 903e 6e7c 193e 31b6 783e 589e 95be
00000250: fba9 94bc 2af4 613e 04af 98be c8a5 86bd
00000260: 86d1 95be 7fef 64be 5a49 c83e 3791 373d
00000270: 20e6 87be 6c63 babc 91eb 1c3e 49aa 64be
00000280: df55 643e 9e19 45be 073c 68be 5066 e73e
00000290: 4ab9 4b3e 1769 91be 1ba1 84bd 7afb 04bb
000002a0: 048a 57be c773 ef3e 6a06 d83d 8fba 303e
000002b0: 92f5 29be 83ff 083e 9748 92bd 43f5 6c3d
000002c0: 2c19 c6be 442c f23e a3b7 df3e bb08 a0bd
000002d0: 21b2 143e 1610 a7be c1a8 e2bd fef4 6ebe
000002e0: e15f e8bc ea30 bd3d 1366 b93d 0219 e7be
000002f0: f668 b4be 2806 6ebe 14a8 0d3e 9fbe f8bc
00000300: 40d8 cb3e c906 803e 64d6 0a3e 0eb9 6cbe
00000310: 159b 6cbd 9453 073e d521 24be 72ef bbbe
00000320: a8e5 e5bd 4d3f 983d 23d4 963c f289 8e3d
00000330: 1db7 e0be 15e1 9c3d 1c36 943c 929e 053e
00000340: 99e5 303e 82c3 5fbc fb2a 403e f7ac a0bc
00000350: 52be c8bd 6899 c7bd 1275 143e aad3 823d
00000360: 826f 193e 347f e43d 1d54 60be d3c1 bf3d
00000370: 10fd 9f3d 816f 3dbe e8f7 6bbb 190f 063d
00000380: 9bd0 a73d c94e 8b3e 3e6b d4be 8955 d0bd
00000390: 6f25 58be c6d1 19be 8a2b 65be 3394 8cbe
000003a0: 2a2a 9abc 5d6b bcbd d11c 2fbd c68f b2bd
000003b0: fd78 66be 4aa2 8dbd e6b0 01be 26ce bf3d
000003c0: 9e43 213d e1a6 00be d9a4 1a3d 35e6 0bbd
000003d0: 3301 20bf 8523 2b3f 5a56 9d3d ce74 44be
000003e0: b320 5ebe c250 f73a b896 e8bc 4517 bc3e
000003f0: db68 4cbd 2565 51be 14bb 413e 6044 35be
-0.33779752 0.15213767 -0.25030127 -0.089521915 -0.24217117 0.24390747 0.37301242 0.032449637
0.19570887 -0.11307148 0.3447976 -0.21273747 -0.0852579 0.19485903 0.33658364 0.009131467
0.123491004 0.19979964 0.011401074 -0.22562817 -0.2908959 0.13767153 0.0011599804 0.03225193
0.24299844 -0.08524349 -0.25185478 0.0035371392 -0.16454214 -0.42759827 0.13930783 -0.1010427
-0.16520056 -0.049501833 0.090057135 0.06901911 0.26072973 -0.14700903 -0.057859313 0.16325262
0.030387951 -0.2025377 -0.2515764 0.031232119 0.57189953 -0.25577664 -0.14476326 -0.15490113
0.12370219 -0.20676208 -0.2744776 -0.007055114 -0.20511964 0.029018374 -0.04286444 0.15874726
0.11235944 -0.2262178 -0.17018677 -0.12411856 0.20105459 -0.1632093 0.21363494 0.22016387
-0.09599661 0.29065007 -0.27658123 0.06636318 0.0012123856 -0.2787061 -0.11776474 -0.09927901
0.14232907 0.14274427 -0.21390255 -0.0034707298 0.41636044 -0.2529273 -0.17652705 0.14859197
0.03431539 0.09576715 0.34388322 0.017604219 -0.11078276 0.1800686 0.15134235 -0.2722259
0.15557331 0.025493186 0.055307616 -0.19366181 0.18240339 0.12875393 -0.25049588 -0.52167606
0.04148288 -0.32659063 0.029433126 -0.31664827 -0.116417244 0.39400172 0.55373985 -0.1145967
-0.14522623 0.39362517 -0.4269826 -0.0063771983 -0.43847126 0.19372596 -0.007023553 -0.05169716
-0.1252934 -0.2433145 -0.02236319 -0.09804043 -0.12040849 0.12517183 0.88574034 -0.12293112
-0.24705471 0.03683919 0.122960754 0.39346504 -0.19061832 -0.004374492 0.16357403 0.26518363
0.08712552 0.27830872 -0.026594052 -0.21660613 -0.20195407 0.08727789 -0.18137595 -0.108227454
-0.25154886 -0.17792219 -0.07942135 0.13732608 -0.26300526 -0.3560237 -0.22104138 -0.27213323
0.28156152 0.14988872 0.2428825 -0.2922237 -0.01814746 0.22065797 -0.29821026 -0.06574589
-0.29261416 -0.22356986 0.39118463 0.044816222 -0.2654276 -0.022752486 0.15324236 -0.22330584
0.22298382 -0.19248053 -0.22679149 0.45195246 0.19894901 -0.2840049 -0.06476041 -0.0020291493
-0.21048743 0.4676802 0.105480984 0.17258666 -0.16597584 0.1337872 -0.07142752 0.057851087
-0.3869108 0.47299397 0.4369479 -0.07814165 0.14521076 -0.3262946 -0.110673435 -0.23335645
-0.028366031 0.09237845 0.09052672 -0.45136267 -0.3523633 -0.23244536 0.13833648 -0.030364333
0.39813423 0.25005177 0.13558346 -0.23117468 -0.057765085 0.13215476 -0.16028531 -0.3670612
-0.11225444 0.07433949 0.018411702 0.06959905 -0.43889704 0.076601185 0.018092208 0.13048771
0.17275085 -0.013657453 0.18766396 -0.019613726 -0.09801926 -0.09746057 0.14497784 0.06388028
0.14983943 0.111570746 -0.21907087 0.09363141 0.0781194 -0.18499567 -0.0036005918 0.032729242
0.08194085 0.27208546 -0.4148807 -0.101725645 -0.2110803 -0.15021428 -0.2237989 -0.27456817
-0.018818934 -0.092001654 -0.04275209 -0.08718829 -0.22507091 -0.0691572 -0.12665138 0.093654916
0.039371125 -0.12563659 0.037754867 -0.03415509 -0.6250183 0.66851074 0.07682486 -0.19185182
-0.21692161 0.0018868672 -0.02839218 0.36736503 -0.049904685 -0.2044874 0.18919021 -0.17701864

net.net.4.bias f4 [10]
00000000: c73d 3f3e f564 0f3e afd9 e23d 3b72 2bbc
00000010: 6064 42bf 55a5 d93e 4e89 753f fc39 ab3e
00000020: bb77 40bf 5273 22bf
0.1867591 0.14003356 0.11076676 -0.010464246 -0.7593441 0.4250895 0.95912635 0.33442676
-0.75182694 -0.63457215
