continual learning/ModTest2/results/gem_GMod2Cov_nv_0.0_False_5_fashion_mnist_permutations_reduced.pt_2021_08_13_11_39_42_2d89d285659a464192b14e0ede346cd9.pt (torch, 368925 bytes, 8 tensors)

tensor f4 [101]
000000 00 00 00 00 00 00 00 00 00 00 00 00 00 00 00 00
       0.0 0.0 0.0 0.0
000010 00 00 00 00 00 00 00 00 00 00 00 00 00 00 00 00
       0.0 0.0 0.0 0.0
000020 00 00 00 00 00 00 00 00 00 00 00 00 00 00 80 3f
       0.0 0.0 0.0 1.0
000030 00 00 80 3f 00 00 80 3f 00 00 80 3f 00 00 80 3f
       1.0 1.0 1.0 1.0
000040 00 00 80 3f 00 00 80 3f 00 00 80 3f 00 00 80 3f
       1.0 1.0 1.0 1.0
000050 00 00 80 3f 00 00 00 40 00 00 00 40 00 00 00 40
       1.0 2.0 2.0 2.0
000060 00 00 00 40 00 00 00 40 00 00 00 40 00 00 00 40
       2.0 2.0 2.0 2.0
000070 00 00 00 40 00 00 00 40 00 00 00 40 00 00 40 40
       2.0 2.0 2.0 3.0
000080 00 00 40 40 00 00 40 40 00 00 40 40 00 00 40 40
       3.0 3.0 3.0 3.0
000090 00 00 40 40 00 00 40 40 00 00 40 40 00 00 40 40
       3.0 3.0 3.0 3.0
0000a0 00 00 40 40 00 00 80 40 00 00 80 40 00 00 80 40
       3.0 4.0 4.0 4.0
0000b0 00 00 80 40 00 00 80 40 00 00 80 40 00 00 80 40
       4.0 4.0 4.0 4.0
0000c0 00 00 80 40 00 00 80 40 00 00 80 40 00 00 a0 40
       4.0 4.0 4.0 5.0
0000d0 00 00 a0 40 00 00 a0 40 00 00 a0 40 00 00 a0 40
       5.0 5.0 5.0 5.0
0000e0 00 00 a0 40 00 00 a0 40 00 00 a0 40 00 00 a0 40
       5.0 5.0 5.0 5.0
0000f0 00 00 a0 40 00 00 c0 40 00 00 c0 40 00 00 c0 40
       5.0 6.0 6.0 6.0
000100 00 00 c0 40 00 00 c0 40 00 00 c0 40 00 00 c0 40
       6.0 6.0 6.0 6.0
000110 00 00 c0 40 00 00 c0 40 00 00 c0 40 00 00 e0 40
       6.0 6.0 6.0 7.0
000120 00 00 e0 40 00 00 e0 40 00 00 e0 40 00 00 e0 40
       7.0 7.0 7.0 7.0
000130 00 00 e0 40 00 00 e0 40 00 00 e0 40 00 00 e0 40
       7.0 7.0 7.0 7.0
000140 00 00 e0 40 00 00 00 41 00 00 00 41 00 00 00 41
       7.0 8.0 8.0 8.0
000150 00 00 00 41 00 00 00 41 00 00 00 41 00 00 00 41
       8.0 8.0 8.0 8.0
000160 00 00 00 41 00 00 00 41 00 00 00 41 00 00 10 41
       8.0 8.0 8.0 9.0
000170 00 00 10 41 00 00 10 41 00 00 10 41 00 00 10 41
       9.0 9.0 9.0 9.0
000180 00 00 10 41 00 00 10 41 00 00 10 41 00 00 10 41
       9.0 9.0 9.0 9.0
000190 00 00 10 41
       9.0

tensor f4 [101, 10]
000000 ef c9 03 3e 5b d3 bc 3d 42 3e e8 3d 35 5e ba 3d
       0.1287 0.0922 0.1134 0.091
000010 5d dc c6 3d 5f 07 ce 3d 97 ff 90 3d b0 72 e8 3d
       0.0971 0.1006 0.0708 0.1135
000020 ce aa cf 3d 3b 01 cd 3d 9c c4 00 3f 48 50 fc 3d
       0.1014 0.1001 0.503 0.1232
000030 f0 a7 c6 3d c9 e5 bf 3d 3e 79 d8 3d 39 d6 05 3e
       0.097 0.0937 0.1057 0.1307
000040 37 1a c0 3d 17 d9 ce 3d 0a d7 23 3e 20 63 ee 3d
       0.0938 0.101 0.16 0.1164
000050 3f 57 0b 3f 44 8b ec 3d 07 5f 18 3e 22 fd f6 3d
       0.5443 0.1155 0.1488 0.1206
000060 66 88 e3 3d 70 5f 07 3e 3c bd d2 3d 14 d0 04 3e
       0.1111 0.1322 0.1029 0.1297
000070 d8 81 f3 3d db 8a fd 3d 87 16 19 3f ed 0d be 3d
       0.1189 0.1238 0.598 0.0928
000080 65 19 e2 3d 36 cd bb 3d 61 32 d5 3d d0 b3 d9 3d
       0.1104 0.0917 0.1041 0.1063
000090 2a a9 93 3d 12 14 bf 3d 23 4a fb 3d b5 a6 f9 3d
       0.0721 0.0933 0.1227 0.1219
0000a0 76 4f 1e 3f 3b 01 cd 3d 3a 23 0a 3e c0 5b 20 3e
       0.6184 0.1001 0.1349 0.1566
0000b0 90 a0 f8 3d ef 38 c5 3d 3d 2c d4 3d 1b 9e de 3d
       0.1214 0.0963 0.1036 0.1087
0000c0 3a 23 0a 3e 62 a1 d6 3d 3b 70 1e 3f ce aa cf 3d
       0.1349 0.1048 0.6189 0.1014
0000d0 86 c9 d4 3d a5 2c 03 3e 8b fd e5 3d f0 16 c8 3d
       0.1039 0.1281 0.1123 0.0977
0000e0 05 a3 92 3d 50 8d 97 3d b6 84 fc 3d 71 3d 0a 3e
       0.0716 0.074 0.1233 0.135
0000f0 2c d4 2a 3f a3 01 bc 3d 64 3b 1f 3e cf 66 15 3e
       0.6673 0.0918 0.1555 0.1459
000100 fb 5c ed 3d fe 65 f7 3d 12 14 bf 3d 00 00 00 3e
       0.1159 0.1208 0.0933 0.125
000110 3a 92 0b 3e a6 9b 04 3e a6 9b 34 3f 40 13 e1 3d
       0.1363 0.1295 0.7055 0.1099
000120 f2 b0 10 3e d5 09 28 3e a6 0a 06 3e 1d 38 27 3e
       0.1413 0.1641 0.1309 0.1633
000130 0f 9c b3 3d 84 0d cf 3d 83 2f 0c 3e fc 18 33 3e
       0.0877 0.1011 0.1369 0.1749
000140 c3 d3 2b 3f d0 44 d8 3d 4d f3 0e 3e 6c 78 fa 3d
       0.6712 0.1056 0.1396 0.1223
000150 fa ed eb 3d d7 12 f2 3d 7a 36 ab 3d a8 57 ca 3d
       0.1152 0.1182 0.0836 0.0988
000160 23 4a fb 3d 74 b5 15 3e 64 3b 2f 3f e2 e9 15 3e
       0.1227 0.1462 0.6845 0.1464
000170 5a 64 3b 3e 67 d5 27 3e be 30 19 3e 6f 81 04 3e
       0.183 0.1639 0.1496 0.1294
000180 6d c5 fe 3d 83 2f 0c 3e 29 cb 10 3e d5 78 29 3e
       0.1244 0.1369 0.1414 0.1655
000190 f5 4a 39 3f f2 41 0f 3e b3 7b 32 3e ed 0d 3e 3e
       0.7238 0.1399 0.1743 0.1856
0001a0 91 7e fb 3d 13 f2 c1 3d f3 8e 13 3e f0 16 08 3e
       0.1228 0.0947 0.1441 0.1329
0001b0 cc 7f 08 3e 37 1a 00 3e 7a a5 2c 3f c7 29 0a 3f
       0.1333 0.1251 0.6744 0.5397
0001c0 0f 9c 33 3e 30 4c 26 3e ac 1c da 3d b4 59 f5 3d
       0.1754 0.1624 0.1065 0.1198
0001d0 00 6f 01 3e fb 3a f0 3d 4e d1 11 3e ee 5a 02 3e
       0.1264 0.1173 0.1424 0.1273
0001e0 70 ce 28 3f 70 ce 18 3f 22 6c 38 3e 1c 7c 21 3e
       0.6594 0.5969 0.1801 0.1577
0001f0 5f 98 cc 3d 4d 15 8c 3d e3 36 1a 3e 94 f6 06 3e
       0.0999 0.0684 0.1506 0.1318
000200 a5 4e 00 3e fe d4 f8 3d f9 0f 29 3f 8c b9 0b 3f
       0.1253 0.1215 0.6604 0.5458
000210 cd cc 4c 3e 9a 08 1b 3e 10 e9 b7 3d a5 2c 03 3e
       0.2 0.1514 0.0898 0.1281
000220 1e a7 28 3e 3f c6 1c 3e 88 63 1d 3e 86 38 d6 3d
       0.1647 0.1531 0.1537 0.1046
000230 9b e6 1d 3f 23 db 19 3f c0 ec 1e 3e d6 56 ec 3d
       0.6168 0.601 0.1552 0.1154
000240 d3 bc e3 3d 40 13 e1 3d 8b 6c e7 3d d7 12 f2 3d
       0.1112 0.1099 0.113 0.1182
000250 b1 bf ec 3d ca c3 02 3e 16 6a 2d 3f 0e be 30 3f
       0.1156 0.1277 0.6774 0.6904
000260 e1 0b 53 3e 85 7c 10 3e 3d 2c d4 3d ef 38 05 3e
       0.2061 0.1411 0.1036 0.1301
000270 f4 fd 14 3e 64 cc 1d 3e 98 dd 13 3e 61 54 d2 3d
       0.1455 0.1541 0.1444 0.1027
000280 f9 31 16 3f b1 bf 2c 3f 81 26 42 3e 39 45 07 3e
       0.5867 0.6748 0.1896 0.1321
000290 ac ad d8 3d 47 03 f8 3d 39 b4 08 3e ba 6b 09 3e
       0.1058 0.1211 0.1335 0.1342
0002a0 63 ee 1a 3e f5 4a d9 3d 42 cf 16 3f 23 db 29 3f
       0.1513 0.1061 0.5891 0.6635
0002b0 b9 fc 47 3e f2 b0 10 3e a9 13 d0 3d 48 bf fd 3d
       0.1953 0.1413 0.1016 0.1239
0002c0 e3 36 1a 3e 2f 6e 23 3e 54 74 24 3e ce 88 d2 3d
       0.1506 0.1596 0.1606 0.1028
0002d0 46 b6 03 3f ce 88 12 3f d6 56 2c 3e 4f 40 13 3e
       0.5145 0.5724 0.1683 0.1438
0002e0 fc a9 f1 3d e3 c7 18 3e 97 ff 10 3e ae 47 21 3e
       0.118 0.1492 0.1416 0.1575
0002f0 ba 6b 09 3e de 71 0a 3e 7a c7 19 3f 73 68 31 3f
       0.1342 0.1352 0.6007 0.693
000300 76 71 1b 3e 65 aa 20 3e 31 08 ac 3d 96 21 0e 3e
       0.1518 0.1569 0.084 0.1388
000310 f6 97 1d 3e 74 24 17 3e 50 fc 18 3e cf f7 d3 3d
       0.1539 0.1476 0.1494 0.1035
000320 9a 08 1b 3f 31 08 2c 3f f2 41 4f 3e a7 79 07 3e
       0.6056 0.672 0.2024 0.1323
000330 71 ac 8b 3d 01 de 02 3e 5e ba 09 3e e5 f2 1f 3e
       0.0682 0.1278 0.1345 0.1562
000340 81 95 03 3e a7 79 c7 3d 75 02 0a 3f 95 65 28 3f
       0.1285 0.0974 0.5391 0.6578
000350 30 bb e7 3e b6 f3 3d 3e 06 81 95 3d 60 e5 10 3e
       0.4526 0.1855 0.073 0.1415
000360 93 3a 01 3e 73 d7 12 3e 05 34 11 3e 25 06 01 3e
       0.1262 0.1434 0.1418 0.126
000370 4e 62 10 3f 1e 16 2a 3f 29 5c 0f 3f 74 24 17 3e
       0.564 0.6644 0.56 0.1476
000380 62 10 d8 3d 84 9e cd 3d 6e 34 00 3e 5c 8f 02 3e
       0.1055 0.1004 0.1252 0.1275
000390 5d dc 06 3e 65 aa e0 3d a5 2c 13 3f 0b 46 35 3f
       0.1317 0.1097 0.5749 0.7081
0003a0 3a 92 1b 3f b1 50 2b 3e 8a 1f e3 3d da ac fa 3d
       0.6077 0.1673 0.1109 0.1224
0003b0 2c 65 19 3e bd 52 16 3e 65 19 22 3e a8 57 0a 3e
       0.1498 0.1468 0.1583 0.1351
0003c0 33 c4 11 3f 5b 42 2e 3f 15 8c 2a 3f 61 c3 13 3e
       0.5694 0.6807 0.6662 0.1443
0003d0 16 fb cb 3d 92 cb ff 3d 4d f3 0e 3e 97 90 0f 3e
       0.0996 0.1249 0.1396 0.1402
0003e0 d1 91 1c 3e fa ed eb 3d 03 09 0a 3f 32 e6 2e 3f
       0.1529 0.1152 0.5392 0.6832
0003f0 d6 c5 1d 3f 47 72 f9 3d d6 c5 ed 3d 8c b9 eb 3d
       0.6163 0.1218 0.1161 0.1151

net.net.0.weight f4 [100, 784]
000000 92 99 70 3d 5f 0a ff bc 7d 72 92 3d 98 c4 49 3d
       0.058740206 -0.031132875 0.07150743 0.049259752
000010 bd c9 c0 3c 41 aa f5 3c 24 cb 39 3c 6e e6 21 3d
       0.023533696 0.02998841 0.011339936 0.039526395
000020 68 3f 85 bd 7f e5 8f bd b2 18 9a bd e6 8d 7e bd
       -0.065062344 -0.07026195 -0.075242415 -0.062147044
000030 a2 31 a2 3d 08 c3 90 3d f0 f2 be bc 38 46 eb bc
       0.07919623 0.07068449 -0.023309201 -0.028720006
000040 16 dd 92 ba 87 33 e5 3c aa d5 67 bd 71 9a 81 bd
       -0.0011204805 0.027978672 -0.05660025 -0.063282855
000050 39 ac 6a bd f1 a2 64 bd 74 97 7d 3d 48 25 97 3d
       -0.05729315 -0.055819456 0.061912015 0.07380158
000060 fe 0f 90 bd 3d 45 21 bd 8b 0d 1c 3c ae c1 b5 3c
       -0.070343 -0.03937267 0.009524713 0.02218708
000070 b6 7e 19 bd d5 df 00 bc fc 64 79 3d fe 3b d8 bd
       -0.037474357 -0.007865866 0.06088732 -0.105583176
000080 88 e9 5a bd 58 5e a9 bd d9 ba c7 3d 6f 9a 41 bc
       -0.05344537 -0.08269948 0.09752435 -0.011816605
000090 a4 c2 81 3d fe a6 65 3d 1f 76 16 3e 77 5f 55 3d
       0.06335953 0.05606746 0.14693497 0.052092995
0000a0 14 3f 6f 3d 6a cc bb 3c c6 1c 3a 3d 6b 52 ec 3b
       0.058409765 0.02292462 0.045437597 0.0072119734
0000b0 36 ee d8 3c 8e 59 be bb 39 30 53 bd ed 30 f2 bc
       0.026480775 -0.0058090156 -0.05155966 -0.029564345
0000c0 4f ae 16 bd 2f 5a 86 3c 29 65 97 bd d8 b7 ea bc
       -0.036787327 0.016400425 -0.07392342 -0.028652117
0000d0 f9 da a0 bd ba a5 72 3d 68 f6 e5 bc 07 8c 18 3d
       -0.07854266 0.05924008 -0.028071597 0.037242915
0000e0 a3 48 e0 bc 07 d4 60 3c 35 8b 9e 3c b7 79 ee bd
       -0.027378386 0.013722426 0.019353488 -0.11644309
0000f0 1c d0 85 bd 36 63 c7 bd 61 13 10 bd f1 d9 5c 3c
       -0.06533834 -0.0973572 -0.03517473 0.013479696
000100 14 77 73 3c 85 b5 5a bd 41 81 30 3c 8b 9e 7c bd
       0.014859933 -0.053395767 0.010773004 -0.061674636
000110 5d d0 c4 bd 83 7b c3 bd 92 a8 7b bd b5 aa 25 3b
       -0.09610055 -0.09545042 -0.061440058 0.0025278751
000120 fd 86 4d 3c 8e d3 38 bc 32 70 91 3c 93 b2 dd 3c
       0.012544391 -0.011280907 0.017753694 0.02706269
000130 8f 15 f5 3d 73 a9 3c bd 02 87 2b bd 49 37 78 bd
       0.119670026 -0.046060037 -0.0418768 -0.0605996
000140 b8 8d c5 bd 98 a3 da 3c c4 32 4e 3d 53 ad 9b 3c
       -0.09646171 0.026689336 0.050341383 0.019003546
000150 c0 b7 5e bd 81 6b 9f bc fc c7 11 3c 7b d8 fe 3c
       -0.054374456 -0.019460442 0.008897778 0.031109085
000160 0b 6d 22 bc 37 d5 e5 3c 19 9f 0b bc 91 90 aa bd
       -0.009913693 0.02805577 -0.008521819 -0.08328355
000170 d3 8b a7 bd 6d d0 0f 3d a7 76 79 3d fd 51 7c bc
       -0.08180966 0.03511088 0.06090417 -0.015400407
000180 83 0b 3f 3d 74 13 9a 3d 86 27 b4 bd 0d 0e 9d bb
       0.046641838 0.07523242 -0.08796601 -0.0047929347
000190 18 16 c2 3d ad 9d 99 bc 84 80 27 bd e8 20 e9 3b
       0.0947687 -0.018751943 -0.040894046 0.0071145184
0001a0 e7 54 28 3d be 2e 92 bd ea bd 02 bd f9 a8 83 bd
       0.041096594 -0.071378216 -0.031919397 -0.06428713
0001b0 e1 02 fb bc 79 fb 0a bd 3d 73 8e bd 5e 84 49 bd
       -0.030641021 -0.03393123 -0.06955574 -0.0491985
0001c0 8f da 86 bc 32 d3 1a bd af aa 93 3c db 3c 23 bd
       -0.016461639 -0.037799068 0.018025724 -0.03985296
0001d0 22 f4 ce 3a 99 b0 86 bd 50 70 0e 3c ca 74 4f bd
       0.001578931 -0.06576652 0.00869377 -0.050648488
0001e0 a2 dd 62 3c 62 5e ab bd 9c 9c f4 3d c7 63 c6 3d
       0.013846787 -0.083676115 0.11943933 0.09687
0001f0 43 e6 cb 3d 9a 0b 23 bd 66 0c 60 bd 24 92 ad bc
       0.09956028 -0.039805986 -0.054699324 -0.02118785
000200 6b 3a d3 3c 18 77 96 bc 4c 44 89 3d 32 b9 7d 3d
       0.025784692 -0.018367335 0.0670248 0.061944194
000210 7c 44 5c bc e1 c3 e9 bd 71 ac 11 3d 65 e5 26 3d
       -0.013444062 -0.11414314 0.035564844 0.04074611
000220 31 fc 83 3d 94 4d af bc e1 bf 73 3c 91 3d 71 bd
       0.06444586 -0.021399297 0.01487729 -0.058896605
000230 14 1c 78 3d 2f 41 64 3d 72 fb aa 3c bd 39 b5 bd
       0.060573652 0.055726226 0.020871852 -0.08848903
000240 99 52 03 bd 7a 0a 9d 3c 93 85 dc bc 0d c6 5d bd
       -0.032061193 0.019170035 -0.026919162 -0.054143954
000250 4a fa 02 3d 27 fb b9 bc 0d c0 12 3d 3b 20 a8 3c
       0.031976976 -0.022702767 0.035827685 0.020523181
000260 ab bf 78 3d b5 cd c4 3d 02 28 a2 bc 0c 1c 97 bb
       0.060729664 0.09609548 -0.019794468 -0.0046114977
000270 ff 74 22 bd cb 73 94 bd 48 02 f3 3c 2f 89 0a bd
       -0.039662357 -0.07248648 0.029664174 -0.033822235
000280 bc 5e 26 3c 37 39 e6 3c 84 20 ab bd d9 a1 45 bd
       0.010154422 0.028103454 -0.08355811 -0.048250053
000290 f6 c0 26 bd 2f 5e 1a bd da 8e 29 bb 98 4b 31 bd
       -0.040711366 -0.037687477 -0.00258725 -0.043284982
0002a0 28 c3 5e 3d 68 60 d2 3d 37 0f 1e bc be ec a0 3d
       0.054385334 0.10272294 -0.009647182 0.07857655
0002b0 13 9a ba bd 28 da b5 bd 3c f3 18 3d 1c 52 a4 3d
       -0.091114186 -0.08879501 0.03734134 0.080234736
0002c0 04 8b 4e bd 0c 05 24 bd b1 1c 74 bd d7 4d 10 3c
       -0.050425544 -0.040043876 -0.059597675 0.008807621
0002d0 57 01 29 3d 41 70 87 bd 7d 51 9c 3d 8c 9d c4 3c
       0.041261043 -0.066132076 0.0763273 0.024000905
0002e0 eb 3e 58 bd c6 86 c6 3c f6 0f b5 3d 7d 54 b5 bd
       -0.05279438 0.024234187 0.08840935 -0.088540055
0002f0 0c ad 4f bd 18 da 09 3d 61 59 b9 3d 5e fa 9e bd
       -0.05070214 0.033655256 0.09050251 -0.077625975
000300 e0 ce 3d bd 50 eb 46 3d 5c 64 89 bc 7b 32 20 bd
       -0.04633987 0.048564255 -0.016771488 -0.039110642
000310 5c 92 84 3d d8 b4 25 3c fc 8b ad bd fd 76 d5 3c
       0.06473228 0.010113917 -0.084739655 0.026057715
000320 e5 f5 2e bc e3 c2 33 3d 19 60 ac 3b 7c 9b 86 bd
       -0.010678743 0.04388703 0.005260479 -0.06572625
000330 d8 bf 8a bd eb d0 8f bd c8 88 8c bc ed fd 4e 3d
       -0.067748725 -0.0702227 -0.017155066 0.05053513
000340 7b 16 1b 3c 77 84 c9 3c 3e 0c e7 ba 13 47 c3 bc
       0.009465809 0.024599297 -0.001762755 -0.023837602
000350 9a d5 3d bd a0 99 49 bb fb ca bb bd 8d 8b 32 bd
       -0.046346284 -0.0030761734 -0.09169575 -0.043590117
000360 5d 06 d8 bc 39 f3 43 bd f6 58 39 bc 53 5e 0c bd
       -0.026370222 -0.047839377 -0.011312714 -0.034269642
000370 21 58 d2 3c 2e 4c 89 bd 3a 95 18 3d e9 20 a5 3d
       0.025676789 -0.06703983 0.03725169 0.08062918
000380 f9 d7 a7 3c 39 72 37 bd ee 09 e5 bd 0a 8f ee bc
       0.020488726 -0.044786666 -0.111835346 -0.02912094
000390 e7 71 0c 3d 4c 35 b7 bd 23 ef fb bc 99 ac 03 3d
       0.034288313 -0.089457124 -0.030753678 0.032147024
0003a0 ea 79 8d 3d 17 de 9a bc 01 bb 49 3b a0 13 8c 3d
       0.06908019 -0.018904729 0.003078163 0.06839681
0003b0 38 db 90 3d d9 93 05 3d 19 e0 1e bd 9e 53 df bd
       0.07073063 0.0326117 -0.038787935 -0.109046206
0003c0 e5 32 0f 3d de 9c d4 3c 2f 96 df bd 2c 9f fc 3c
       0.034960646 0.025953706 -0.10917317 0.030837618
0003d0 55 e0 83 bd fb 72 90 bd 0b 4c 5e bd 1a c2 e2 3b
       -0.06439272 -0.07053181 -0.05427174 0.0069201114
0003e0 c1 15 38 bd f9 7b cd 3c cb 89 f8 bc 7a 24 04 bd
       -0.04494262 0.025083529 -0.030339142 -0.03226135
0003f0 d3 a9 fd 3c 34 4f 16 3d c2 6b 86 bd bc e2 85 3d
       0.030964768 0.036696628 -0.06563522 0.06537387

net.net.0.bias f4 [100]
000000 72 d0 8e 3e d1 83 af 3d e9 97 32 3e 15 c2 ed 3c
       0.27893406 0.08570064 0.17440762 0.02902321
000010 af f0 f8 3c 85 04 0b 3e e2 c7 f9 3d 05 f6 06 bd
       0.030388204 0.13575943 0.12196328 -0.032949466
000020 d6 94 77 bd 4c 91 c1 ba 43 0e 7b bd 85 2f 06 3d
       -0.060444675 -0.0014768033 -0.061292898 0.032760162
000030 0d ea 95 be 5e b4 44 3d 00 38 bc 3d 95 fb b7 3d
       -0.2928013 0.048023574 0.09190369 0.08983532
000040 72 94 ce 3d 2a 46 04 3e fe 5f e0 3d 4d 61 14 3e
       0.100869074 0.1291739 0.10955809 0.14490242
000050 4b e5 b0 bc 11 0c 5f 3d e4 30 29 bd dc 08 c6 3d
       -0.02159371 0.054454867 -0.04130639 0.096696585
000060 a5 0c 29 be 05 a6 c5 bd 4f df e0 3a a0 30 46 3e
       -0.1650873 -0.09650806 0.0017156395 0.19354486
000070 39 ee 02 bd 93 7c 02 3e 32 ce 97 be 8d 48 5c 3c
       -0.031965468 0.12742834 -0.29649502 0.013445032
000080 10 f2 ad 3e 34 84 fb bb 3d 60 72 bc 9f 21 8c 3e
       0.33973742 -0.007675672 -0.014793453 0.273694
000090 ae 6f 2d 3e 55 c3 9c be 13 d1 72 3d 88 92 25 bd
       0.16937134 -0.30617777 0.05928142 -0.040422946
0000a0 6d 54 41 3c fa 03 91 bd cb b3 1b 3d f2 85 ea bd
       0.011799914 -0.070808366 0.03801326 -0.11451329
0000b0 ae 6e 94 3d a6 ca f7 3d b8 a9 17 3d 61 25 35 3d
       0.07247673 0.12099199 0.03702709 0.0442251
0000c0 6e 27 58 3e 9c 64 54 3d fa 65 12 be 66 ca f8 bb
       0.21108791 0.05185376 -0.14296713 -0.007592487
0000d0 0b da 1e bd 11 32 fc 3d 3d 8a 69 bc d8 2b 26 3e
       -0.03878216 0.12314237 -0.01425415 0.16227663
0000e0 7f 91 f4 3d a3 26 ec 3d df bb 88 3d 77 c4 c5 bb
       0.11941814 0.11530807 0.066764586 -0.0060353833
0000f0 ad 33 98 bd c3 0a 12 bd 45 3d a1 3d 5d 86 e9 3d
       -0.074317314 -0.035654794 0.07873014 0.11402581
000100 0f 22 87 bd 09 03 74 3d 4f e6 b2 bd 2b 5f cb 3d
       -0.06598293 0.059573207 -0.08735334 0.09930261
000110 41 6c 02 3c 65 16 91 bc 69 97 da 3c a1 54 3d bd
       0.00796038 -0.017710874 0.026683526 -0.046223287
000120 c2 b9 85 3d 5f ab 70 3d b9 6b d7 bd 5b 4a 59 3e
       0.06529571 0.058757182 -0.10518593 0.2121977
000130 59 07 b4 3e 4e d9 71 3e a3 e6 f8 3d b5 c0 58 bd
       0.35161856 0.23618051 0.121533655 -0.052918155
000140 2f 71 13 3d f4 8e 14 bd d6 02 83 be 7a d0 8e bd
       0.035996612 -0.036269143 -0.255881 -0.069733575
000150 3e ad 72 3d 53 f1 26 bd 57 99 96 3d 39 36 bb be
       0.059247248 -0.04075749 0.07353466 -0.36564806
000160 d3 fa 2e 3e 18 70 1d 3e f0 f5 92 3e be b0 ab 3c
       0.1708787 0.15374792 0.2870326 0.0209583
000170 c0 98 31 3e b8 11 f2 3d b4 dd c7 3d 36 2b ae 3d
       0.17343426 0.11819786 0.097590834 0.085043356
000180 c2 bb 95 3d 54 57 bc 3d c1 84 00 3e 8a f3 09 3d
       0.073112026 0.09196344 0.12550642 0.033679523

net.net.2.weight f4 [100, 100]
000000 d2 d4 33 bd 8d 88 14 3e bc 3e 3b be 5c fb 08 3e
       -0.043904133 0.14505215 -0.1828565 0.13377136
000010 17 70 d5 bb 32 fd 9e 3d 5b cf ce bd 2d 3b cf bb
       -0.0065136063 0.07763137 -0.10098144 -0.006324193
000020 cf 00 54 3c 64 98 78 3d 4b 11 c5 3c 5a 84 3f be
       0.012939646 0.060692206 0.024056097 -0.18702832
000030 16 ea 3e be 06 d2 0a 3e 7b 3d b4 3c ba 6f e1 3d
       -0.18643984 0.1355668 0.022001972 0.11007638
000040 92 db da 3a 56 30 31 3d a8 ca c9 38 0b 42 ad bd
       0.0016697517 0.043258987 9.6221745e-05 -0.08459862
000050 f0 7a 9e bd cc 1b c9 3d 7e 4b 98 bd 2c 83 3c be
       -0.07738292 0.09819755 -0.07436274 -0.18409413
000060 53 0b 37 be 1a 52 b8 3d 57 64 18 be 59 f1 66 3d
       -0.17875414 0.09000035 -0.14882027 0.05638251
000070 0f e8 14 be ad ca e3 bd 55 33 db 3d 0b 32 23 be
       -0.14541648 -0.11122642 0.1070315 -0.15937059
000080 f9 11 4c bd ed 5b 10 be ce 05 e4 3d f4 7a 4c 3b
       -0.049821828 -0.14097567 0.1113392 0.0031201215
000090 c4 11 12 3d 45 b8 0e 3b af da 46 be 5a c8 86 bd
       0.035661474 0.0021777314 -0.19419359 -0.06581183
0000a0 a6 e3 66 3e b2 52 0a be fe 1e 24 be 42 1c fc bd
       0.22547778 -0.13508108 -0.16027448 -0.12310077
0000b0 ab c1 79 bd 87 19 23 be ec 3c 99 bd 4c c9 b9 3d
       -0.06097571 -0.15927707 -0.07482323 0.090715975
0000c0 fd 90 05 bd a9 4b 02 3e e8 d5 06 be 8e 50 20 3d
       -0.032608975 0.12724175 -0.13167536 0.039139323
0000d0 49 ae 1d bc f2 55 07 be b8 56 13 be 37 45 37 bc
       -0.009624072 -0.1321638 -0.1438855 -0.011185936
0000e0 4a f2 63 bc 41 40 c9 3c b4 b0 ef bd 3f fc 8b bd
       -0.013912747 0.024566771 -0.11703625 -0.068352215
0000f0 73 6a cb 3d 76 47 11 3e 6a 68 83 bd af ca 9e 3d
       0.09932413 0.14187416 -0.064164 0.077535026
000100 44 aa ea bd d9 2a da 3d ca 36 17 be 58 67 07 3c
       -0.11458257 0.10652704 -0.14766994 0.008264385
000110 24 75 2b be 93 50 89 3d 2d d7 92 bd 02 1a 45 bd
       -0.16743904 0.067048214 -0.07169948 -0.048120506
000120 e7 78 00 3e f0 4e 0a 3d c8 ce d0 bd 9d c8 1a be
       0.1254612 0.033766687 -0.101956904 -0.1511559
000130 7e a4 58 3e 8f a2 d0 3d 79 bf b4 3b 3b 94 00 3e
       0.21156499 0.101872556 0.0055159894 0.12556545
000140 28 ad f4 3d 31 42 0f 3d 2f c5 68 be eb 98 c8 bd
       0.119470894 0.034975234 -0.2273147 -0.09794792
000150 cc ab 07 3d 77 3b 7d bd 2b 01 ff bd f3 eb 9e bd
       0.033122823 -0.06182429 -0.12451395 -0.077598475
000160 a8 27 33 be 33 00 d6 3d 8b 32 31 3e 42 d5 3b bd
       -0.17495596 0.10449257 0.17304437 -0.045857675
000170 78 02 ec 3d e4 b0 25 be 3e 09 c7 3d 79 87 10 be
       0.115239084 -0.1618076 0.0971856 -0.14114179
000180 3b 41 55 3c 5a cc 09 be 26 bb f1 3c fc 5d d1 3d
       0.01301604 -0.1345686 0.029508185 0.10223004
000190 45 f1 1b 3c e5 da d4 bd ec 1f f3 bd 31 71 55 3e
       0.009517972 -0.10393313 -0.11871323 0.2084396
0001a0 1c f0 d1 3c c1 d8 3b bd ff 4f 7c bc 7e 69 7a 3d
       0.025627188 -0.04586101 -0.015399932 0.06113576
0001b0 6f 96 94 3d 4b 93 12 3e b5 48 d6 3d 8d 35 88 3d
       0.072552554 0.14314 0.104630865 0.06650839
0001c0 64 56 bf bd 8b e0 c3 3d 47 00 b6 bd 09 79 43 bd
       -0.093426496 0.095643125 -0.08886772 -0.04772285
0001d0 02 3c 00 3e 98 7c 12 3e f9 28 1a be 07 31 5e bc
       0.12522891 0.14305341 -0.15054692 -0.013561494
0001e0 35 d3 12 3e b2 7c 43 3e dc c0 a6 bd 1a c7 b1 3d
       0.14338382 0.19090536 -0.08142254 0.08680554
0001f0 cd 1e 51 3c 35 cc 0d 3e 64 da bd 3c 3e fa 1d be
       0.012763691 0.1384743 0.023175426 -0.15427491
000200 63 2a fb bd 98 ab 19 be 11 55 90 3d 05 89 07 3d
       -0.12263944 -0.15006864 0.07047475 0.033089656
000210 96 06 d3 3d eb f7 8e bc e6 0f 28 be bb 63 3c be
       0.103039905 -0.0174522 -0.16412315 -0.18397419
000220 4e ac 3f 3e 8e 86 7c 3e 40 3c 75 3e 97 39 41 bc
       0.18718073 0.24660704 0.23948765 -0.011793516
000230 8c f9 ec bd 59 6a 29 3d ac 78 12 3e 7e 8b 39 3e
       -0.11571035 0.041361187 0.14303845 0.18119618
000240 21 64 2e bd bb ad dc bd 06 b3 06 be 0a 0b e2 bc
       -0.04257596 -0.10775324 -0.1315423 -0.027593154
000250 88 6c 7b be 24 fe 26 be 70 8c ed 3c c0 78 60 3d
       -0.2455312 -0.16307884 0.02899763 0.054802656
000260 52 87 86 bd 14 a0 22 3e b3 06 a5 bd 18 27 6b 3d
       -0.06568779 0.15881377 -0.080579184 0.05741033
000270 58 eb 7a bc dd 8d 65 3d 8b 23 9b 3c 9e a0 f2 3d
       -0.015314899 0.056043494 0.018937847 0.118470415
000280 93 27 0d be fd f7 00 be aa b9 c1 3d b7 4f d6 bd
       -0.13784628 -0.125946 0.09459241 -0.10464423
000290 a6 7a bd bd 83 b8 90 bd 4a 9e 48 3e a1 6a 4f 3d
       -0.09251909 -0.07066443 0.19591632 0.0506388
0002a0 b4 8c 99 bd 9f 7b c1 bd e3 e2 db 3d cd 21 83 bc
       -0.0749754 -0.09447407 0.107366346 -0.016007328
0002b0 ff c7 fc 3d 52 f1 15 3e bd d4 17 3e 8d ba 32 bd
       0.12342834 0.14642838 0.14827247 -0.04363494
0002c0 a3 48 4b be 92 6f cf bd a8 3f 23 3e c7 f9 84 bd
       -0.19851927 -0.10128702 0.15942252 -0.06492954
0002d0 98 fb d9 3d 33 e5 97 3d c4 87 22 3d 2d 03 4d bc
       0.10643691 0.07416763 0.039680257 -0.012512964
0002e0 16 76 a5 3c 15 d3 7b bd 08 d3 c4 bd 7a 2a 4b bc
       0.02019791 -0.0614806 -0.096105635 -0.012400264
0002f0 c9 ab ba bd e1 10 bf bd 20 8e 87 bd af ac 0f bb
       -0.09114797 -0.09329391 -0.06618905 -0.0021922996
000300 81 5e 9a bd a7 61 be 3d d7 77 46 be b6 c1 33 3e
       -0.075375564 0.092959695 -0.19381653 0.17554364
000310 3c f0 08 3c bb d7 db 3c ae bb 23 3e 7b f4 84 3d
       0.008358058 0.026836267 0.15989563 0.064919434
000320 79 23 29 3e cd f9 27 3e 0d 48 af bc db 34 5a 3e
       0.16517438 0.16403885 -0.021396661 0.21309225
000330 48 13 07 3e be 07 4d 3c 27 8c 9d bc cd d8 5c 3d
       0.13190949 0.012514053 -0.019231869 0.053917695
000340 af 0e 44 3e d5 3f 86 3d ec 5a 2b be aa 7c 89 3c
       0.19146226 0.06555144 -0.16733903 0.016783077
000350 da 68 79 be 2e b0 95 3c e8 6f 1a be 9d 30 fa 3c
       -0.24356404 0.018272486 -0.15081751 0.030540759
000360 8a 02 e8 3d 78 8b 3c 3e 17 63 45 3a 17 2d 84 3d
       0.11328609 0.18412578 0.0007529719 0.06453913
000370 bf 45 28 be 42 5d c2 3d f2 a6 51 bd cf 4d d2 bd
       -0.16432856 0.09490444 -0.051184602 -0.10268747
000380 74 96 cd bd 7a 01 7b be c0 db 20 3e 02 eb 37 3d
       -0.10038462 -0.24512282 0.15708828 0.044901855
000390 6c a2 bf bc 16 e0 2a be f2 4c 8e 3d e5 d4 bb bd
       -0.023392878 -0.16687045 0.0694827 -0.09171466
0003a0 c6 85 84 bd c8 48 15 3e 14 76 9d 3d 25 55 6b bd
       -0.06470828 0.14578545 0.07688537 -0.057454247
0003b0 09 88 4a 3e 3a 2e 65 3c 26 b5 a4 3d 5b 59 0a 3d
       0.19778456 0.013988072 0.08042364 0.033776622
0003c0 47 b0 d9 bd 6f ea 0a 3e 5a 88 9c 3d 2e 9f 4a bd
       -0.10629325 0.13565992 0.076431945 -0.04946821
0003d0 72 27 42 be 66 98 39 3e 11 c3 b5 bb 90 34 12 3e
       -0.1896036 0.18124542 -0.0055469354 0.14277864
0003e0 26 a2 07 be c9 53 0e b8 b6 0f cf 3c 78 eb 31 3e
       -0.13245448 -3.393347e-05 0.025276046 0.1737498
0003f0 70 7d 73 3d 5a b4 ae bc 29 21 d7 3d ea ed 3e be
       0.0594458 -0.021326233 0.10504372 -0.18645445

net.net.2.bias f4 [100]
000000 1e 2c 8b 3e 62 e4 5b 3d 3c 22 96 3e d2 60 d3 bc
       0.27182096 0.0536846 0.29322994 -0.025803003
000010 70 6b 52 3d 90 0f 49 3e 9d 62 67 3e 57 0f 81 bc
       0.05137199 0.19634843 0.22596212 -0.015754385
000020 30 1f 4b bc 98 05 85 3d 57 c4 88 3e df 91 85 bd
       -0.012397572 0.064952075 0.26712295 -0.06521963
000030 b2 66 fd bc 68 98 05 3c c7 4f a3 3e 42 e7 62 3d
       -0.030932758 0.008154012 0.31896803 0.055396326
000040 86 0c b4 3d 73 28 86 3d df 4b be 3e 60 09 fd 3d
       0.08791451 0.06550684 0.3716726 0.12355304
000050 df b6 c1 bd c7 21 a5 3e 4d 5d 94 bc fd 4c 25 3e
       -0.09458708 0.32252333 -0.018110896 0.1614265
000060 b3 a6 90 3e ca 40 83 3e 8d 42 de 3e cc 97 36 3e
       0.2825218 0.25635368 0.4341015 0.17831343
000070 a8 38 3d 3e 40 df e1 3e 84 cf 38 bd f8 db fc 3e
       0.18478644 0.4411564 -0.045119777 0.49386573
000080 84 4c 95 be fd ec 04 3d 60 68 f3 3e 93 31 75 bc
       -0.2915994 0.032452572 0.4754057 -0.014965433
000090 aa 06 dc 3e 46 cb 8d bc fc 34 82 3c 1d 97 13 bc
       0.42973834 -0.017308842 0.015894406 -0.009008196
0000a0 64 08 17 bb 25 89 ad 3e 0a d9 d0 bd 7e 49 1f 3f
       -0.0023045773 0.33893695 -0.10197647 0.62221515
0000b0 5d e9 52 3f 3c 02 85 3e 08 c7 7b 3d 7a 24 73 bd
       0.82387334 0.25978267 0.061469108 -0.05936096
0000c0 cc 45 a8 3e 8f e6 d2 3e 7b 34 da 3d 5b 84 9e bd
       0.3286575 0.41191527 0.10654541 -0.077400886
0000d0 17 e6 d3 bc ba 14 63 3e fc 09 80 3e 07 ca c4 3e
       -0.025866551 0.22175875 0.25007617 0.38435385
0000e0 44 b5 fa 3d 7d 34 fb 3d 30 1b 5d 3e dc 9c fa 3b
       0.12241605 0.12265871 0.21592402 0.0076480936
0000f0 59 18 04 3d 26 47 c9 3d 28 91 40 3e c5 a9 a9 3e
       0.032249782 0.098280236 0.18805373 0.33137336
000100 7f 81 72 3e af e5 f4 3e ce 9e 3c bd 1e 46 ea 3e
       0.23682211 0.47831485 -0.046049885 0.4575662
000110 0a 32 b2 3d a7 16 7c 3e 23 27 00 be f9 9b bf 3e
       0.087009504 0.24618016 -0.1251493 0.37423685
000120 f0 dc 9f 3e c5 84 57 bc a7 1f ba 3e d9 0e 1d 3e
       0.3122325 -0.013154213 0.36352274 0.15337695
000130 e3 12 95 3e 13 0f ba 3e e7 be cb 3e 4d 0e 8f 3e
       0.29115972 0.36339626 0.39794084 0.27940598
000140 2c 9f 79 3e 39 72 cb 3e 69 19 1c 3e 10 35 e3 bd
       0.24377126 0.39735582 0.15244068 -0.11094105
000150 4f c7 3a bc 54 6b 1f 3f 6b 8d 46 3c 85 e6 66 3e
       -0.011400058 0.62273145 0.012118678 0.22548874
000160 33 eb 4e bd 45 25 b1 bc cf 7e a7 3e b1 98 23 bd
       -0.050517272 -0.021624217 0.32713935 -0.03994054
000170 4d c2 29 3d 40 59 06 3e 41 dd 29 3e cf 5f d3 3d
       0.041445065 0.13119984 0.16588308 0.103210084
000180 bf ed 88 bd b3 4b 91 3d 12 ac 0e 3c 6b 18 e4 3e
       -0.066859715 0.070945166 0.008708017 0.4454988

net.net.4.weight f4 [10, 100]
000000 26 86 92 be 47 a5 e3 3d 20 b0 45 be ca 16 ce bd
       -0.28617972 0.111155085 -0.19305468 -0.100629404
000010 2b b6 46 be a0 a9 8a 3e 1e a3 97 3e b4 cc 73 3d
       -0.19405429 0.2708254 0.29616636 0.059521392
000020 70 04 85 3e 38 95 e2 bd ea 95 36 3e a3 e0 39 be
       0.25979948 -0.110636175 0.17830625 -0.18152098
000030 d9 85 68 bd 83 c9 2b 3e 0c dd 45 3e 2c 6f 4b ba
       -0.056768272 0.1677609 0.19322604 -0.00077604013
000040 6d 44 be 3d b9 7c 11 3e a2 b6 19 3c 79 ed 79 be
       0.09290395 0.14207734 0.009381922 -0.24406995
000050 53 ce 8c be fd 2f dd 3d 48 ea 4f bc ea e1 9c 3c
       -0.27501163 0.10800169 -0.012690134 0.019150693
000060 7d cb 90 3e 04 d1 10 3c ed 81 a8 bd ab 5a dd 3c
       0.2828025 0.008838896 -0.082279064 0.027020773
000070 e5 76 37 be bf b5 91 be c0 63 fa 3d 62 42 93 bd
       -0.17916448 -0.28458974 0.12226057 -0.07190396
000080 32 94 1b be 6a e6 47 bd d8 7b 8a 3d a9 cf ba 3d
       -0.15193251 -0.048803724 0.067619026 0.09121639
000090 97 ef 3b 3e 88 d4 3f be c3 de 18 bc 8e 8b 2e 3e
       0.18353115 -0.18733418 -0.009330454 0.17045423
0000a0 ac b2 44 bd 7c 92 69 be af 50 87 be 1e 1e 65 bd
       -0.048021957 -0.22809786 -0.26428744 -0.055936925
0000b0 a7 08 eb 3e 7f 5d 08 be ee 6f 0e be 1b 4e 4e be
       0.4590504 -0.13316916 -0.13909885 -0.20146982
0000c0 97 8f 0d 3e c8 b7 5f be 75 4f 9e be 8b 53 04 bc
       0.13824306 -0.2184745 -0.30919996 -0.008076559
0000d0 38 55 83 be 47 68 a7 bc 8f 0e 0e bd 26 8b d0 3e
       -0.25650954 -0.020435465 -0.034681853 0.40731162
0000e0 71 f6 5e 3d 08 65 5a be ad 9b 18 be 89 01 e9 bd
       0.054434244 -0.21327603 -0.14903136 -0.11377246
0000f0 c6 c8 4e 3e 71 40 1b be d9 ff ec 3d d4 1e 3c 3e
       0.20193776 -0.15161301 0.115722366 0.18371135
000100 12 15 a9 bd 12 9b 4c 3e 7e 63 82 be c6 49 74 3d
       -0.08255972 0.1998103 -0.25466532 0.05964067
000110 b2 ef 33 3c 96 0b 64 be 63 27 f1 bd 6b 2f 60 bd
       0.010982441 -0.22270045 -0.117750905 -0.05473272
000120 dc 69 20 3e e6 a5 25 3e a8 cc 0c be 5d 9b 32 3d
       0.15665382 0.16176566 -0.13749945 0.043605197
000130 8d c8 ca 3e 69 5f 63 be 77 81 21 be ab 7a cd 3d
       0.39606133 -0.22204365 -0.15772043 0.10033163
000140 cb fd ff 3d 46 82 b4 3d fc 40 b5 3e 47 37 4c bb
       0.12499579 0.0881391 0.35401142 -0.0031160878
000150 cb 94 00 be 72 fb ad 3e 0e 2c d1 3d eb 7d 92 be
       -0.1255676 0.339809 0.10213481 -0.28611693
000160 69 93 45 3e 6d 92 a2 3b ed 4c c3 3d 20 6a 2a be
       0.19294514 0.004961303 0.09536157 -0.16642046
000170 04 ce d7 3d 46 2d c2 3d d5 2d 97 be 6a fa e6 be
       0.10537341 0.094812915 -0.29527155 -0.45112926
000180 29 8e 2a 3d a1 76 b4 be 0b 03 8f 3d ce 60 99 be
       0.04163948 -0.35246757 0.06983002 -0.2995667
000190 71 e3 bb bd dc 39 9c 3e 0c 61 fd 3e 7e a5 c8 bd
       -0.091742404 0.30512893 0.49488103 -0.0979719
0001a0 0d 32 0b be 23 49 8f 3e 1c c9 cd be 07 fe c9 bc
       -0.13593312 0.27985486 -0.40192497 -0.024657262
0001b0 b1 42 e6 be 47 1b 43 3e 77 8c f2 bc 53 65 30 bd
       -0.44972757 0.19053374 -0.029607994 -0.04306538
0001c0 09 eb 16 be 99 63 5d be 45 76 78 3c 82 aa c2 bd
       -0.14738096 -0.21620025 0.015164916 -0.09505178
0001d0 dd 08 1e be 9c 08 0a 3e af 38 53 3f 5f 82 b1 bd
       -0.15433069 0.13479847 0.8250837 -0.086674444
0001e0 2a 03 7c be fc 9e 4d 3d 99 7d ea 3d 75 a9 e1 3e
       -0.24610582 0.050200447 0.11449737 0.44074598
0001f0 f9 17 4a be 54 e5 67 3d 95 f8 2b 3e 71 cb 72 3e
       -0.19735707 0.05661519 0.16794045 0.23710419
000200 b3 5f 1d 3d e9 d5 62 3e 5a 16 d8 bc 61 98 64 be
       0.038421344 0.22151913 -0.026377846 -0.22323753
000210 46 c9 39 be 5b e1 b7 3d c6 3e 4a be 3a 27 cf bd
       -0.18143186 0.0897853 -0.19750509 -0.10114904
000220 2f 80 77 be dd c6 48 be ad 85 bf bd 07 bb e8 3d
       -0.24169992 -0.1960711 -0.093516685 0.11363798
000230 b7 02 61 be 4e a1 b6 be 75 dd 69 be 89 2e 76 be
       -0.21973692 -0.3566994 -0.22838385 -0.24041189
000240 dd f4 88 3e d3 d7 5b 3e 41 1a 1f 3e d9 1d af be
       0.26749316 0.21469049 0.15537359 -0.3420246
000250 92 86 12 3d 23 da 8a 3e 14 74 98 be 2e 9b a9 bc
       0.035772868 0.2711955 -0.2977606 -0.020703878
000260 cd 7d 9a be 6b d0 5a be 44 5c a6 3e d9 b4 23 3d
       -0.30174103 -0.21368568 0.32492268 0.03996739
000270 52 83 86 be 81 29 48 bc 16 df df 3d 00 24 4b be
       -0.26272064 -0.012216927 0.10931222 -0.19837952
000280 19 e3 6c 3e 32 b1 5a be a8 95 4a be 61 83 9f 3e
       0.23133506 -0.21356657 -0.19783652 0.31154922
000290 b4 2e 0e 3e a3 b8 6e be ba 49 8f bd a2 67 84 bc
       0.13885003 -0.23312621 -0.06996484 -0.016162697
0002a0 d4 3c 5b be f3 2d e7 3e e2 a7 54 3d 53 9f ab 3d
       -0.21409923 0.45152244 0.051917918 0.08379998
0002b0 fe a0 ff bd f6 cf 8e 3d f9 4c 29 bd 7f 6e 8d 3d
       -0.12481879 0.06973259 -0.041333172 0.06905841
0002c0 a4 02 ac be ef 4c fb 3e 82 a8 e5 3e 1e b9 76 bd
       -0.33595765 0.49082133 0.44855124 -0.060235135
0002d0 3c 5a ed 3d e9 be a9 be 16 b2 a8 bd f7 a8 58 be
       0.115894765 -0.33153465 -0.08237092 -0.21158205
0002e0 02 a1 89 bc 61 cf ff 3d 06 8e 6c 3d c2 3e d1 be
       -0.016800407 0.12490726 0.05775263 -0.40868193
0002f0 74 f8 8e be a2 af 6a be db 4c 33 3d 4d 0a 63 3b
       -0.2792393 -0.22918561 0.043774467 0.003464359
000300 17 55 c1 3e 8e 49 4a 3e 33 d7 13 3e 56 31 5d be
       0.3776023 0.19754621 0.1443756 -0.21600851
000310 4d b2 9c bd 4d 5c 3f 3e 32 ae 34 be 9a 59 b4 be
       -0.07651196 0.18687554 -0.17644575 -0.3522461
000320 73 c9 06 be 56 ab d9 3b 19 be f4 bd 11 e6 a7 3d
       -0.13162784 0.0066427393 -0.11950321 0.081981786
000330 f2 ad f6 be e9 76 97 bd 31 86 45 3d 2a 03 16 3d
       -0.48179585 -0.07395727 0.048223678 0.03662411
000340 24 fd a8 3d 32 65 6d bc d7 78 52 3e de f8 a9 bc
       0.08251408 -0.014489459 0.20553909 -0.020748552
000350 7e 64 eb bd ef 10 f9 bd 1c 5a 6b 3e 61 32 ca 3d
       -0.11493777 -0.12161433 0.22983593 0.0987289
000360 01 75 ba 3e 21 9b e4 3d 86 2d 60 be 31 39 cf 3d
       0.36417392 0.11162401 -0.21892366 0.1011833
000370 6a fa c9 3d 4e ce 37 be 15 6f 63 bd fb 9e d9 3c
       0.09862216 -0.17949793 -0.055525858 0.026565066
000380 6f 11 31 3e fa e5 49 3e 7d 95 ce be 96 7a ae bd
       0.17291807 0.19716635 -0.40348426 -0.08519475
000390 bd dc 59 be b4 a4 24 be 77 0d 66 be 64 a7 5f be
       -0.21275611 -0.16078454 -0.22466074 -0.21841198
0003a0 34 12 a7 bd 7f 6a ee bd 4f 3b d5 3d 53 71 c8 bd
       -0.08157769 -0.11641406 0.10411703 -0.0978724
0003b0 db 43 43 be 29 84 b7 bd 25 88 e3 bd c7 c3 b8 3d
       -0.19068854 -0.089607544 -0.11109952 0.090217166
0003c0 b6 ee 43 bd d8 77 2b be e3 91 35 3c 83 d9 5f 3a
       -0.047835074 -0.16744936 0.011082145 0.00085391867
0003d0 26 fe 00 bf e3 1b 38 3f 72 39 8a 3d 31 b8 2e be
       -0.503878 0.7191755 0.06749238 -0.17062451
0003e0 5c fc cb bd 0f 32 30 3e a0 8a 9e bc 14 44 35 3e
       -0.09960243 0.17206596 -0.01935321 0.17701751
0003f0 82 43 a6 bd e3 d7 2a be d8 50 36 3e 41 34 1c be
       -0.08118345 -0.16683917 0.17804277 -0.15254308

net.net.4.bias f4 [10]
000000 b2 82 3b 3e a6 dc 59 3e 9b a9 37 3e ce 0f f3 3c
       0.18311575 0.21275577 0.17935793 0.029670622
000010 26 03 44 bf df 4d e9 3e eb fa 3c 3f b6 1f 7e 3e
       -0.76567304 0.45567223 0.7382037 0.24816784
000020 06 2e 21 bf 2f d3 26 bf
       -0.6296085 -0.6516599
