continual learning/ModTest2/results/gem_GMod2Cov_nv_0.0_False_5_fashion_mnist_permutations_reduced.pt_2021_08_13_16_30_25_d9c51faf28a7482a83fb587836ca7412.pt (torch, 368925 bytes, 8 tensors)

tensor f4 [101]
000000 00 00 00 00 00 00 00 00 00 00 00 00 00 00 00 00
       0.0 0.0 0.0 0.0
000010 00 00 00 00 00 00 00 00 00 00 00 00 00 00 00 00
       0.0 0.0 0.0 0.0
000020 00 00 00 00 00 00 00 00 00 00 00 00 00 00 80 3f
       0.0 0.0 0.0 1.0
000030 00 00 80 3f 00 00 80 3f 00 00 80 3f 00 00 80 3f
       1.0 1.0 1.0 1.0
000040 00 00 80 3f 00 00 80 3f 00 00 80 3f 00 00 80 3f
       1.0 1.0 1.0 1.0
000050 00 00 80 3f 00 00 00 40 00 00 00 40 00 00 00 40
       1.0 2.0 2.0 2.0
000060 00 00 00 40 00 00 00 40 00 00 00 40 00 00 00 40
       2.0 2.0 2.0 2.0
000070 00 00 00 40 00 00 00 40 00 00 00 40 00 00 40 40
       2.0 2.0 2.0 3.0
000080 00 00 40 40 00 00 40 40 00 00 40 40 00 00 40 40
       3.0 3.0 3.0 3.0
000090 00 00 40 40 00 00 40 40 00 00 40 40 00 00 40 40
       3.0 3.0 3.0 3.0
0000a0 00 00 40 40 00 00 80 40 00 00 80 40 00 00 80 40
       3.0 4.0 4.0 4.0
0000b0 00 00 80 40 00 00 80 40 00 00 80 40 00 00 80 40
       4.0 4.0 4.0 4.0
0000c0 00 00 80 40 00 00 80 40 00 00 80 40 00 00 a0 40
       4.0 4.0 4.0 5.0
0000d0 00 00 a0 40 00 00 a0 40 00 00 a0 40 00 00 a0 40
       5.0 5.0 5.0 5.0
0000e0 00 00 a0 40 00 00 a0 40 00 00 a0 40 00 00 a0 40
       5.0 5.0 5.0 5.0
0000f0 00 00 a0 40 00 00 c0 40 00 00 c0 40 00 00 c0 40
       5.0 6.0 6.0 6.0
000100 00 00 c0 40 00 00 c0 40 00 00 c0 40 00 00 c0 40
       6.0 6.0 6.0 6.0
000110 00 00 c0 40 00 00 c0 40 00 00 c0 40 00 00 e0 40
       6.0 6.0 6.0 7.0
000120 00 00 e0 40 00 00 e0 40 00 00 e0 40 00 00 e0 40
       7.0 7.0 7.0 7.0
000130 00 00 e0 40 00 00 e0 40 00 00 e0 40 00 00 e0 40
       7.0 7.0 7.0 7.0
000140 00 00 e0 40 00 00 00 41 00 00 00 41 00 00 00 41
       7.0 8.0 8.0 8.0
000150 00 00 00 41 00 00 00 41 00 00 00 41 00 00 00 41
       8.0 8.0 8.0 8.0
000160 00 00 00 41 00 00 00 41 00 00 00 41 00 00 10 41
       8.0 8.0 8.0 9.0
000170 00 00 10 41 00 00 10 41 00 00 10 41 00 00 10 41
       9.0 9.0 9.0 9.0
000180 00 00 10 41 00 00 10 41 00 00 10 41 00 00 10 41
       9.0 9.0 9.0 9.0
000190 00 00 10 41
       9.0

tensor f4 [101, 10]
000000 f6 97 5d 3d a0 89 30 3d ac 1c da 3d 0a 68 a2 3d
       0.0541 0.0431 0.1065 0.0793
000010 44 8b ec 3d cd cc cc 3d fb 5c ed 3d c0 ec 9e 3d
       0.1155 0.1 0.1159 0.0776
000020 71 3d 0a 3e 81 26 c2 3d 94 f6 c6 3e 17 b7 d1 3d
       0.135 0.0948 0.3886 0.1024
000030 16 6a cd 3d ab 3e d7 3d ba da 0a 3e 79 e9 26 3e
       0.1003 0.1051 0.1356 0.163
000040 ba 6b 09 3e bc 74 93 3d 98 dd 53 3e ee eb 00 3e
       0.1342 0.072 0.2069 0.1259
000050 1e a7 08 3f 3b df cf 3d 60 e5 d0 3d 84 0d cf 3d
       0.5338 0.1015 0.102 0.1011
000060 3c bd d2 3d 61 32 15 3e 6c 09 f9 3d 3a 92 cb 3d
       0.1029 0.1457 0.1216 0.0994
000070 bc 74 13 3e f3 8e d3 3d 72 f9 0f 3f 8b fd e5 3d
       0.144 0.1033 0.5624 0.1123
000080 f9 0f e9 3d ac 1c da 3d 10 58 b9 3d 52 b8 1e 3e
       0.1138 0.1065 0.0905 0.155
000090 88 85 1a 3e cc 7f c8 3d b6 84 fc 3d e0 be 0e 3e
       0.1509 0.0979 0.1233 0.1394
0000a0 0f 0b 15 3f 4d f3 0e 3e a5 4e c0 3d d5 09 e8 3d
       0.5822 0.1396 0.0939 0.1133
0000b0 49 9d 80 3d 3c 4e 51 3e f5 4a 19 3e 63 7f d9 3d
       0.0628 0.2044 0.1497 0.1062
0000c0 a8 c6 0b 3e 8f e4 f2 3d 46 b6 23 3f 5e 4b 08 3e
       0.1365 0.1186 0.6395 0.1331
0000d0 a2 45 b6 3d 6e a3 01 3e 68 22 ec 3d 31 99 2a 3e
       0.089 0.1266 0.1153 0.1666
0000e0 e2 58 17 3e 45 d8 f0 3d 6b 9a 37 3e cb a1 05 3e
       0.1478 0.1176 0.1793 0.1305
0000f0 59 86 08 3f 44 69 ef 3d 57 ec af 3d aa 82 11 3e
       0.5333 0.1169 0.0859 0.1421
000100 d7 a3 f0 3d 83 c0 0a 3e f2 d2 0d 3e 6f f0 85 3d
       0.1175 0.1355 0.1385 0.0654
000110 13 f2 01 3e 2d b2 1d 3e d7 a3 20 3f 8f e4 f2 3d
       0.1269 0.154 0.6275 0.1186
000120 8e 06 f0 3d fd 87 f4 3d be 9f 9a 3d e3 a5 1b 3e
       0.1172 0.1194 0.0755 0.152
000130 86 5a 13 3e 5d fe c3 3d a6 9b 04 3e 8e 75 f1 3d
       0.1439 0.0957 0.1295 0.1179
000140 2d 21 1f 3f 3f 57 db 3d d0 d5 d6 3d 3a 92 0b 3e
       0.6216 0.1071 0.1049 0.1363
000150 cd 3b 0e 3e 15 1d 49 3e 78 7a 25 3e aa f1 d2 3d
       0.1389 0.1964 0.1616 0.103
000160 df e0 0b 3e e0 be 0e 3e aa 82 21 3f e6 ae 25 3e
       0.1366 0.1394 0.6309 0.1618
000170 d6 56 ec 3d 8a b0 e1 3d bd 52 96 3d 08 3d 1b 3e
       0.1154 0.1102 0.0734 0.1516
000180 2d 21 1f 3e 17 b7 d1 3d ac 1c 1a 3e ae d8 df 3d
       0.1554 0.1024 0.1505 0.1093
000190 02 bc 15 3f 14 3f 06 3e d6 c5 ed 3d af 25 e4 3d
       0.5849 0.1311 0.1161 0.1114
0001a0 19 73 d7 3d e9 48 2e 3e 3e e8 19 3e 25 06 01 3e
       0.1052 0.1702 0.1503 0.126
0001b0 dd 24 46 3e aa 60 14 3e a1 d6 14 3f f2 41 ef 3e
       0.1935 0.1449 0.5814 0.4673
0001c0 f6 28 1c 3e cb 10 07 3e cb 10 c7 3d 87 a7 17 3e
       0.1525 0.1319 0.0972 0.1481
0001d0 22 fd 36 3e 60 e5 10 3e e7 1d 27 3e dc 68 00 3e
       0.1787 0.1415 0.1632 0.1254
0001e0 b1 e1 19 3f d3 de 20 3f 37 89 01 3e 02 2b 07 3e
       0.6011 0.6284 0.1265 0.132
0001f0 3c bd 12 3e d0 b3 19 3e e9 48 2e 3e db f9 fe 3d
       0.1433 0.1501 0.1702 0.1245
000200 f7 75 20 3e 9c 33 22 3e 6f f0 05 3f c2 86 17 3f
       0.1567 0.1584 0.5232 0.5919
000210 64 cc dd 3d 02 9a 08 3e d5 09 e8 3d 02 bc 45 3e
       0.1083 0.1334 0.1133 0.1931
000220 c8 07 3d 3e 4c 37 09 3e 89 41 20 3e 7a a5 2c 3e
       0.1846 0.134 0.1565 0.1686
000230 68 b3 0a 3f f9 a0 27 3f 27 a0 09 3e 46 b6 f3 3d
       0.5418 0.6548 0.1344 0.119
000240 58 ca b2 3d 8a 1f 23 3e 3e 79 18 3e 2b 18 15 3e
       0.0873 0.1593 0.1489 0.1456
000250 1c eb 22 3e 20 63 ee 3d 2e ff 01 3f 05 34 11 3f
       0.1591 0.1164 0.5078 0.5672
000260 f3 8e d3 3d a7 e8 08 3e 5d fe 03 3e 7d ae 36 3e
       0.1033 0.1337 0.1289 0.1784
000270 c7 4b 37 3e 1e a7 e8 3d 06 12 14 3e 43 1c 2b 3e
       0.179 0.1136 0.1446 0.1671
000280 24 b9 0c 3f cf f7 23 3f 83 c0 ca 3d 1f f4 ec 3d
       0.5497 0.6405 0.099 0.1157
000290 2c d4 1a 3e 41 f1 23 3e 1b 0d 20 3e ef c9 c3 3d
       0.1512 0.1601 0.1563 0.0956
0002a0 65 aa 20 3e 0e be 30 3e d1 22 0b 3f d1 91 0c 3f
       0.1569 0.1726 0.5435 0.5491
0002b0 59 86 b8 3d 2e ff a1 3d 80 48 bf 3d f9 0f 69 3e
       0.0901 0.0791 0.0934 0.2276
0002c0 c2 86 27 3e 5d fe c3 3d d4 2b 25 3e 7e 8c 39 3e
       0.1636 0.0957 0.1613 0.1812
0002d0 50 fc 08 3f 21 1f 34 3f f0 85 c9 3d a9 a4 ce 3d
       0.5351 0.7036 0.0984 0.1009
0002e0 df 4f 0d 3e 61 32 15 3e 7a a5 2c 3e f2 41 cf 3d
       0.138 0.1457 0.1686 0.1012
0002f0 26 e4 43 3e 8c 4a 2a 3e 44 fa 0d 3f c2 17 26 3f
       0.1913 0.1663 0.5546 0.6488
000300 a8 35 cd 3d 84 0d cf 3d a3 01 bc 3d d8 f0 34 3e
       0.1002 0.1011 0.0918 0.1767
000310 1f f4 2c 3e 68 91 ed 3d 9d 11 25 3e 61 54 12 3e
       0.1689 0.116 0.1612 0.1429
000320 bb b8 0d 3f 71 3d 2a 3f 19 04 d6 3d 49 2e ff 3d
       0.5536 0.665 0.1045 0.1246
000330 c2 17 a6 3d 4c 37 09 3e 22 fd 36 3e db 8a fd 3d
       0.0811 0.134 0.1787 0.1238
000340 bc 05 12 3e 08 3d 1b 3e fd f6 05 3f 41 f1 23 3f
       0.1426 0.1516 0.5233 0.6404
000350 70 ce 08 3f b7 d1 00 3e 63 ee da 3d 01 de 02 3e
       0.5344 0.1258 0.1069 0.1278
000360 88 f4 1b 3e 8d 28 ed 3d 64 cc 1d 3e 1d 38 e7 3d
       0.1523 0.1158 0.1541 0.1129
000370 b7 62 0f 3f 90 31 07 3f 2c 65 f9 3e d5 09 e8 3d
       0.5601 0.5281 0.4871 0.1133
000380 d8 81 f3 3d 12 83 00 3e 28 0f 0b 3e d1 91 dc 3d
       0.1189 0.1255 0.1358 0.1077
000390 5c 8f 02 3e 20 d2 ef 3d 4e d1 11 3f 30 4c 16 3f
       0.1275 0.1171 0.5696 0.5871
0003a0 5b d3 fc 3e 39 b4 08 3e 82 73 06 3e 23 4a 3b 3e
       0.4938 0.1335 0.1313 0.1829
0003b0 32 77 2d 3e 3b 01 cd 3d e8 6a 2b 3e 41 82 22 3e
       0.1694 0.1001 0.1674 0.1587
0003c0 f2 d2 0d 3f f7 75 20 3f 8a 8e 24 3f b2 9d ef 3d
       0.554 0.6268 0.6428 0.117
0003d0 86 38 d6 3d ec c0 39 3e 14 ae 07 3e 3d 2c d4 3d
       0.1046 0.1814 0.1325 0.1036
0003e0 08 ac 1c 3e 21 1f f4 3d 77 be 0f 3f 20 41 01 3f
       0.153 0.1192 0.5615 0.5049
0003f0 22 fd 16 3f 3f c6 dc 3d 45 d8 f0 3d 39 45 07 3e
       0.5898 0.1078 0.1176 0.1321

net.net.0.weight f4 [100, 784]
000000 64 38 8d 3d a5 74 2a 3d 50 3c 6f bb fd 5e 59 bc
       0.06895521 0.041615147 -0.0036504455 -0.013267276
000010 59 a7 fb bd cb 0e 74 bc de ce fb 3d e5 b1 15 bd
       -0.122877784 -0.014896105 0.12295316 -0.036546607
000020 23 ff 9c 3d 31 b2 af 3c 8b 3d 76 3d fe d0 c2 3c
       0.07665851 0.021447273 0.060117286 0.023781296
000030 1e b2 0d 3c 49 12 f9 3d d1 c3 49 3c e2 a8 fb bc
       0.0086484235 0.12161691 0.012314753 -0.030720178
000040 da a5 a3 bd cd f2 83 bc f8 20 a4 3d 40 e3 21 bc
       -0.07990618 -0.016106987 0.08014101 -0.009880841
000050 49 95 e1 3d 65 63 28 bc e8 d9 76 bc 5c eb 8f bd
       0.11014802 -0.010277604 -0.015066601 -0.07027313
000060 66 0b 34 bd 79 cb 6e bc 31 08 27 3d 26 35 f9 3c
       -0.043956183 -0.014574879 0.040779296 0.030420851
000070 ce 21 58 bd 76 8f 82 bd be 8d 48 bc 70 e1 a6 3d
       -0.052766614 -0.06375019 -0.012240825 0.081484675
000080 7f cf d8 bd 41 69 a1 3d 68 ea 8f bc 2e 40 aa 3c
       -0.10586452 0.07881404 -0.017567828 0.020782556
000090 e1 46 48 3c bc 8f 4d 3d b1 56 09 bd aa 5f ed 3c
       0.01222393 0.050185904 -0.03352994 0.02897628
0000a0 ba f9 cc bc 6a d2 4e 3c 2e b4 5e 3c 30 75 27 bd
       -0.025021423 0.012623409 0.013592763 -0.040883243
0000b0 4c 74 1f 3d 06 22 aa bd d0 9e 36 bd 4c 8a 24 3d
       0.03892927 -0.08307271 -0.04458505 0.040170953
0000c0 42 b3 d4 bd 89 33 85 3c 7d 82 3b 3d 3f 25 77 bd
       -0.10385753 0.016259925 0.04577874 -0.060338255
0000d0 98 c8 8f 3d 7f 3f 24 bb ea d2 80 bd a5 1d 08 bd
       0.07020682 -0.002506226 -0.06290229 -0.033231396
0000e0 27 d0 8d 3d 03 81 07 bd 12 df 41 3d 80 61 66 3c
       0.069244675 -0.03308202 0.047331877 0.014061332
0000f0 6b ae a3 3d fe 27 26 bd 9b 6b 9e bd 1c 65 44 bd
       0.07992252 -0.040565483 -0.07735368 -0.047947988
000100 62 35 47 3d d4 0f d3 3d 26 6a 98 bd f7 51 cf 3c
       0.048634894 0.10305753 -0.07442121 0.025307639
000110 64 b5 8c bb c4 1e 70 bc 09 6c 6d bc 20 66 24 3d
       -0.0042940844 -0.014655773 -0.01449109 0.040136456
000120 d5 7e 8e 3a c0 ef 80 bd a1 b4 b7 3c 15 f5 be 3c
       0.0010871539 -0.06295729 0.022424998 0.023310224
000130 d5 38 fe bb fc ed 02 be 15 9f ce bb 8b 12 84 3d
       -0.0077582397 -0.12786096 -0.006305585 0.06448849
000140 90 b8 33 bd 30 bc 51 3d 43 15 34 3d 25 29 d0 3d
       -0.043877184 0.05120486 0.04396559 0.10164098
000150 87 bf 0d bd b3 76 2f 3d ae 3f 1f 3d be 26 90 3c
       -0.034606483 0.04283781 0.03887909 0.017596599
000160 d6 f8 6b bd b3 8b b8 3d 21 cc b4 bc 87 4d 02 3d
       -0.057610355 0.090110205 -0.022069992 0.031812217
000170 6d bf 1d bd 44 4b a2 bd 14 f5 d3 3a d6 b0 95 3d
       -0.038512636 -0.07924512 0.0016171061 0.073091194
000180 85 c7 c3 bd 21 bf c6 3d 35 36 f2 bd c2 85 cb bc
       -0.0955954 0.09704424 -0.118267454 -0.024844054
000190 25 b4 38 bd 9d fc 92 bd 33 27 2b bd 37 1d 95 3d
       -0.045093674 -0.071770884 -0.04178543 0.07280963
0001a0 f0 cc ff 3c 0e cf bd bc 01 42 f4 bc d9 41 9e 3c
       0.031225652 -0.02317002 -0.02981663 0.019318508
0001b0 2c 9b a0 3d cd db 20 3d e8 91 56 3d 35 f0 1b bd
       0.07842097 0.03927212 0.05238524 -0.038070876
0001c0 b0 d6 9d bd af bb 28 3d 48 5b c4 3d 97 15 1c 3c
       -0.07706964 0.041194614 0.09587723 0.009526632
0001d0 38 07 70 bc 4e 19 05 3d 9c a2 b2 bc a4 58 7d bd
       -0.014650159 0.032494836 -0.021806054 -0.061852112
0001e0 4c b5 a1 bc 9f f5 80 3d 8c f4 97 3d c5 3d a7 bd
       -0.01973977 0.062968485 0.074196905 -0.081660785
0001f0 f1 ed 82 3d 20 a1 f2 3d 8e 0a dd bb 89 1f 59 bd
       0.0639304 0.118471384 -0.006745643 -0.05300859
000200 13 2c 56 bd 3d fc 26 3c 2e 3c 9c bd f6 1b d5 3d
       -0.052288126 0.010191974 -0.07628666 0.10405724
000210 65 07 e3 bc 97 2f 72 bd 4d 4a 04 bd 25 0f d4 bc
       -0.027713487 -0.059127416 -0.03229742 -0.025886128
000220 f2 4a 5b bd 0b 5d 2f 3a f3 6f 71 3d b8 59 b6 bd
       -0.05353827 0.00066895847 0.058944654 -0.08903831
000230 b8 09 41 3d d9 7a 7d bd 49 69 df bb 33 75 a4 3d
       0.04712841 -0.061884735 -0.006817971 0.080301665
000240 da 20 0d bc 9f d5 ee bd 2e 2e 23 3d 45 69 67 3d
       -0.008613789 -0.11661839 0.039838962 0.056496877
000250 dd 98 ca bb 5d 15 2e 3c d9 02 c9 3d 8a 1a a5 3d
       -0.0061827735 0.010625211 0.09814996 0.080617025
000260 a0 3f 9f 3d ad 57 08 bd cc 6d 2f bd 5d d3 e5 bd
       0.077758074 -0.03328674 -0.04282932 -0.11221955
000270 bc 8f d9 bc a7 1a 9e bc ca cb 20 bd 99 28 82 3d
       -0.026557796 -0.019299818 -0.03925685 0.063554
000280 81 65 b2 bd f4 93 da 3c 0a 82 32 bd b3 d8 1d 3d
       -0.087107666 0.026681878 -0.043581046 0.03853674
000290 6b db ab 3b 89 33 49 3d c3 b0 e2 3d f3 cc 89 3d
       0.0052446625 0.049121413 0.11068871 0.06728544
0002a0 03 7d b8 bd cd f4 f6 bc 93 42 2f 3d 37 82 d1 3d
       -0.09008219 -0.030146027 0.0427881 0.10229915
0002b0 dd e3 2c bd d2 1e 08 be 30 9f a5 bd 13 4a 80 bc
       -0.042209495 -0.13293007 -0.08087003 -0.015660321
0002c0 09 9c 5d bc 07 12 4a 3d 9b e5 62 3b c9 4d f6 bd
       -0.013525971 0.0493336 0.0034621719 -0.12026555
0002d0 92 fb b4 3d 2e ed b0 3d 16 6b 9a bd 32 d1 c3 3d
       0.08837046 0.086389884 -0.07539956 0.09561385
0002e0 3e 8a 92 3d eb 22 6b bc 1e 61 97 bd f4 75 cd bc
       0.07155274 -0.014351587 -0.073915705 -0.025080658
0002f0 8b 80 6a bd 83 70 a7 3c f4 dd 9b 3d a2 ab fb 3d
       -0.057251494 0.020439392 0.076106936 0.12288596
000300 ba 52 30 bd 3e 15 9b 3d fa 25 95 bc 6a 5d 72 bd
       -0.043047644 0.07572411 -0.018206585 -0.059171118
000310 31 cc 2c 3c 9b 00 d6 bd 60 cf 02 3c 16 f5 8c bb
       0.01054673 -0.10449334 0.007984012 -0.0043016775
000320 dd 5c 1c bd 95 96 cb 3d 7e bc 6e 3d 9b 2d 5d bd
       -0.0381745 0.099408306 0.05828523 -0.05399857
000330 bb 6f 1f bd 48 4a 65 bd 60 fb 93 3b a0 77 d7 bd
       -0.038924914 -0.055979043 0.00451605 -0.105208635
000340 c9 68 c9 bd b8 04 03 3d a4 bb c2 3d 29 f7 b2 3d
       -0.09834439 0.031986922 0.09508446 0.08738548
000350 29 ff 5a 3d 50 18 03 bd 8f c8 90 3d ff 0f e2 3d
       0.053465996 -0.032005608 0.070695035 0.11038207
000360 93 fc 80 bd 74 f8 f2 3c 1b 73 b0 bc 2d 56 55 bd
       -0.06298175 0.029659487 -0.021539262 -0.052084137
000370 eb de ca 3d 6e fc d5 3d 93 02 87 bd 1f aa 32 bd
       0.099057995 0.10448538 -0.06592288 -0.04361927
000380 ca c1 f4 3c 7c 16 a1 3a f6 47 dd 3d 3d 1f 15 bd
       0.029877562 0.0012290026 0.10804741 -0.036406744
000390 73 27 d6 bd ff 5a 1f 3d 0b 70 c2 3d a3 da 16 3d
       -0.10456743 0.03890514 0.09494027 0.036829602
0003a0 9f 66 e0 39 63 4c 5c 3d f0 4b 99 bd a9 fa 43 3a
       0.00042801068 0.053783786 -0.07485187 0.0007476011
0003b0 cf ca 86 bd 59 68 92 3c b4 bf d5 bc af ab 97 bd
       -0.065816514 0.017872022 -0.026092388 -0.07405793
0003c0 f5 a4 1a 3b 9e f1 9e bd ea 7f f2 bd 4f f3 ca 3d
       0.0023596857 -0.077609286 -0.11840804 0.09909689
0003d0 c9 38 b3 3c 97 9b fe 3c d0 72 2c bd 58 74 2a 3d
       0.021877663 0.03108005 -0.04210168 0.04161486
0003e0 c6 2c 9e 3d 8e b5 cc 3c a3 50 c4 bd 0c f5 a3 3d
       0.077233836 0.024988916 -0.09585693 0.08005723
0003f0 e9 f4 63 bd 61 35 43 3b 6e 4c c2 3b 56 93 6b 3d
       -0.055653486 0.0029786455 0.0059295213 0.057513557

net.net.0.bias f4 [100]
000000 4c d9 51 3e f7 8b f4 3b 02 b3 03 3e 2d 49 12 bd
       0.20493048 0.007462974 0.12861255 -0.035714317
000010 a4 46 32 3a 84 2a 0c 3e 5c 06 01 3d 56 3a 16 3e
       0.00068006874 0.13688093 0.031500205 0.14670691
000020 35 4a 07 3f 5a 8f 1c bd ce eb d4 bc f3 fc 69 bd
       0.52847606 -0.03822265 -0.025991347 -0.057125997
000030 74 4a 33 3e 4c 62 ae 3e 1b 30 e0 be 41 d5 4c 3e
       0.1750887 0.3405937 -0.43786702 0.20003225
000040 5a ce 7a 3e 1b 22 bd bc 86 71 b7 bd 8c 8d 85 3e
       0.2449278 -0.023087552 -0.089572 0.26084554
000050 d4 5f 36 3d 74 9d e2 3d 20 55 1f 3e 39 01 1f 3e
       0.044524983 0.11065188 0.15559816 0.1552781
000060 43 fc 08 3e 1a 78 06 bd 30 c5 dd bb 09 43 20 3e
       0.1337748 -0.03282938 -0.0067678913 0.15650572
000070 73 29 6c 3d 53 9f 06 3b c8 b0 a0 3b 89 5a 2a bc
       0.057656717 0.0020541742 0.0049038865 -0.010397562
000080 bf 49 d9 3d 8e e7 b3 3c 73 9c 50 3e 79 d5 e4 3d
       0.10609769 0.021961 0.2037218 0.11173529
000090 9b a8 a2 3c b8 0b 38 3e 35 0c 9f 3e 05 e7 c7 3d
       0.019855788 0.1797322 0.31064 0.0976086
0000a0 64 bc 82 3e e7 55 aa bd e1 66 0a 3e be 2c 8b bd
       0.25534356 -0.08317166 0.13515808 -0.06795643
0000b0 11 62 1d 3d 09 00 68 bd 0b aa 01 bf b6 de ea bc
       0.0384236 -0.05664066 -0.5065009 -0.02867065
0000c0 0b b1 81 3d 19 c7 f2 3d 00 a3 46 3e ac 90 0f 3e
       0.063325964 0.11854381 0.19398117 0.14020032
0000d0 53 a8 11 bd b0 68 90 3e 5f e9 53 be 71 cb 21 be
       -0.035560917 0.2820487 -0.20694493 -0.15800263
0000e0 bd af d6 bc f9 7d b1 3d 66 57 e0 3d f7 1d cc 3d
       -0.026206845 0.086666055 0.1095417 0.09966653
0000f0 83 11 22 be 6b 78 53 3e 0e 7f 7b 3e d4 be f2 3d
       -0.15826993 0.20651405 0.24560186 0.11852804
000100 85 b3 85 3d db e0 65 3e 37 31 42 3e 16 2c 75 be
       0.06528381 0.22449057 0.18964086 -0.23942599
000110 42 74 52 3e 54 1d 20 3e b6 dc d5 3d 02 38 17 3d
       0.20552161 0.15636188 0.10442488 0.036918648
000120 1e 05 cd 3d af 1d 8b 3c 86 91 09 bf 16 3d 6c 3e
       0.10010742 0.016981928 -0.53737676 0.23070177
000130 46 ca 8b 3c 38 87 69 3e bf 76 a5 3d f4 13 d7 3d
       0.017064225 0.22805488 0.0807929 0.10501853
000140 27 f7 45 3b 8a 9c c3 3d a3 2b 33 3e 5d 3b 82 bc
       0.0030207129 0.09551342 0.17497115 -0.015897447
000150 20 68 33 bd 75 f6 13 bd df 6c a9 3d dc 3c 5e 3e
       -0.043800473 -0.03612371 0.08272719 0.21702904
000160 2f af fa bc d8 f5 a3 bc 12 cb c8 3c c8 eb 11 3e
       -0.030601112 -0.020014688 0.024510894 0.142501
000170 36 7d 06 3e 0e 29 1a 3e 30 99 d0 3d 39 0a 70 3e
       0.13133702 0.15054724 0.10185468 0.234414
000180 08 21 82 3d 5b 79 d3 3d 98 5a c5 bc ce e1 98 be
       0.063539565 0.10325881 -0.02409105 -0.29859775

net.net.2.weight f4 [100, 100]
000000 49 b1 45 bd 28 fb 7e bd dc 40 ab 3c 02 5b 0c bd
       -0.048264775 -0.06225124 0.02090495 -0.03426648
000010 fe da 3b 3d 31 c3 30 be f3 a0 12 3e de 84 5f 3c
       0.045863144 -0.1726196 0.1431921 0.013642518
000020 8b 7a 91 3e 27 1d d4 bd 95 75 d5 3d 43 79 6a 3e
       0.28413805 -0.10357123 0.104228176 0.2289782
000030 65 2d 79 bb 2f a7 b1 bd d0 ed bf 3b 70 9d 52 3d
       -0.0038021442 -0.08674466 0.005857207 0.051419675
000040 21 fe 8e bc 60 8e a3 bc 41 55 69 bd 0c d1 2b 3c
       -0.017455162 -0.01996535 -0.05696607 0.010486852
000050 cb 6c 0a 3e b1 1f f3 bd ae a9 e5 3d b4 f2 2f 3d
       0.13518064 -0.11871279 0.112140045 0.04295607
000060 1a 53 36 3e 2c ee e9 bd 95 6d 7e 3d 66 15 13 3e
       0.17805138 -0.11422381 0.062116224 0.14363632
000070 8e b6 b8 bd 49 2b fa bd 3c 77 ef bd 53 fb 9e bd
       -0.090191945 -0.12215287 -0.11692664 -0.0776278
000080 77 d3 4e 3d 40 17 c7 bd 57 b6 83 3d aa 19 3d bc
       0.050494637 -0.097212315 0.06431263 -0.011541763
000090 3e f2 87 3d 59 55 42 3d 72 cf 28 3e 43 83 3b 3e
       0.06638001 0.047444675 0.16485384 0.18311791
0000a0 7e ce 09 3e 1f 92 8c 3d 73 e9 0a 3d f7 1a ba bd
       0.13457677 0.06863808 0.03391404 -0.090871744
0000b0 4e 37 28 be 52 8b 63 3c 4f 2f bb 3b e6 a5 02 3e
       -0.16427347 0.013888197 0.0057124267 0.12758598
0000c0 d6 de b5 bd b7 00 22 bc 23 e0 c9 bd b9 61 01 be
       -0.08880393 -0.009887866 -0.09857204 -0.12634934
0000d0 6c 13 0d bd b7 be cb 3d cb f0 22 bd b9 e7 b4 3c
       -0.03444235 0.09948485 -0.03978042 0.02208315
0000e0 8d c6 45 bb e4 cd 8f 3d 8b ed 3d 3e b1 4f 0c 3e
       -0.003017816 0.070216924 0.18547647 0.13702275
0000f0 a1 76 f5 3c 27 40 04 be c2 17 05 3d bd 6e aa 3d
       0.029963793 -0.12915097 0.03249336 0.08321903
000100 2b 06 01 3d 27 1c c5 3d 5f ce f4 3d a5 f5 0a be
       0.031500023 0.0962451 0.11953425 -0.13570268
000110 b4 41 78 3d a5 2b 12 be 03 c4 6f 3c 56 6c d5 bd
       0.060609534 -0.14274462 0.014634135 -0.10421054
000120 a9 c5 7e bd ef bd a9 3d b0 b9 4a bd 38 e3 62 be
       -0.062200222 0.0828818 -0.04949349 -0.2215699
000130 43 8b 21 3e 7a 30 09 bd 71 5d 28 3e cf 83 39 be
       0.1577578 -0.033493496 0.16441895 -0.18116687
000140 4f a7 4a bc 8b c8 0a 3e c7 8d 09 3e 64 39 be bc
       -0.012368991 0.13553064 0.1343299 -0.023220725
000150 68 4c 14 be 25 84 1f bd 48 b6 0f 3e 9b 7a 4d 3e
       -0.14482272 -0.038944382 0.14034379 0.20066302
000160 fd e3 03 3e f6 db 73 bd c6 5b 3a 3e 24 28 2c be
       0.1287994 -0.059535943 0.18199071 -0.16812187
000170 4b 2f 29 be b2 b7 d3 3d 98 c1 d5 3d 67 bd 88 3d
       -0.16521947 0.103377715 0.10437316 0.06676751
000180 62 59 a8 bc 51 ca 07 3e 53 15 2b bc 45 fe 4a bd
       -0.020550434 0.13260771 -0.010442096 -0.049558897
000190 9c b1 2a be 14 b4 54 3e b9 a7 1a 3e 23 37 16 bd
       -0.16669315 0.2077182 0.15103044 -0.036673676
0001a0 1c 54 28 3c ad fc 5c be 51 07 35 be c6 7d 3b 3e
       0.0102739595 -0.21580763 -0.17678572 0.18309698
0001b0 23 43 82 3e e2 44 18 be 3a 5c b8 bd 67 f3 44 3d
       0.25441846 -0.14870027 -0.09001966 0.04808369
0001c0 c9 dd 12 be 50 f2 76 3d c0 c5 8f bd 97 62 d8 bd
       -0.14342417 0.06028968 -0.0702014 -0.105656795
0001d0 4e 53 61 be 6d 33 0b be 2d d7 1d bd 2a 62 cd 3d
       -0.22004434 -0.13593836 -0.038535286 0.10028489
0001e0 af 91 d6 3c 4a 9b e3 3d 1e 45 d2 3d 56 47 9f 3d
       0.026192514 0.111136034 0.10267089 0.07777278
0001f0 ed a2 a5 3d b5 f8 2b be 67 c4 5c 3d 90 f5 11 be
       0.08087716 -0.16794093 0.05389824 -0.14253831
000200 f4 fe 2d 3d 37 27 e9 3b 7f 72 6b 3d 5d 4d 08 bd
       0.04247947 0.0071152705 0.05748224 -0.033276904
000210 54 93 25 be 40 07 32 be e2 cd ea bc 49 74 c2 bc
       -0.16169482 -0.17385578 -0.028662626 -0.02373709
000220 ab 60 a7 bc fc e6 85 3c 18 71 7e 3d c5 7e 0d bd
       -0.020431837 0.016345493 0.062119573 -0.034544725
000230 88 d6 de bd 70 be 46 3e ea 21 2a 3e 97 bb 4a 3e
       -0.10880762 0.19408584 0.166145 0.19798122
000240 fd cf ae 3d 04 e9 47 3e c1 e0 1d 3e 66 d1 5f bd
       0.08535764 0.19522482 0.15417768 -0.054643057
000250 15 ad d7 3d be c5 19 bd 33 56 1c 3e e1 ec 44 be
       0.1053106 -0.037542097 0.15267257 -0.19230987
000260 02 f4 69 be ff 71 a6 bd 5e 5b bf 3c b4 45 51 3d
       -0.22846988 -0.08127212 0.023358997 0.051091865
000270 95 3b 27 3d 46 57 da 3d b3 c1 20 bd f5 24 01 be
       0.040828306 0.10661177 -0.039247226 -0.12611754
000280 d4 87 48 3e ae 06 36 be 40 57 f8 bd 7d 67 2e be
       0.19583064 -0.17775986 -0.121260166 -0.17031665
000290 82 08 fc 3b 4c 1e 04 be 15 ac 08 bd 6e 7a 83 bd
       0.007691444 -0.12902182 -0.033367235 -0.06419836
0002a0 0c f0 62 be a7 ff 42 be 63 aa 41 3e 41 8d c1 3d
       -0.22161883 -0.19042836 0.18912654 0.0945077
0002b0 15 66 28 be f5 3c a5 bd ce 41 8d 3e 41 0a 7d be
       -0.16445191 -0.08068267 0.27589267 -0.24710943
0002c0 78 01 d7 bd 6f dd 95 3d f8 bc 27 3d a5 40 bf 3c
       -0.10498327 0.07317626 0.0409517 0.023346255
0002d0 ef 8b 30 3d 91 f5 0d be c0 cc 16 be 44 1b e6 3c
       0.0431022 -0.13863207 -0.14726543 0.028089173
0002e0 14 2a 9e bd 94 42 0b 3e bb e1 b3 3d f3 81 9e bd
       -0.077228695 0.13599616 0.08783289 -0.077396296
0002f0 14 e9 3c 3e d9 3b c9 3d 4f c4 59 bc 70 4f 2c be
       0.18448287 0.09825868 -0.0132914325 -0.16827178
000300 89 09 09 3e fb c2 13 3e 2d 22 d4 bd 3e 65 f4 bd
       0.13382544 0.14429848 -0.10358081 -0.11933373
000310 f7 5a cc 3d 5e a2 05 3e bf e5 38 be 79 76 f6 3d
       0.09978288 0.1305022 -0.18056391 0.120343156
000320 fa ae b5 3d 14 4b fc 3d dc 81 b6 bc 98 bf 10 3e
       0.08871265 0.123190075 -0.022278719 0.14135587
000330 7d 4e 94 3d 0b c4 6e bd 3a 8b 18 be 72 c0 6b 3d
       0.07241533 -0.05829243 -0.1489686 0.057556577
000340 7f 0a a0 bd 21 a3 28 3d 1b 46 2b be 46 b4 a9 3d
       -0.07814502 0.041171197 -0.16725962 0.082863376
000350 4d 25 0d 3c c2 08 44 bd 87 7e 11 be e2 c4 25 bd
       0.00861485 -0.047859915 -0.14208423 -0.040470965
000360 c6 69 6d 3e 64 4f 2b bd 71 81 03 3b e0 df d9 3d
       0.2318488 -0.04182376 0.0020066167 0.10638404
000370 fc 79 79 3c 50 b0 c8 bd 9f 47 05 be 50 9e 26 3e
       0.015226837 -0.09799254 -0.13015603 0.16271329
000380 af e9 04 3e 0f 9b 19 bc 82 de 81 bd 38 42 99 bd
       0.12979768 -0.009375348 -0.06341268 -0.07483333
000390 83 ff 0b 3d 74 ad 5b 3c 26 c8 07 3e 09 0e 5e 3d
       0.03417922 0.013408054 0.13259944 0.054212604
0003a0 d6 c2 21 3d 24 24 cf bd 48 61 10 3e 73 0e 12 3e
       0.03949245 -0.10114315 0.1409961 0.14263324
0003b0 9d f9 ab 3d 57 79 e2 3d f9 24 c7 3d 08 9c 29 3d
       0.08397219 0.110583 0.09723849 0.04140857
0003c0 9d cb b6 bd 83 79 04 be 5d 9e 41 3e 10 92 3b 3e
       -0.08925555 -0.12936978 0.18908067 0.18317437
0003d0 45 55 c5 bd 3f c3 2b be a4 a5 4b be fd b9 27 be
       -0.096354045 -0.16773699 -0.19887406 -0.16379543
0003e0 62 e3 05 be 73 b1 36 be d8 6f 3f 3a f7 02 7e bc
       -0.13075021 -0.17841129 0.0007302738 -0.015503637
0003f0 8d 41 67 3e 83 d6 9f bc 38 1e c4 3b 72 66 d3 3c
       0.225836 -0.019511467 0.0059850477 0.025805686

net.net.2.bias f4 [100]
000000 d7 00 72 bc 36 2e 9d 3e 32 cb 87 3e 71 5b fc 3d
       -0.014770708 0.3069932 0.26522213 0.123221286
000010 98 06 38 3e 9a 72 82 3e 8b 2e 9a 3e 9e 6e 5f 3d
       0.17971265 0.2547806 0.30113634 0.054548852
000020 b5 ee 88 3e 4c 2b c3 3e 95 c5 9c 3e 7f 28 01 3f
       0.2674462 0.3811897 0.30619493 0.5045242
000030 a6 65 ba 3d 3e 43 bb 3e 14 fc 8a 3e 2d 3b 42 bd
       0.09101419 0.3657474 0.27145445 -0.047419716
000040 33 91 88 3e f0 79 87 3e 36 c8 49 bb 63 cb 35 3f
       0.26673278 0.26460218 -0.00307895 0.7101347
000050 c1 c5 d0 3e c0 83 91 3e b8 3e f9 3d e4 f5 10 3f
       0.40775874 0.2842083 0.12170166 0.566252
000060 fa ba 76 3f 7e 31 8d 3d be f2 43 3f 20 30 e2 3e
       0.96379054 0.068942055 0.7654227 0.4417734
000070 ce aa 5b 3e 19 42 8e 3d f9 09 68 3e e9 46 b2 3c
       0.21451876 0.06946201 0.22660054 0.021762328
000080 03 c1 09 bd 57 cc a0 3e c9 7e 26 3e f2 81 96 3e
       -0.033631336 0.314059 0.16259302 0.29396015
000090 bd d1 e4 3d 51 2d 05 3e 88 02 92 3e 12 e5 81 3d
       0.11172817 0.13005568 0.28517556 0.0634252
0000a0 04 22 be 3e 6b 96 f0 3e fc 02 e3 3d 08 1a 11 bd
       0.37135327 0.4698976 0.110845536 -0.035425216
0000b0 06 f8 09 3d 80 92 e9 3e 08 35 a7 3b d3 78 9f ba
       0.0336838 0.45619583 0.0051027574 -0.0012166746
0000c0 f4 19 e9 3d 71 df 9e 3b 11 a9 dc 3e e6 a6 2d bd
       0.11381903 0.0048484136 0.43097737 -0.042395495
0000d0 7a 9e f7 3e 89 34 e2 bc a9 f9 05 3f 13 7d 93 3e
       0.48363096 -0.027612941 0.52334076 0.28806362
0000e0 b4 62 03 3f cc 9b ad bc 2d 3b a7 3e 03 22 9d 3d
       0.51322484 -0.021192454 0.32662335 0.07672503
0000f0 49 b6 7d 3e 3a 44 03 3f 30 3d af 3e 2a 0a 4f 3e
       0.24776568 0.5127598 0.3422637 0.20218721
000100 6c 62 03 3f 82 c3 f8 3e 8a aa f7 3d 7e 68 fc 3e
       0.51322055 0.4858666 0.120930746 0.4929847
000110 54 f9 b8 3d d5 a7 e2 3e 8b 8d 83 3e d5 cc bb bc
       0.090319306 0.4426867 0.25693926 -0.02292482
000120 ec d3 12 3f fe ec ae 3c 89 c9 be 3e 83 87 71 3e
       0.5735462 0.021353241 0.37263134 0.2358685
000130 94 a4 ea 3e c2 ae 70 3e 38 20 0a 3f 38 a8 82 3d
       0.45828688 0.23504165 0.5395541 0.063797414
000140 7a 53 db 3e 4d a8 42 3e 82 de a2 3d cc 89 67 3e
       0.42837125 0.19009514 0.07952596 0.22611159
000150 8f ed 5f 3e 3e 09 ca 3d 31 8c 16 bd e3 c0 20 bd
       0.21867965 0.09865044 -0.03675479 -0.03924645
000160 ef b3 36 bb 15 7a be bc 05 b6 86 3e 6e 07 79 3e
       -0.0027878245 -0.023251573 0.26310745 0.2431924
000170 7e 31 e2 3e 67 c2 bd 3d 09 43 3a 3d a3 a3 42 3e
       0.44178385 0.09265595 0.045474086 0.19007735
000180 79 a7 07 bd c9 a7 13 bd f3 7f 89 3d a5 82 be 3e
       -0.0331187 -0.036048684 0.067138575 0.3720905

net.net.4.weight f4 [10, 100]
000000 e4 b8 05 bd 17 3c 04 be 3b 6c 4f 3e 30 50 9e 3e
       -0.03264703 -0.12913547 0.2025613 0.30920553
000010 8d e0 88 3e fd d9 83 3d 8b be b8 3d 28 7e 43 be
       0.2673382 0.06438062 0.09020718 -0.19091094
000020 bb e0 9a be a6 90 38 bd ba cd 8a be ca bb af be
       -0.3024958 -0.045059822 -0.27110082 -0.3432296
000030 3a 24 28 be 57 0b 0b be 3c 70 9b bd 89 af 46 3d
       -0.1642007 -0.13578545 -0.075897664 0.048507247
000040 70 20 ab bd b8 c9 66 be 7e ff f6 3d 84 1e 09 be
       -0.08355796 -0.22537887 0.1206045 -0.13390547
000050 ed a0 1e be 93 4f 33 3e b6 61 55 be eb da f4 be
       -0.15491076 0.17510824 -0.20838055 -0.4782327
000060 b5 c3 65 3e da 3b a7 3d a7 d8 89 be b8 08 27 3e
       0.22437938 0.08165713 -0.26923105 0.1631192
000070 ca 6b a5 3d ef 27 21 3e 55 c5 32 be 74 25 1a be
       0.080772 0.1573789 -0.17458089 -0.1505335
000080 fa 9e 0e 3e f9 4f d6 bd 99 ad b2 be d6 28 74 be
       0.13927832 -0.10464472 -0.3489807 -0.23843703
000090 cd de 72 3e 4f 2b f9 bd ec 65 ff be 8f 8e 99 3d
       0.23717804 -0.121664636 -0.49882448 0.07497894
0000a0 f7 19 25 bc 43 d9 9c 3e 33 0a 4c 3e da d4 7c bd
       -0.010076991 0.30634508 0.19925766 -0.06172643
0000b0 c2 d3 14 3e fb 57 bf 3b 65 df 5e be 36 bc 12 3e
       0.14533904 0.0058393455 -0.21764906 0.1432961
0000c0 8b 3a 49 be 37 19 dc bd 61 1a 56 be 1d 38 fc bd
       -0.19651239 -0.10746997 -0.209085 -0.1231539
0000d0 fe b8 d5 3c 73 9d b4 bd 1b 08 25 be 3a 63 f1 bd
       0.026089188 -0.088190936 -0.16116373 -0.11786504
0000e0 02 f5 01 3f 8f ab 1e 3e 2d e3 31 bb c9 b4 f9 3c
       0.5076448 0.15495132 -0.0027143464 0.030481713
0000f0 2d dc ad be 29 df 70 bc 76 a4 22 be d9 47 67 3e
       -0.33957043 -0.014701643 -0.1588305 0.22586001
000100 79 75 a3 be 35 b4 9f be 18 3a b3 3d b2 04 0c 3e
       -0.31925562 -0.31192175 0.08751315 0.13673666
000110 de ba f7 3e 3f ae ba 3d 9a ae 16 3e 11 02 5a 3e
       0.48384756 0.09115266 0.14715043 0.21289851
000120 4d 0a 1d be 84 69 fc bd 49 ef 97 bd 37 7e 6d be
       -0.1533596 -0.12324813 -0.07418687 -0.23192678
000130 b3 be 3c bd c3 5c 49 3e 43 85 ae 38 b4 fc 14 3e
       -0.046080302 0.19664292 8.3217885e-05 0.14549524
000140 e1 cf b6 3e f8 a0 32 3e 6c d4 91 3e 54 f5 6f 3e
       0.35705474 0.17444217 0.28482378 0.23433429
000150 0a 81 11 3f 54 59 1d bc f7 30 3d be 0e fb fd bd
       0.56837523 -0.009603817 -0.1847571 -0.124014005
000160 be 43 b3 3d fc ff 28 bd b0 04 ec bd 50 ce 3c be
       0.08753155 -0.04125975 -0.115243316 -0.18438077
000170 e4 a9 16 3d e7 f9 00 3f f3 f5 0c 3c c3 18 0b 3e
       0.036783114 0.5038132 0.008603561 0.13583665
000180 48 8e cc 3d 22 25 13 be 61 d9 66 3e c2 0d 04 bd
       0.099880755 -0.14369634 0.22543861 -0.032239683
000190 ba 27 3a 3d 16 ab ad be e7 58 75 3e 34 31 b2 bd
       0.045448042 -0.3391959 0.23959695 -0.08700791
0001a0 ea 61 94 bd c3 fa d3 3d 29 97 24 be 98 02 23 3c
       -0.07245238 0.103505634 -0.16073288 0.009949349
0001b0 e6 2a 6a 3e 00 0b 84 be 3f 5d bc 3d 82 24 f3 be
       0.22867927 -0.25789642 0.09197473 -0.4748879
0001c0 2a 68 0c 3c 0d 4f 61 3f c5 9f 45 be 34 a3 10 be
       0.0085697565 0.88011247 -0.19299228 -0.14124757
0001d0 fd 9c c3 3d 1a 6f 16 3e cc f7 ed 3c fd 13 84 3d
       0.095514275 0.1469082 0.029048823 0.06449125
0001e0 ff 9b ca 3d 55 39 d2 3d 17 96 99 3d b8 52 83 3d
       0.09893035 0.102648415 0.074993305 0.06412262
0001f0 95 17 a9 3e 21 e4 b4 3d 57 df 15 3c 90 3c 1b 3e
       0.33025804 0.08832575 0.009147487 0.15159822
000200 e4 9a 31 3d 83 ac 05 bf c6 d1 63 bd 49 1c 4e 3d
       0.043360606 -0.52216357 -0.055619977 0.050319944
000210 eb b0 16 be 87 e1 1f 3e d8 1e 99 be 8e 05 3c bd
       -0.14715926 0.15613376 -0.29906344 -0.045903735
000220 07 af ab 3e b2 e3 d1 3e 46 02 4b 3e 4b ee de 3c
       0.33531973 0.4099403 0.19825086 0.027213236
000230 82 7b ce be f8 10 04 be 49 32 78 be 3c 3f 06 be
       -0.40328604 -0.12897098 -0.24237932 -0.1311006
000240 3f 5c 03 be f0 ab 98 3e 7c d3 75 bd 18 42 ac 3e
       -0.12828158 0.29818678 -0.06001614 0.33644176
000250 a1 f4 05 3f 24 ed 93 3d cb 08 1a be e8 03 59 3e
       0.523264 0.07222965 -0.15042417 0.21192896
000260 da de 5c be 49 af 87 39 75 9e 03 be 83 5d 9d be
       -0.21569386 0.00025879804 -0.12853415 -0.30735406
000270 43 71 c0 3c c0 4a 4a 3e c3 8b f0 be 83 72 72 3e
       0.023491507 0.19755077 -0.4698163 0.23676495
000280 7a be 56 3e c1 a5 0f be 07 e1 c0 be cc b6 f9 bd
       0.20971099 -0.14028074 -0.37671682 -0.12193069
000290 1c 9f 31 3e 23 1b 92 be 07 d7 fc be 84 d6 23 3e
       0.17345852 -0.2853633 -0.49382803 0.159998
0002a0 77 02 a0 3e b3 1e f7 bd 27 1f 1d be 86 6e 1e 3e
       0.3125188 -0.12066402 -0.15343915 0.15471849
0002b0 7f b9 8a 3e e9 5c 33 3e 0c b5 4f be aa 63 5c 3e
       0.27094647 0.17515911 -0.20283908 0.21522394
0002c0 85 d6 60 3e fe f8 8f 3d 3a 76 2c be 19 e4 af 3b
       0.21956833 0.07029913 -0.16841975 0.0053677675
0002d0 df 31 0f be 7e b4 44 be 80 79 25 be 2b 01 97 bd
       -0.13983868 -0.19209477 -0.1615963 -0.0737327
0002e0 db 8b b0 bd ff d4 dd 3e a9 07 7e 3c f6 4c fc 3d
       -0.08620425 0.43326566 0.015504756 0.12319367
0002f0 fe d1 7a 3e 53 9b 77 be 9a eb 68 3e b0 ea 1d be
       0.24494168 -0.24180345 0.22746125 -0.15421557
000300 82 e8 14 be 8c 60 dd bd 6b da bf bd c8 5b de 3e
       -0.1454182 -0.108094305 -0.09367832 0.434294
000310 65 97 83 be 0f 48 39 be 81 29 ad bd 26 0b 85 bd
       -0.25701442 -0.18093894 -0.08455182 -0.06496267
000320 3f 89 df 3a d1 27 95 be ef 5d 91 bd 8f 02 53 3e
       0.0017054452 -0.2913194 -0.070979945 0.20606445
000330 1b 78 d5 3d 08 88 81 3e fc 94 5e 3e d5 5f 77 3b
       0.10423299 0.25299096 0.2173652 0.003774633
000340 bb 18 00 be 1d 12 9a 3e f0 52 1d 3e 3d 26 dc 3d
       -0.12509434 0.30091944 0.1536367 0.10749481
000350 68 8a 0c 3d 35 4f ce be 72 92 7c be cc 54 95 bd
       0.034311682 -0.40294805 -0.2466524 -0.07291564
000360 65 59 9f bd 53 94 ad be bc f1 4d 3e 74 ac 4d be
       -0.077807225 -0.33902225 0.20111746 -0.20085317
000370 8c 1a 25 3e e6 fa 00 3e a8 2a b2 3d 40 b1 d0 3e
       0.16123408 0.1259571 0.08699542 0.4076023
000380 f4 10 8e 3e 1c 75 4f be c5 77 00 3f 85 05 a1 be
       0.2774731 -0.20259517 0.50182754 -0.31449524
000390 d9 b1 99 bd 82 c8 0a 3d a6 1a 0d be 1c 91 8c bd
       -0.07504625 0.033882625 -0.13779697 -0.06863615
0003a0 94 33 99 3d 6b 50 05 be 84 09 ad be ed ab cc 3c
       0.07480541 -0.13018958 -0.33796322 0.024984324
0003b0 aa 36 8a 3e f2 48 42 be 9c 64 8c 3e 1b 25 08 3e
       0.2699483 -0.18973139 0.2742051 0.13295405
0003c0 55 80 c5 3e 28 88 69 be d5 9b 7f be 38 07 a2 3d
       0.38574472 -0.22805846 -0.24961789 0.07911533
0003d0 86 2f 1a 3e 83 ac 80 be f5 c7 a3 3d 5e 3d d9 bd
       0.15057191 -0.25131616 0.07997123 -0.10607408
0003e0 01 40 40 3e 00 e6 2a bc d2 d2 9b be e3 35 0d be
       0.18774416 -0.010430813 -0.3043428 -0.13790087
0003f0 4f 88 ce 3e 1b 64 c8 3d c4 10 4c be 63 f1 37 3e
       0.4033837 0.097847186 -0.1992827 0.17963175

net.net.4.bias f4 [10]
000000 59 d0 45 be 7d ac a3 be e3 28 ac 3f 9d 5d de 3e
       -0.1931776 -0.31967536 1.3449978 0.43430796
000010 44 dd 85 be 98 62 11 be eb 36 79 bf 74 53 ec 3e
       -0.26145375 -0.14197767 -0.97349423 0.4615742
000020 a6 d7 4e 3e fc 98 0d bf
       0.20199451 -0.5531156
