continual learning/ModTest2/results/gem_GMod2Cov_nv_0.0_False_5_mnist_rotations_reduced.pt_2021_08_13_18_40_12_b15ab5f512594f79bf94839990e754c8.pt (torch, 368925 bytes, 8 tensors)

tensor f4 [101]
0	0x00000000	0.0
1	0x00000000	0.0
2	0x00000000	0.0
3	0x00000000	0.0
4	0x00000000	0.0
5	0x00000000	0.0
6	0x00000000	0.0
7	0x00000000	0.0
8	0x00000000	0.0
9	0x00000000	0.0
10	0x00000000	0.0
11	0x3f800000	1.0
12	0x3f800000	1.0
13	0x3f800000	1.0
14	0x3f800000	1.0
15	0x3f800000	1.0
16	0x3f800000	1.0
17	0x3f800000	1.0
18	0x3f800000	1.0
19	0x3f800000	1.0
20	0x3f800000	1.0
21	0x40000000	2.0
22	0x40000000	2.0
23	0x40000000	2.0
24	0x40000000	2.0
25	0x40000000	2.0
26	0x40000000	2.0
27	0x40000000	2.0
28	0x40000000	2.0
29	0x40000000	2.0
30	0x40000000	2.0
31	0x40400000	3.0
32	0x40400000	3.0
33	0x40400000	3.0
34	0x40400000	3.0
35	0x40400000	3.0
36	0x40400000	3.0
37	0x40400000	3.0
38	0x40400000	3.0
39	0x40400000	3.0
40	0x40400000	3.0
41	0x40800000	4.0
42	0x40800000	4.0
43	0x40800000	4.0
44	0x40800000	4.0
45	0x40800000	4.0
46	0x40800000	4.0
47	0x40800000	4.0
48	0x40800000	4.0
49	0x40800000	4.0
50	0x40800000	4.0
51	0x40a00000	5.0
52	0x40a00000	5.0
53	0x40a00000	5.0
54	0x40a00000	5.0
55	0x40a00000	5.0
56	0x40a00000	5.0
57	0x40a00000	5.0
58	0x40a00000	5.0
59	0x40a00000	5.0
60	0x40a00000	5.0
61	0x40c00000	6.0
62	0x40c00000	6.0
63	0x40c00000	6.0
64	0x40c00000	6.0
65	0x40c00000	6.0
66	0x40c00000	6.0
67	0x40c00000	6.0
68	0x40c00000	6.0
69	0x40c00000	6.0
70	0x40c00000	6.0
71	0x40e00000	7.0
72	0x40e00000	7.0
73	0x40e00000	7.0
74	0x40e00000	7.0
75	0x40e00000	7.0
76	0x40e00000	7.0
77	0x40e00000	7.0
78	0x40e00000	7.0
79	0x40e00000	7.0
80	0x40e00000	7.0
81	0x41000000	8.0
82	0x41000000	8.0
83	0x41000000	8.0
84	0x41000000	8.0
85	0x41000000	8.0
86	0x41000000	8.0
87	0x41000000	8.0
88	0x41000000	8.0
89	0x41000000	8.0
90	0x41000000	8.0
91	0x41100000	9.0
92	0x41100000	9.0
93	0x41100000	9.0
94	0x41100000	9.0
95	0x41100000	9.0
96	0x41100000	9.0
97	0x41100000	9.0
98	0x41100000	9.0
99	0x41100000	9.0
100	0x41100000	9.0

tensor f4 [101, 10]
0	0x3d86f694	0.0659
1	0x3d93a92a	0.0721
2	0x3d2ee632	0.0427
3	0x3d9fbe77	0.078
4	0x3dcac083	0.099
5	0x3dd0b0f2	0.1019
6	0x3dd14e3c	0.1022
7	0x3df24745	0.1183
8	0x3de1e4f7	0.1103
9	0x3dfe9100	0.1243
10	0x3edfb15b	0.4369
11	0x3ed573eb	0.4169
12	0x3ecc2f83	0.3988
13	0x3e9cac08	0.306
14	0x3e83afb8	0.2572
15	0x3e4985f0	0.1968
16	0x3e200d1b	0.1563
17	0x3e125461	0.1429
18	0x3dea7efa	0.1145
19	0x3dffcb92	0.1249
20	0x3f08a090	0.5337
21	0x3efc1bda	0.4924
22	0x3ef30be1	0.4747
23	0x3ea94467	0.3306
24	0x3e85aee6	0.2611
25	0x3e4ebee0	0.2019
26	0x3e114e3c	0.1419
27	0x3e063f14	0.1311
28	0x3dbf1412	0.0933
29	0x3dac3c9f	0.0841
30	0x3f0ef9db	0.5585
31	0x3f049ba6	0.518
32	0x3ef7e910	0.4842
33	0x3eaf0d84	0.3419
34	0x3e8cb296	0.2748
35	0x3e55e9e2	0.2089
36	0x3e1b8bac	0.1519
37	0x3e0ebee0	0.1394
38	0x3de69ad4	0.1126
39	0x3dcdd2f2	0.1005
40	0x3f3edfa4	0.7456
41	0x3f3b50b1	0.7317
42	0x3f376c8b	0.7165
43	0x3f07ced9	0.5305
44	0x3ed5a858	0.4173
45	0x3e9de69b	0.3084
46	0x3e59999a	0.2125
47	0x3e48ce70	0.1961
48	0x3e119ce0	0.1422
49	0x3dfa0f91	0.1221
50	0x3f2eab36	0.6823
51	0x3f27d567	0.6556
52	0x3f211340	0.6292
53	0x3ee0902e	0.4386
54	0x3eb16873	0.3465
55	0x3e84816f	0.2588
56	0x3e39db23	0.1815
57	0x3e2ae7d5	0.1669
58	0x3df62b6b	0.1202
59	0x3dcc63f1	0.0998
60	0x3f3a161e	0.7269
61	0x3f34dd2f	0.7065
62	0x3f2f34d7	0.6844
63	0x3efe00d2	0.4961
64	0x3ec425af	0.3831
65	0x3e8f5c29	0.28
66	0x3e3fb15b	0.1872
67	0x3e295e9e	0.1654
68	0x3dea7efa	0.1145
69	0x3dd8793e	0.1057
70	0x3f317c1c	0.6933
71	0x3f2c91d1	0.6741
72	0x3f283127	0.657
73	0x3ef8ef35	0.4862
74	0x3ec10625	0.377
75	0x3e969446	0.2941
76	0x3e4b923a	0.1988
77	0x3e3c5048	0.1839
78	0x3e0b4396	0.136
79	0x3e0346dc	0.1282
80	0x3f504ea5	0.8137
81	0x3f471de7	0.7778
82	0x3f41eb85	0.7575
83	0x3f0b6ae8	0.5446
84	0x3edd6388	0.4324
85	0x3e9bc01a	0.3042
86	0x3e525461	0.2054
87	0x3e39f55a	0.1816
88	0x3e013a93	0.1262
89	0x3ddcfaad	0.1079
90	0x3f3d97f6	0.7406
91	0x3f32b6ae	0.6981
92	0x3f2e2196	0.6802
93	0x3efaacda	0.4896
94	0x3ecdab9f	0.4017
95	0x3e9e9e1b	0.3098
96	0x3e664c30	0.2249
97	0x3e4b7803	0.1987
98	0x3e0a57a8	0.1351
99	0x3de66666	0.1125
100	0x3f4c432d	0.7979
101	0x3f421965	0.7582
102	0x3f3bcd36	0.7336
103	0x3f0758e2	0.5287
104	0x3ed58106	0.417
105	0x3e9ce076	0.3064
106	0x3e553261	0.2082
107	0x3e3d21ff	0.1847
108	0x3e020c4a	0.127
109	0x3de809d5	0.1133
110	0x3f530553	0.8243
111	0x3f4e2eb2	0.8054
112	0x3f4bda51	0.7963
113	0x3f26e979	0.652
114	0x3f0b50b1	0.5442
115	0x3ed78d50	0.421
116	0x3e8db8bb	0.2768
117	0x3e70be0e	0.2351
118	0x3e170a3d	0.1475
119	0x3e03e426	0.1288
120	0x3f56ae7d	0.8386
121	0x3f52d0e5	0.8235
122	0x3f4f4880	0.8097
123	0x3f2631f9	0.6492
124	0x3f08adac	0.5339
125	0x3ed43958	0.4145
126	0x3e83c9ef	0.2574
127	0x3e600d1b	0.2188
128	0x3e03afb8	0.1286
129	0x3deae7d5	0.1147
130	0x3f53404f	0.8252
131	0x3f50f27c	0.8162
132	0x3f4dcc64	0.8039
133	0x3f251eb8	0.645
134	0x3f07bb30	0.5302
135	0x3ed15b57	0.4089
136	0x3e8631f9	0.2621
137	0x3e63bcd3	0.2224
138	0x3e0c154d	0.1368
139	0x3de9e1b1	0.1142
140	0x3f5a1cac	0.852
141	0x3f5652bd	0.8372
142	0x3f50cb29	0.8156
143	0x3f25182b	0.6449
144	0x3f066666	0.525
145	0x3ed4538f	0.4147
146	0x3e8f837b	0.2803
147	0x3e7c9eed	0.2467
148	0x3e14e3bd	0.1454
149	0x3e000000	0.125
150	0x3f5645a2	0.837
151	0x3f58bac7	0.8466
152	0x3f57381d	0.8407
153	0x3f39a027	0.7251
154	0x3f1985f0	0.5997
155	0x3ef19ce0	0.4719
156	0x3e9e69ad	0.3094
157	0x3e874539	0.2642
158	0x3e2a4a8c	0.1663
159	0x3e104817	0.1409
160	0x3f40346e	0.7508
161	0x3f3d6388	0.7398
162	0x3f369446	0.7132
163	0x3f0ae148	0.5425
164	0x3ee2c3ca	0.4429
165	0x3eb74bc7	0.358
166	0x3e80346e	0.2504
167	0x3e5e353f	0.217
168	0x3e089a02	0.1334
169	0x3dea4a8c	0.1144
170	0x3f5b020c	0.8555
171	0x3f5e4f76	0.8684
172	0x3f5c7e28	0.8613
173	0x3f3a9fbe	0.729
174	0x3f1bcd36	0.6086
175	0x3efc84b6	0.4932
176	0x3ea9a027	0.3313
177	0x3e92e48f	0.2869
178	0x3e21b08a	0.1579
179	0x3e03afb8	0.1286
180	0x3f55b574	0.8348
181	0x3f57c1be	0.8428
182	0x3f5594af	0.8343
183	0x3f34e3bd	0.7066
184	0x3f15a858	0.5846
185	0x3eec3c9f	0.4614
186	0x3ea703b0	0.3262
187	0x3e92a305	0.2864
188	0x3e2425af	0.1603
189	0x3dff2e49	0.1246
190	0x3f4b923a	0.7952
191	0x3f4e00d2	0.8047
192	0x3f4aee63	0.7927
193	0x3f2dbf48	0.6787
194	0x3f0f9097	0.5608
195	0x3eee8a72	0.4659
196	0x3ea9c77a	0.3316
197	0x3e9652bd	0.2936
198	0x3e343958	0.176
199	0x3e0a71de	0.1352
200	0x3f4f4f0e	0.8098
201	0x3f510625	0.8165
202	0x3f4fb15b	0.8113
203	0x3f29c77a	0.6632
204	0x3f12c3ca	0.5733
205	0x3eef4f0e	0.4674
206	0x3eb04817	0.3443
207	0x3e9b4a23	0.3033
208	0x3e31758e	0.1733
209	0x3e0be0df	0.1366
210	0x3f44e3bd	0.7691
211	0x3f4645a2	0.7745
212	0x3f440b78	0.7658
213	0x3f2afb7f	0.6679
214	0x3f14a8c1	0.5807
215	0x3efc01a3	0.4922
216	0x3eb8ef35	0.3612
217	0x3ea63f14	0.3247
218	0x3e4ef34d	0.2021
219	0x3e30be0e	0.1726
220	0x3f5e425b	0.8682
221	0x3f6212d7	0.8831
222	0x3f6240b8	0.8838
223	0x3f421965	0.7582
224	0x3f256d5d	0.6462
225	0x3f0566cf	0.5211
226	0x3eb97f63	0.3623
227	0x3ea39581	0.3195
228	0x3e413a93	0.1887
229	0x3e1d14e4	0.1534
230	0x3f53bcd3	0.8271
231	0x3f59c0ec	0.8506
232	0x3f5a161e	0.8519
233	0x3f388ce7	0.7209
234	0x3f202de0	0.6257
235	0x3f019653	0.5062
236	0x3ebf8a09	0.3741
237	0x3eaaa64c	0.3333
238	0x3e525461	0.2054
239	0x3e2de00d	0.1698
240	0x3f4cc63f	0.7999
241	0x3f4c6a7f	0.7985
242	0x3f4a0275	0.7891
243	0x3f20068e	0.6251
244	0x3f066666	0.525
245	0x3edb573f	0.4284
246	0x3e9c9eed	0.3059
247	0x3e8ded29	0.2772
248	0x3e3d21ff	0.1847
249	0x3e1f6fd2	0.1557
250	0x3f59fbe7	0.8515
251	0x3f5bac71	0.8581
252	0x3f5c01a3	0.8594
253	0x3f3fa440	0.7486
254	0x3f242c3d	0.6413
255	0x3f049518	0.5179

net.net.0.weight f4 [100, 784]
0	0x3ca9b3e8	0.020715669
1	0x3d8383c4	0.06421617
2	0x3c89e3e8	0.016832307
3	0x3d80dafa	0.062917665
4	0xbd971861	-0.07377697
5	0xbda6f321	-0.08151842
6	0x3af9b3c0	0.0019050762
7	0x3cb19940	0.02167952
8	0x3b7ea8e0	0.0038857982
9	0x3b279b20	0.002557464
10	0x3d6d98b7	0.05800697
11	0xbca8d8e3	-0.020611232
12	0x3d50e081	0.050995354
13	0xbc245973	-0.010031092
14	0xbd07c39d	-0.033145536
15	0xbd514fed	-0.051101614
16	0x3d544c2e	0.051830463
17	0x3d830ec3	0.063993
18	0xbd61e5d6	-0.05515083
19	0xbcfbe693	-0.030749595
20	0xbd8377f3	-0.06419363
21	0x3c1cf430	0.009579703
22	0xbac2e9f6	-0.0014870751
23	0xbce5b410	-0.028039962
24	0xbd8b2c74	-0.06795588
25	0x3d038a2a	0.032114185
26	0xbd35dcb1	-0.04439992
27	0xbd25f68d	-0.040518332
28	0xbd6d53cd	-0.057941247
29	0xbc470260	-0.012146562
30	0x3d5b2254	0.053499535
31	0xbc6f7d98	-0.014617346
32	0xbd8467a0	-0.064650774
33	0x3c3e906a	0.011631111
34	0x3cbea0c5	0.02327002
35	0xbd4ed58d	-0.050496627
36	0xbcfcf8b8	-0.030880317
37	0xbd36fb65	-0.044673342
38	0xbdb371ae	-0.08761917
39	0x3d465b18	0.048426718
40	0xbd81fb8a	-0.063468054
41	0xbd32186d	-0.043480325
42	0x3d42d7ef	0.04756921
43	0x3cff4332	0.03115997
44	0xbd8701b9	-0.065921254
45	0x3c352b21	0.011057646
46	0xbcafe8b1	-0.02147326
47	0xbd51e909	-0.05124763
48	0x3cb412b2	0.02198157
49	0x3d837ec3	0.06420662
50	0x3d7a4f9b	0.061111074
51	0xbc56d910	-0.013113275
52	0x3c036d38	0.008021645
53	0xbc30c530	-0.010789201
54	0xbd8945e5	-0.067027844
55	0xbd1c8ea0	-0.038221955
56	0x3d4fe244	0.050752893
57	0xbd25042c	-0.04028718
58	0x3c689d30	0.014197633
59	0x3abb5280	0.0014291555
60	0x3c78b8d8	0.015180789
61	0x3d6c80e0	0.057740092
62	0x3d988bc5	0.07448534
63	0xbd21ed68	-0.03953305
64	0x3ca5e39a	0.02025013
65	0xbd8d1890	-0.068894506
66	0x3d89c900	0.06727791
67	0xbd0bdbd8	-0.034145206
68	0xbb5cc986	-0.0033689453
69	0xbca6bb8f	-0.020353107
70	0xbd963a51	-0.07335342
71	0xbc700801	-0.014650346
72	0xbd19c3da	-0.037540294
73	0x3ce72013	0.028213536
74	0xbbe1106a	-0.006868412
75	0xbc8dadda	-0.017294813
76	0x3d83d04f	0.06436216
77	0xbd184d2a	-0.037182964
78	0x3d42144b	0.047382634
79	0xbc433208	-0.011913784
80	0x3d717c74	0.05895658
81	0xbda71112	-0.08157553
82	0xbd9adbab	-0.075614296
83	0x3d28784e	0.041130356
84	0x3d826a66	0.0636795
85	0x3ce106ec	0.02746912
86	0x3b053d80	0.0020330846
87	0x3d4d9e5c	0.05019985
88	0xbd1945f2	-0.03742022
89	0xbca5b53b	-0.020228019
90	0xbd4af4c0	-0.049549818
91	0xbcfa71d8	-0.030571863
92	0xbcdf87e3	-0.027286476
93	0xba81855e	-0.0009881665
94	0xbd9c752d	-0.07639537
95	0x3ced3ab1	0.02895865
96	0xb665f1c2	-3.426438e-06
97	0xbd88013d	-0.06640861
98	0x3cf5e15d	0.030014688
99	0xbdf3f67f	-0.1191225
100	0xbd8f3cc3	-0.06994011
101	0xbdf4388d	-0.11924849
102	0xbcc4219a	-0.023941804
103	0xbd55ef83	-0.05223037
104	0xbc24dd4c	-0.010062527
105	0x3cfb105f	0.030647455
106	0xbc5bbb4c	-0.013411354
107	0xbd059811	-0.032615725
108	0xbd92454b	-0.07142123
109	0x3d6b2b1e	0.057414167
110	0x3d665a20	0.056238294
111	0x3c9a4678	0.01883243
112	0x3cd0f6b8	0.02550827
113	0xbd7a75dc	-0.061147556
114	0xbcc09f92	-0.023513589
115	0x3c905bdc	0.017621927
116	0x3d18e726	0.037329815
117	0xbd9df457	-0.0771262
118	0xbd78a469	-0.06070367
119	0xbd4412f8	-0.047869653
120	0x3d98328d	0.07431517
121	0xbd124b4c	-0.03571634
122	0xbd44aece	-0.04801827
123	0xbd40e9bb	-0.047097903
124	0xbd591ca2	-0.053005822
125	0xbc8e9f44	-0.017409928
126	0xbe027768	-0.12740862
127	0xbd46286e	-0.0483784
128	0xbdae3c62	-0.08507611
129	0xbbe3c4b0	-0.006950937
130	0xbc7ac665	-0.01530609
131	0xbd1c10f6	-0.038102113
132	0xbd5e7a03	-0.05431558
133	0x3d251dab	0.040311497
134	0xbdb9b1f9	-0.09067149
135	0x3c2c12ff	0.010502576
136	0x3d04449b	0.03229199
137	0x3d34a61c	0.044103727
138	0xbd58df42	-0.05294729
139	0xbd8a3e16	-0.06750123
140	0x3c28f620	0.010312587
141	0xbd18b0a2	-0.037277825
142	0x3cfbbe68	0.030730441
143	0xbd95f13b	-0.07321402
144	0xbcbc0a20	-0.022954047
145	0xbd0c48c1	-0.03424907
146	0x3cabe9f2	0.020985577
147	0x3ba2de0e	0.0049703186
148	0x3d6e2f33	0.05815048
149	0xbda96ba9	-0.08272488
150	0xbdbe824e	-0.093021974
151	0xbcba8334	-0.02276764
152	0x3d364809	0.04450229
153	0xbd78fe79	-0.06078956
154	0xbc86fcfb	-0.016478052
155	0xbc1d70e2	-0.009609433
156	0x3d779f78	0.060454816
157	0xbdb44b54	-0.0880343
158	0x3c84d84c	0.01621642
159	0xbc57e6b4	-0.0131775625
160	0xbd989d05	-0.07451824
161	0xbdec75a8	-0.11545879
162	0x3d1b3106	0.03788855
163	0xbcc3410f	-0.023834733
164	0x3a134f45	0.0005619417
165	0xbd99adbc	-0.0750384
166	0xbd85bbe8	-0.06529981
167	0xbd7551a7	-0.059892323
168	0xbd734298	-0.05938968
169	0x3cb29cd9	0.021803306
170	0x3d7535e8	0.059865862
171	0xbcf3286c	-0.02968236
172	0x3c98d86e	0.01865789
173	0x3d6ca5f1	0.05777544
174	0x3de7d779	0.11320395
175	0x3cee7135	0.029106716
176	0x3d2074c2	0.03917385
177	0x3c0f6076	0.008751025
178	0x3c92ed79	0.017935501
179	0xbbb64e97	-0.005563568
180	0x3d731154	0.059342697
181	0xbc70c2c9	-0.014694878
182	0xbd259e33	-0.040434074
183	0xbb4f2bd7	-0.0031611824
184	0xbd9ae582	-0.075633064
185	0xbd40b002	-0.047042854
186	0x3b9a8550	0.004715599
187	0xbda4e4cc	-0.08051452
188	0xbdc58ef6	-0.09646408
189	0x3ca60fd1	0.020271214
190	0xbc807a84	-0.01568342
191	0xbd49de94	-0.049284533
192	0xbce9996d	-0.028515542
193	0x3c6b3a08	0.014357097
194	0x3d8ee636	0.06977503
195	0x3d8032a5	0.0625966
196	0xbd8604e6	-0.06543903
197	0x3bb1f418	0.0054307096
198	0x3d2482fc	0.04016398
199	0x3d3ec5bd	0.046575297
200	0x3b56825b	0.0032731507
201	0x3b355fca	0.0027675503
202	0x3dc7b559	0.09751386
203	0x3d83e3a7	0.064399056
204	0x3c05c79a	0.0081652645
205	0x3da79d8c	0.081843466
206	0x3c8774f2	0.016535256
207	0xbc207ec3	-0.009795847
208	0xbd2c579a	-0.04207573
209	0x3d4e75ed	0.05040543
210	0x3cffb18b	0.031212589
211	0x3d8575f5	0.06516639
212	0xbdab63f4	-0.08368674
213	0x3de40340	0.111334324
214	0x3ca30d84	0.019903906
215	0xbda79277	-0.08182233
216	0xbbabd556	-0.0052439375
217	0xbd2d284b	-0.042274754
218	0xbd85177e	-0.064986214
219	0x3d025c09	0.031826053
220	0x3d6ada9c	0.05733739
221	0x3d451281	0.04811335
222	0x3da29548	0.079386294
223	0x3d1b1ec6	0.037871145
224	0x3c9dfe34	0.019286253
225	0xbbedc9be	-0.0072567156
226	0x3dbae948	0.09126526
227	0x3df51400	0.11966705
228	0x3ce85c32	0.028364275
229	0x3d8c029a	0.06836434
230	0x3b14f8fc	0.0022731414
231	0x3d0cdda6	0.034391068
232	0xbcb74177	-0.022370083
233	0x3d12bbf6	0.035823785
234	0x3da32845	0.07966665
235	0xbc01ef61	-0.007930608
236	0xbde1f7c8	-0.11033589
237	0xbc0ed26e	-0.008717163
238	0x3d359415	0.044330675
239	0x3e2b6c55	0.16740544
240	0x3dc1cb95	0.09462658
241	0x3d1bdfff	0.038055416
242	0xbd8bdd7f	-0.068293564
243	0x3cd3c3b2	0.02585015
244	0x3d0bcd8e	0.03413158
245	0x3d046bbd	0.03232931
246	0xbd9de04c	-0.07708797
247	0xbcfec6a1	-0.031100573
248	0xbb83649e	-0.0040097972
249	0xbd89a263	-0.06720426
250	0xbd9d8732	-0.07691802
251	0x3d3229f6	0.04349705
252	0x3d4a8b4c	0.04944925
253	0x3d4cdffb	0.050018292
254	0x3d22129b	0.039568525
255	0x3dce635b	0.10077544

net.net.0.bias f4 [100]
0	0x3bd602be	0.0065310886
1	0xbd079c83	-0.033108246
2	0xbc979e65	-0.018508146
3	0xbd765323	-0.06013788
4	0xbb9c3622	-0.0047671953
5	0x3cbe6c52	0.02324501
6	0x3e187fd1	0.14892508
7	0x3d2631f3	0.04057498
8	0x3bd62235	0.0065348395
9	0x3dbea321	0.09308458
10	0x3ce59bb8	0.028028354
11	0xbc2539da	-0.010084594
12	0x3d6c8033	0.057739448
13	0xbd8d1497	-0.06888693
14	0xbd69426c	-0.05694811
15	0x3cc2bc28	0.02377136
16	0xbdadfae9	-0.08495123
17	0xbc707b0b	-0.014677773
18	0xbbc0792c	-0.00587382
19	0x3e062dea	0.13103452
20	0xbd0b6cb5	-0.034039218
21	0x3d479d23	0.04873384
22	0xbdbf50bf	-0.09341573
23	0xbbba3200	-0.00568223
24	0xbcbe8bb7	-0.02325998
25	0x3e138142	0.14404777
26	0xbcf4831b	-0.029847672
27	0xbcdac865	-0.026706884
28	0x3daa2877	0.08308499
29	0xb9a549d1	-0.0003152625
30	0x3ba5059a	0.005036068
31	0x3cb37422	0.021905962
32	0xbdc05ef8	-0.09393114
33	0x3d463bd9	0.04839692
34	0xbd0ec5fe	-0.03485679
35	0x3d479f3f	0.048735853
36	0x3c7c75dd	0.01540896
37	0x3d6d75d7	0.05797371
38	0x3cd25e7f	0.025679825
39	0x3c5688cf	0.013094141
40	0xbca67ccc	-0.02032318
41	0x3d32d075	0.04365583
42	0xbd8e5e52	-0.06951584
43	0xbdcbb720	-0.09947038
44	0xbe27d596	-0.1639007
45	0xbd10f1ee	-0.035386972
46	0xbc152212	-0.009102361
47	0xbd74a372	-0.059726186
48	0x3cd5acda	0.026083399
49	0xbda00825	-0.078140534
50	0xbe0b5003	-0.13604741
51	0x3d7916c0	0.06081271
52	0xbd919778	-0.071089685
53	0x3d8f24f9	0.06989474
54	0xbc196f97	-0.009364984
55	0xbc9a61ef	-0.018845527
56	0xbce733ef	-0.028223006
57	0xbd72d2fb	-0.059283238
58	0xbd9e80ba	-0.077393964
59	0xbc11c753	-0.00889762
60	0xbce75d54	-0.028242745
61	0x3cd6ff5b	0.02624481
62	0x3d2a2eb6	0.041548453
63	0xbce04489	-0.02737643
64	0x3d8fd7ba	0.070235685
65	0x3c7a9491	0.01529421
66	0xbb89a4a9	-0.004200537
67	0x3de84ab4	0.113423735
68	0x3e18b816	0.14913973
69	0x3e16400a	0.14672866
70	0xbbae1bf9	-0.005313393
71	0x3d9a3979	0.07530493
72	0x3d670b7f	0.056407448
73	0xbcc0c7a9	-0.023532705
74	0xbc7f61fe	-0.015587328
75	0xbafe7fbf	-0.0019416733
76	0xbc21aed9	-0.009868347
77	0x3dc76a5b	0.097370826
78	0x3d0c64c0	0.03427577
79	0x3d4e02cb	0.050295632
80	0x3cce6f7e	0.025199648
81	0xbc05f7b1	-0.00817673
82	0xbda0a5fc	-0.07844159
83	0xbd288b2b	-0.041148346
84	0x3e1fadcf	0.15593646
85	0xbd8831da	-0.066501334
86	0xbc252225	-0.0100789415
87	0x3d93ff25	0.07226399
88	0x3ca84320	0.02053982
89	0xbd19c893	-0.037544798
90	0x3df30126	0.118654534
91	0x3de7ef09	0.11324889
92	0xbbb9baa7	-0.0056680026
93	0xbd784620	-0.06061375
94	0x3d368bdb	0.04456697
95	0xbca4d421	-0.020120682
96	0x3ca688ce	0.020328905
97	0x3d6e0042	0.058105715
98	0x3da7bb58	0.0819003
99	0x3b9393b6	0.0045036925

net.net.2.weight f4 [100, 100]
0	0x3cc0351c	0.023462825
1	0xbe18cbda	-0.14921513
2	0x3c0dd6e2	0.008657189
3	0x3dde1ede	0.10845731
4	0xbd2ad88e	-0.04171043
5	0xbbde29d5	-0.006779889
6	0x3de6d1cb	0.112704836
7	0xbe097344	-0.13422877
8	0x3d6c1869	0.057640467
9	0x3de551e6	0.111972615
10	0xbdea1c40	-0.114311695
11	0x3cecd246	0.02890886
12	0xbdeee282	-0.11664297
13	0xbe269639	-0.16268243
14	0x3dff7ed6	0.12475364
15	0xbe216c04	-0.15763861
16	0xbdb2ca07	-0.0872994
17	0xbdf981e1	-0.121829756
18	0x3dc38e27	0.09548598
19	0x3ca72f29	0.02040823
20	0x3dfb676e	0.12275587
21	0x3dcdc64a	0.10047586
22	0x3db55031	0.08853186
23	0x3da64d7a	0.08120246
24	0x3e029666	0.12752685
25	0xbe127442	-0.14302161
26	0xbdc4f27d	-0.096165635
27	0xbd99d8a3	-0.07512023
28	0xbe04f243	-0.1298304
29	0xbdfc5928	-0.12321693
30	0xbe1caf64	-0.15301281
31	0xbd7462a4	-0.059664384
32	0x3d94b080	0.07260227
33	0xbd91d766	-0.07121162
34	0x3e0faccc	0.1403076
35	0xbdade4d5	-0.08490912
36	0xbe3066fe	-0.17226788
37	0x3c5a296d	0.013315541
38	0xbc1d8e70	-0.009616479
39	0xbe1797c0	-0.14803982
40	0x3dd74caa	0.105126694
41	0xbdcde86f	-0.10054099
42	0xbe1f4fe8	-0.15557826
43	0xbd2cad3a	-0.04215739
44	0x3d35e0a6	0.044403695
45	0xbdeb5dd0	-0.11492503
46	0xbd5a7381	-0.05333281
47	0xbe091a1b	-0.13388865
48	0xbd58b768	-0.052909285
49	0xbd9ceeca	-0.07662733
50	0xbd19821a	-0.03747759
51	0xbca3fd6b	-0.0200183
52	0xbd3dac89	-0.04630712
53	0xbd85edf2	-0.06539525
54	0xbdb66e70	-0.08907783
55	0xbd8c0afa	-0.06838031
56	0x3e104741	0.14089681
57	0xbd2bd835	-0.041954238
58	0x3d4ae488	0.04953435
59	0x3db21693	0.08695712
60	0xbe25f127	-0.16205274
61	0xbe022c47	-0.12712203
62	0x3dee74ed	0.116433956
63	0xbd5ebcee	-0.054379396
64	0x3d3022f1	0.043002073
65	0x3dd3514f	0.10318243
66	0x3aa62424	0.0012675566
67	0x3dd75d3d	0.10515831
68	0x3df90e5c	0.12160942
69	0xbe24f0ca	-0.16107479
70	0x3d534a3c	0.051584467
71	0xbd89e85a	-0.06733771
72	0x3ddfc44b	0.10926112
73	0xbd29262d	-0.041296173
74	0xbdf36213	-0.118839405
75	0xbdb0102f	-0.08596837
76	0xbd0b48fb	-0.034005146
77	0xbe20fef4	-0.15722257
78	0xbe223a52	-0.1584256
79	0xbe268ff6	-0.16265854
80	0x3df66177	0.12030309
81	0xbc17249a	-0.009225035
82	0xbd8f0b0d	-0.0698453
83	0x3cde77d3	0.027156746
84	0xbdf82047	-0.121155314
85	0xbdb0e20f	-0.08636867
86	0xbe308b39	-0.17240609
87	0xbdd24bc0	-0.102683544
88	0xbdd8762c	-0.105694145
89	0xbdfb5ca9	-0.12273533
90	0xbd5ac296	-0.053408228
91	0x3c90a1bc	0.017655246
92	0x3e2ba367	0.16761552
93	0x3d82a9c5	0.06380037
94	0x3d40a8f1	0.047036115
95	0xbddf6cda	-0.10909434
96	0xbd9158d2	-0.07097019
97	0x3a746470	0.00093228277
98	0xbcc793eb	-0.024362525
99	0xbc3e623e	-0.011620102
100	0x3e6c74e9	0.23091473
101	0xbccecbec	-0.025243722
102	0x3e850a4f	0.25984427
103	0xbbb73cec	-0.0055919793
104	0xbc1816c2	-0.00928277
105	0x3d8c95ec	0.06864533
106	0x3e20919c	0.15680546
107	0xbe5336f4	-0.20626432
108	0x3c55952b	0.013036053
109	0xbdec94c6	-0.11551814
110	0xbe3acc68	-0.18242037
111	0x3b61b2c2	0.0034438823
112	0xbe3b48cb	-0.18289487
113	0xbe11d769	-0.14242329
114	0xbe672cbd	-0.2257566
115	0xbe6e0526	-0.23244151
116	0x3da91708	0.08256346
117	0xbcc95043	-0.024574405
118	0xbd36e32b	-0.044650238
119	0x3d25456d	0.040349413
120	0xbb3b9267	-0.0028621198
121	0x3da6a580	0.08137035
122	0x3e39740b	0.18110673
123	0x3dcb5c5b	0.09929725
124	0xbdc0b131	-0.094087966
125	0x3e119f5a	0.14220944
126	0xbe057266	-0.13031921
127	0x3e002a4c	0.12516135
128	0xbdd30da5	-0.10305337
129	0x3c0d5560	0.008626312
130	0x3d189dd9	0.03725991
131	0xbdfe9c39	-0.12432141
132	0x3d676b6f	0.05649894
133	0x3cd5eacf	0.026112942
134	0xbd01c3fc	-0.031681046
135	0xbe1fd7e2	-0.15609697
136	0xbd2dd099	-0.042435262
137	0x3e2ef617	0.17086063
138	0x3e88fc9e	0.26755232
139	0xbda6c747	-0.08143478
140	0xbe250da0	-0.16118479
141	0xbdbc0cfa	-0.091821626
142	0x3cd3dc89	0.025861995
143	0xbe086daf	-0.13323091
144	0x3db2d8cd	0.08732758
145	0xbe23e25e	-0.16004321
146	0x3cf8d24c	0.030373715
147	0x3da11bc8	0.07866627
148	0xbdb89bb7	-0.09014075
149	0xbe9d5b67	-0.30733797
150	0xbe372ca8	-0.17888129
151	0x3de2df11	0.11077703
152	0xbe0ac49f	-0.13551567
153	0xbe40fe14	-0.18846923
154	0x3dd8aba0	0.1057961
155	0xbde5af5e	-0.11215089
156	0xbdc15d63	-0.0944164
157	0xbe5117ee	-0.20419285
158	0x3e2db271	0.16962601
159	0x3e3104f4	0.17287046
160	0x3d8aba1d	0.067737795
161	0x3e65c43b	0.22438137
162	0xbd5a919e	-0.053361528
163	0xbe180ac4	-0.14847857
164	0xbdfc1e3d	-0.12310455
165	0x3e1fa6b5	0.15590937
166	0xbe44eac4	-0.19230181
167	0x3e3faa89	0.18717398
168	0x3db6bd46	0.0892282
169	0x3e08a9ad	0.13345976
170	0xbe78f742	-0.24313071
171	0x3e5cc40a	0.21559158
172	0x3d181b59	0.037135456
173	0x3dfaa058	0.122376144
174	0x3c8de195	0.01731948
175	0xbd3d864c	-0.046270654
176	0xbd9488bc	-0.072526425
177	0x3dc8a30a	0.09796722
178	0x3d5935df	0.05302989
179	0x3e3b81af	0.18311189
180	0xbe2b6b36	-0.16740116
181	0x3e1449a2	0.14481214
182	0xbe0de891	-0.13858248
183	0xbe083ab8	-0.1330365
184	0xbd855b6a	-0.065115765
185	0xbc0279f7	-0.007963649
186	0xbda02642	-0.07819797
187	0x3d3add60	0.045621276
188	0x3e2ccbbd	0.16874595
189	0xbd023615	-0.031789858
190	0xbcad0bdb	-0.021123817
191	0x3df81a31	0.121143706
192	0xbe18a818	-0.14907873
193	0x3ea4fb49	0.32222965
194	0x3e51e232	0.20496443
195	0xbe0a71b4	-0.13519937
196	0x3d9916ec	0.07475075
197	0xbd43a91c	-0.047768697
198	0xbca67500	-0.020319462
199	0xbd3455c3	-0.0440271
200	0xbad52966	-0.0016262948
201	0xbe18dc4f	-0.14927791
202	0xbceafe76	-0.02868579
203	0xbcefc9c5	-0.029271016
204	0x3d61a74c	0.055091187
205	0x3e042f30	0.12908626
206	0xbe486197	-0.19568478
207	0xbe147200	-0.14496613
208	0xbd66f3a3	-0.056384694
209	0x3d3cd6d9	0.046103332
210	0xbcf6229f	-0.030045805
211	0xbda69835	-0.081345
212	0xbdba97a2	-0.09110953
213	0x3d4ff0c1	0.05076671
214	0x3d08960e	0.03334623
215	0x3da59521	0.08085085
216	0x3e40b297	0.18818127
217	0xbd3c6419	-0.045993898
218	0x3e21f56a	0.15816274
219	0x3e02870f	0.12746833
220	0x3cd169cb	0.025563141
221	0x3d47c74b	0.048774045
222	0xbd839cc9	-0.06426389
223	0x3db290c5	0.08719019
224	0x3d986e16	0.07442872
225	0xbd2301f1	-0.039796773
226	0x3dd49572	0.10380067
227	0x3e0a9ee7	0.13537179
228	0x3db9c094	0.090699345
229	0x3d810e28	0.06301528
230	0x3de73458	0.11289281
231	0x3dc00aae	0.09377037
232	0xbdff7dbc	-0.12475154
233	0x3e08791f	0.13327454
234	0xbd640a5c	-0.055673942
235	0xbd973e6b	-0.07384952
236	0x3dbd67db	0.092483245
237	0x3e05178e	0.12997267
238	0xbe27edc6	-0.16399297
239	0xbde9f6d3	-0.11424031
240	0xbd68bbbd	-0.056819666
241	0xbcc9e65d	-0.024645979
242	0x3d387faa	0.045043625
243	0x3c420f05	0.011844401
244	0x3db3c298	0.0877735
245	0x3d79ab98	0.06095466
246	0xbe24a727	-0.16079389
247	0x3e303240	0.17206669
248	0xbd66cd24	-0.05634798
249	0x3d913ace	0.07091294
250	0xbdaf3139	-0.0855431
251	0x3d735366	0.059405707
252	0xbd824736	-0.06361239
253	0x3dd2b7c3	0.10288956
254	0xbe16624e	-0.14685938
255	0x3d81d4a6	0.063393876

net.net.2.bias f4 [100]
0	0xbbb5b14d	-0.0055448175
1	0x3e5b1a6a	0.21396795
2	0x3d31afd5	0.043380577
3	0x3ed91143	0.42395982
4	0x3e927eb2	0.28612286
5	0xbd06a898	-0.032875627
6	0xbe6673c6	-0.22505102
7	0x3f078412	0.529359
8	0xbca2ff14	-0.019897021
9	0x3d947c2a	0.07250245
10	0x3c844fe6	0.01615138
11	0xbcf0eb1c	-0.029408984
12	0xbda1773f	-0.078840725
13	0x3e82ca3e	0.25544924
14	0x3dbc3b8d	0.09191046
15	0x3e071ca3	0.13194518
16	0x3ecca306	0.39968127
17	0xbd7ae983	-0.06125785
18	0xbd6a5693	-0.05721147
19	0x3d8b2fad	0.06796203
20	0x3e53577e	0.20638844
21	0xbcfe604a	-0.031051774
22	0xbeab4b41	-0.33455852
23	0x3d192ba6	0.037395142
24	0x3d8cc960	0.06874347
25	0x3e32afac	0.17449826
26	0x3f4243e0	0.7588482
27	0xbb2ca167	-0.002634132
28	0x3cd7e64a	0.026354928
29	0x3e4f47e1	0.20242263
30	0x3d42cdf7	0.047559705
31	0x3f08b050	0.5339403
32	0x3f416c97	0.7555632
33	0x3e43795e	0.19089267
34	0x3ce0de83	0.027449852
35	0xbce4a03d	-0.027908439
36	0xbec0b6ad	-0.3763937
37	0x3ec1f0cb	0.37879023
38	0xbd6508da	-0.055916645
39	0x3ddb7037	0.10714763
40	0x3ed55423	0.41665754
41	0x3eab6e73	0.33482704
42	0x3e016e4b	0.1263973
43	0x3ebf4030	0.3735366
44	0x3ceaec19	0.028677033
45	0xbcfc0c1e	-0.030767497
46	0x3ea2c5fa	0.3179167
47	0xbd2d6e70	-0.04234165
48	0x3dc992ef	0.098424785
49	0x3e0231be	0.12714288
50	0x3d89e0c6	0.06732325
51	0x3df3b006	0.11898808
52	0x3d5f5665	0.05452575
53	0x3ef8ac71	0.48569062
54	0x3d609025	0.054824967
55	0x3ec63847	0.3871481
56	0x3e3ae564	0.18251568
57	0x3f29bb5d	0.6630152
58	0x3e00cae5	0.12577398
59	0x3c8c3c86	0.017118704
60	0x3eaa029e	0.33205122
61	0xbf03d754	-0.5150044
62	0xbdf0ca57	-0.11757343
63	0x3f055268	0.52078867
64	0xbd205489	-0.03914312
65	0xbcf20690	-0.029544145
66	0x3e1181ec	0.14209718
67	0x3ed0d85b	0.40790066
68	0x3f0e9925	0.5570243
69	0xbe0d6de1	-0.13811447
70	0x3ec295ce	0.38004917
71	0xbdbaafb6	-0.091155455
72	0x3dc92c3f	0.098228924
73	0x3e924453	0.28567752
74	0xbe0fb513	-0.14033918
75	0xbd8f5ce3	-0.070001386
76	0x3cf06ab9	0.029347764
77	0x3eae70c1	0.340704
78	0x3d7ce6a9	0.061743412
79	0x3e191608	0.1494981
80	0xbe4ec0b9	-0.20190705
81	0x3d73465f	0.059393283
82	0x3f54baac	0.8309734
83	0xbd85c9bf	-0.06532621
84	0xbe946100	-0.28980255
85	0x3f309197	0.6897215
86	0x3d10c526	0.035344265
87	0x3d49f351	0.04930431
88	0x3c84db9d	0.016218001
89	0xbe502b0c	-0.20328921
90	0xbd78d446	-0.060749315
91	0x3e8a6b61	0.2703505
92	0x3e936414	0.2878729
93	0x3ecd744c	0.4012779
94	0x3c2cb4b0	0.010541126
95	0x3e7daedd	0.24773736
96	0xbceb21e1	-0.028702678
97	0x3e6a9ce0	0.22911406
98	0xbd6c2bfd	-0.057659138
99	0x3f02f742	0.51158535

net.net.4.weight f4 [10, 100]
0	0x3d74d6b9	0.059775088
1	0xbe96ec5c	-0.29477203
2	0x3dae5336	0.08511965
3	0xbe91b2a6	-0.2845661
4	0xbdbfd428	-0.093666375
5	0x3c1034dc	0.008801665
6	0xbe197fdf	-0.14990185
7	0xbe76e5a3	-0.24111037
8	0x3e0a763d	0.13521667
9	0xbe0600f9	-0.13086309
10	0x3e5e5090	0.2171042
11	0x3db8915f	0.09012102
12	0x3c0c2fed	0.008556348
13	0x3d40cb2f	0.04706877
14	0xbe4e49aa	-0.20145288
15	0x3f2676b7	0.65024894
16	0x3da3e54f	0.080027215
17	0xbb38fbf6	-0.0028226352
18	0x3e8e6c17	0.2781684
19	0x3d00c178	0.031434506
20	0xbd3cb44c	-0.046070382
21	0x3e105237	0.14093862
22	0x3e21c6a4	0.15798432
23	0xbde1daf2	-0.11028089
24	0x3a5b80ea	0.00083733967
25	0x3ecbf83f	0.39837834
26	0xbe936b69	-0.28792885
27	0xbe333755	-0.17501576
28	0x3e2545b5	0.16139872
29	0x3f17e5a1	0.5933476
30	0x3d6156f9	0.055014584
31	0xbe8ea299	-0.27858427
32	0x3d3a74fd	0.045521725
33	0x3e11f03a	0.14251795
34	0xbe978603	-0.2959443
35	0x3d9d191f	0.07670807
36	0x3d1663d3	0.036716294
37	0x3eb0ef94	0.34557784
38	0xbcc5f69e	-0.024165448
39	0x3e20d28e	0.1570532
40	0xbe4d535f	-0.20051335
41	0xbe63ce23	-0.22246604
42	0xbe44b132	-0.1920822
43	0xbdc33044	-0.0953069
44	0x3eb0f1e1	0.3455954
45	0x3e0bac26	0.13639888
46	0xbe9d2a35	-0.30696264
47	0x3dc52417	0.09626024
48	0xbd880bcf	-0.06642877
49	0x3de9e2c0	0.11420202
50	0xbe1e336b	-0.15449302
51	0x3e0c9595	0.13728936
52	0x3eb93103	0.36170205
53	0x3e0ffe64	0.14061886
54	0x3dffb8b9	0.12486405
55	0xbe267dd6	-0.1625894
56	0x3d6cea22	0.057840474
57	0xbe0ef365	-0.13960035
58	0x3cbef29d	0.023309046
59	0x3e441696	0.19149241
60	0xbe708870	-0.23489547
61	0x3e9ef52c	0.31046426
62	0xbe5c668f	-0.21523498
63	0x3cff84e0	0.03119129
64	0x3df07f13	0.117429875
65	0x3deb123b	0.114780866
66	0x3da0a872	0.078446284
67	0xbda7d229	-0.08194382
68	0xbe556e16	-0.20842776
69	0xbd8e6114	-0.0695211
70	0x3e326e3f	0.17424868
71	0xbea03ca7	-0.31296274
72	0xbde36505	-0.11103252
73	0x3ebad665	0.36491695
74	0xbe03cd95	-0.12871392
75	0xbe25d9d8	-0.16196382
76	0x3d96ffad	0.07372985
77	0xbe9e4b38	-0.30916762
78	0xbe253879	-0.16134824
79	0xbdecb47c	-0.11557862
80	0xbde60811	-0.11232007
81	0xbddd455a	-0.108042434
82	0xbe7a257e	-0.24428365
83	0x3dbb3266	0.09140472
84	0xbe3cf022	-0.18450978
85	0x3d6ac5e6	0.057317637
86	0x3e56c1af	0.20972322
87	0x3e89f6cf	0.26946113
88	0x3c30d299	0.010792398
89	0xbe97d490	-0.2965436
90	0xbd92309f	-0.0713818
91	0xbdacf21d	-0.08444617
92	0xbd89487a	-0.06703277
93	0xbe715086	-0.23565874
94	0xbd2eea9d	-0.042704213
95	0xbd85b0cb	-0.06527861
96	0xbe017a78	-0.12644374
97	0xbdba4111	-0.09094442
98	0xbd837c39	-0.06420178
99	0xbc9f1abd	-0.01942193
100	0x3d39571f	0.0452491
101	0xbe81687e	-0.25275034
102	0x3db62de7	0.08895474
103	0xbce93637	-0.028468234
104	0x3ea5ee80	0.32408524
105	0xbe5cb9a4	-0.21555191
106	0xbc75b3b8	-0.014996462
107	0xbe2c7ec5	-0.16845234
108	0x3da5d107	0.080965094
109	0xbe3a9098	-0.1821922
110	0xbe8a58f6	-0.27020997
111	0xbdd5fde4	-0.104488164
112	0x3d878db1	0.06618822
113	0xbdfd9b0f	-0.12383091
114	0x3e82a3e1	0.25515655
115	0xbd60e58e	-0.05490642
116	0x3e3a5abf	0.1819868
117	0x3e55800e	0.2084963
118	0xbe8d923e	-0.27650636
119	0x3e4aefec	0.19818085
120	0x3e1e3ced	0.15452929
121	0x3dddef16	0.10836618
122	0xbea1ce06	-0.31602496
123	0xbd1d23eb	-0.038364332
124	0x3df9eeff	0.12203788
125	0xbe106066	-0.14099273
126	0x3f002cf8	0.50068617
127	0x3e64c743	0.22341637
128	0xbd7c3695	-0.06157549
129	0xbede17a8	-0.43377423
130	0xbd039a5b	-0.032129627
131	0x3e5decb3	0.21672325
132	0x3f34af00	0.7057953
133	0xbe9985b5	-0.29984823
134	0x3cec78cf	0.0288662
135	0x3d1ada7a	0.03780601
136	0xbeb2a5ac	-0.34892023
137	0xbe177abf	-0.14792918
138	0xbdc1fbb5	-0.094718374
139	0xbe808305	-0.2509996
140	0xbddcc61c	-0.10779974
141	0x3dd2451b	0.10267087
142	0x3e091f66	0.13390884
143	0x3e3b1dd4	0.18273097
144	0x3e0a8e8d	0.13530941
145	0x3cbc8939	0.023014652
146	0x3e482427	0.19545041
147	0x3e1bee9e	0.15227744
148	0xbbd01ec2	-0.006351323
149	0x3db5a686	0.088696525
150	0x3b879a83	0.0041382923
151	0xbdec67e0	-0.1154325
152	0xbe8a4684	-0.27006924
153	0xbedfec08	-0.43734765
154	0x3e862dae	0.26206726
155	0x3ea93c71	0.33053926
156	0xbd66cdeb	-0.056348722
157	0x3ec58f42	0.3858586
158	0x3dd5bd10	0.104364514
159	0x3db47592	0.08811487
160	0xbe9745aa	-0.29545337
161	0xbe89e12d	-0.26929608
162	0xbead729f	-0.3387651
163	0xbee70dab	-0.45127615
164	0x3e3f4054	0.18676883
165	0x3dc7fef6	0.09765427
166	0xbe9d0d8c	-0.30674398
167	0xbdb97d97	-0.090571575
168	0x3ede0e2c	0.43370187
169	0xbe4835ce	-0.19551775
170	0x3e330faa	0.17486444
171	0xbef1b595	-0.4720885
172	0x3bb62d53	0.0055596023
173	0xbe12f1a5	-0.14349993
174	0xbeb7463b	-0.3579577
175	0xbe8228b0	-0.25421667
176	0xbd8c52a1	-0.06851698
177	0xbee366aa	-0.44414264
178	0xbd8f5c39	-0.07000012
179	0xbcb9f82d	-0.022701347
180	0x3cb88cbf	0.02252805
181	0x3e5de313	0.21668653
182	0x3ed9cb31	0.42537835
183	0x3deab8ec	0.11461052
184	0xbc30e1cd	-0.010796023
185	0x3ef35d77	0.47532246
186	0x3b14cf42	0.0022706543
187	0xbd9f8257	-0.07788532
188	0x3d4eb74f	0.050467785
189	0x3c8f7a9c	0.01751452
190	0xbebadb63	-0.36495504
191	0xbe1fa95e	-0.15591952
192	0x3dd9676d	0.1061543
193	0xbeb839b4	-0.35981524
194	0x3e2f8ee5	0.17144354
195	0xbe820cb6	-0.25400323
196	0xbe8cad5e	-0.2747602
197	0x3e2276bd	0.15865608
198	0xbda455f9	-0.080242105
199	0x3dd59ea0	0.10430646
200	0x3e3d01a0	0.18457651
201	0xbe8c7839	-0.27435473
202	0xbddf3f81	-0.10900784
203	0xbdc14ade	-0.09438108
204	0x3eb861cc	0.36012113
205	0xbe0dc175	-0.13843329
206	0x3d1c31a5	0.038133282
207	0xbe5a195d	-0.21298738
208	0xbe31a04e	-0.17346308
209	0xbe121296	-0.14264902
210	0x3e0829ff	0.1329727
211	0x3d35924c	0.044328973
212	0xbe1fa3dd	-0.15589853
213	0xbe4dbbe5	-0.20091207
214	0x3e919393	0.28432903
215	0x3dedd2c8	0.11612469
216	0xbdfa5689	-0.122235365
217	0x3d9bfdce	0.07616769
218	0x3daf5357	0.08560818
219	0xbe0e3a07	-0.13889323
220	0x3ea9f2cd	0.33193055
221	0xbd999322	-0.074987665
222	0xbd9ac135	-0.075563826
223	0x3e93124b	0.28724894
224	0x3e6a66d9	0.22890796
225	0xbd422017	-0.047393885
226	0xbc2733de	-0.010205237
227	0xbe51257f	-0.2042446
228	0x3e5a9c48	0.21348679
229	0x3ef6015c	0.48047912
230	0x3d804022	0.06262232
231	0xbe6718bc	-0.22568029
232	0xbdb44e9a	-0.088040546
233	0x3d78f07b	0.060776215
234	0x3e048a5c	0.12943405
235	0x3cef282b	0.029193958
236	0x3d67ed1d	0.056622613
237	0x3cb834f4	0.022486188
238	0x3ebf352f	0.37345263
239	0x3b1eea6a	0.0024248608
240	0x3ef3e0d6	0.47632474
241	0xbe13ad07	-0.14421473
242	0x3f06a52b	0.52595776
243	0x3f086407	0.5327763
244	0xbe98e797	-0.2986419
245	0x3d44ba05	0.048028965
246	0xbe8c0065	-0.2734405
247	0xbe0af11f	-0.13568543
248	0xbe5c580c	-0.21517962
249	0xbe2ba13f	-0.16760729
250	0x3eea9386	0.45815676
251	0xbd74450e	-0.05963617
252	0xbdc0d591	-0.094157346
253	0xbe8ff682	-0.28117758
254	0xbe886095	-0.26636186
255	0xbdd8c49a	-0.10584374

net.net.4.bias f4 [10]
0	0x3d983f45	0.07433943
1	0x3f88ec44	1.0697103
2	0xbe949691	-0.29021123
3	0x3e97815d	0.29590884
4	0x3f4affea	0.79296744
5	0xbf17fb80	-0.59368134
6	0x3e2d5f27	0.16930829
7	0xbeb105ed	-0.34574834
8	0xbee926f9	-0.45537546
9	0xbf379bf5	-0.71722347
