continual learning/ModTest2/results/gem_GMod2Cov_nv_0.0_False_5_mnist_rotations_reduced.pt_2021_08_13_21_34_42_cd45f55134ee406fac7b013e3db226a5.pt (torch, 368925 bytes, 8 tensors)

tensor f4 [101]
0.0 0.0 0.0 0.0 0.0 0.0 0.0 0.0
0.0 0.0 0.0 1.0 1.0 1.0 1.0 1.0
1.0 1.0 1.0 1.0 1.0 2.0 2.0 2.0
2.0 2.0 2.0 2.0 2.0 2.0 2.0 3.0
3.0 3.0 3.0 3.0 3.0 3.0 3.0 3.0
3.0 4.0 4.0 4.0 4.0 4.0 4.0 4.0
4.0 4.0 4.0 5.0 5.0 5.0 5.0 5.0
5.0 5.0 5.0 5.0 5.0 6.0 6.0 6.0
6.0 6.0 6.0 6.0 6.0 6.0 6.0 7.0
7.0 7.0 7.0 7.0 7.0 7.0 7.0 7.0
7.0 8.0 8.0 8.0 8.0 8.0 8.0 8.0
8.0 8.0 8.0 9.0 9.0 9.0 9.0 9.0
9.0 9.0 9.0 9.0 9.0
00000000: 0000 0000 0000 0000 0000 0000 0000 0000
00000010: 0000 0000 0000 0000 0000 0000 0000 0000
00000020: 0000 0000 0000 0000 0000 0000 0000 803f
00000030: 0000 803f 0000 803f 0000 803f 0000 803f
00000040: 0000 803f 0000 803f 0000 803f 0000 803f
00000050: 0000 803f 0000 0040 0000 0040 0000 0040
00000060: 0000 0040 0000 0040 0000 0040 0000 0040
00000070: 0000 0040 0000 0040 0000 0040 0000 4040
00000080: 0000 4040 0000 4040 0000 4040 0000 4040
00000090: 0000 4040 0000 4040 0000 4040 0000 4040
000000a0: 0000 4040 0000 8040 0000 8040 0000 8040
000000b0: 0000 8040 0000 8040 0000 8040 0000 8040
000000c0: 0000 8040 0000 8040 0000 8040 0000 a040
000000d0: 0000 a040 0000 a040 0000 a040 0000 a040
000000e0: 0000 a040 0000 a040 0000 a040 0000 a040
000000f0: 0000 a040 0000 c040 0000 c040 0000 c040
00000100: 0000 c040 0000 c040 0000 c040 0000 c040
00000110: 0000 c040 0000 c040 0000 c040 0000 e040
00000120: 0000 e040 0000 e040 0000 e040 0000 e040
00000130: 0000 e040 0000 e040 0000 e040 0000 e040
00000140: 0000 e040 0000 0041 0000 0041 0000 0041
00000150: 0000 0041 0000 0041 0000 0041 0000 0041
00000160: 0000 0041 0000 0041 0000 0041 0000 1041
00000170: 0000 1041 0000 1041 0000 1041 0000 1041
00000180: 0000 1041 0000 1041 0000 1041 0000 1041
00000190: 0000 1041

tensor f4 [101, 10]
0.1132 0.0922 0.101 0.1087 0.1128 0.1095 0.1392 0.137
0.1542 0.1571 0.3909 0.3672 0.3545 0.2817 0.246 0.2191
0.187 0.1708 0.1423 0.1261 0.4023 0.3867 0.3741 0.2975
0.2461 0.1911 0.1598 0.1521 0.1275 0.1125 0.5536 0.5221
0.5102 0.3867 0.321 0.2403 0.175 0.1452 0.1042 0.1005
0.5969 0.5775 0.5757 0.4397 0.3604 0.2784 0.2014 0.1702
0.1089 0.1061 0.7128 0.6981 0.6717 0.5316 0.4357 0.3297
0.2586 0.2216 0.1683 0.1514 0.7658 0.7446 0.7314 0.5619
0.4583 0.3618 0.2736 0.2286 0.1539 0.1418 0.7785 0.7459
0.7186 0.5238 0.4231 0.3151 0.2232 0.1815 0.1364 0.1293
0.8113 0.7838 0.7614 0.5553 0.4454 0.3303 0.2428 0.2002
0.1325 0.1198 0.7883 0.7597 0.7352 0.547 0.4535 0.3509
0.2516 0.2194 0.1523 0.1368 0.7325 0.7231 0.7068 0.5506
0.4578 0.3785 0.2905 0.248 0.175 0.1592 0.8337 0.8214
0.8104 0.6441 0.5438 0.4193 0.3185 0.2644 0.1775 0.1504
0.8465 0.8398 0.8246 0.649 0.5387 0.4154 0.297 0.247
0.1672 0.1465 0.8422 0.8509 0.8379 0.6748 0.5513 0.4214
0.2967 0.2645 0.1742 0.1541 0.7715 0.788 0.7837 0.644
0.5425 0.4353 0.3228 0.2805 0.1835 0.1504 0.8478 0.8533
0.8361 0.6557 0.5297 0.409 0.277 0.2473 0.1592 0.1399
0.8363 0.859 0.8514 0.7003 0.5815 0.451 0.3074 0.2698
0.1744 0.1511 0.8151 0.8312 0.8192 0.6268 0.5086 0.3918
0.2672 0.2404 0.1569 0.133 0.8421 0.8588 0.8485 0.6719
0.5384 0.4229 0.2968 0.2622 0.1632 0.1392 0.8372 0.8418
0.8318 0.6624 0.5446 0.4238 0.2961 0.2589 0.1678 0.1498
0.8425 0.8706 0.8546 0.6887 0.5523 0.4284 0.3013 0.2585
0.1693 0.149 0.8251 0.8609 0.8588 0.7371 0.6011 0.4724
0.3229 0.2668 0.1577 0.1296 0.7849 0.8001 0.7977 0.6856
0.5791 0.4448 0.294 0.2395 0.1379 0.1116 0.8286 0.8511
0.8566 0.7462 0.6383 0.506 0.3522 0.2946 0.1675 0.1388
0.8224 0.8526 0.8495 0.7334 0.6166 0.4805 0.3322 0.2775
0.1715 0.1369 0.8457 0.8808 0.8813 0.7753 0.6582 0.5345
00000000: 67d5 e73d 5bd3 bc3d 17d9 ce3d 1b9e de3d
00000010: b003 e73d 8941 e03d 728a 0e3e ba49 0c3e
00000020: 9be6 1d3e d3de 203e 0b24 c83e a301 bc3e
00000030: 0681 b53e fb3a 903e 6de7 7b3e c05b 603e
00000040: ee7c 3f3e 32e6 2e3e 17b7 113e 5c20 013e
00000050: 44fa cd3e 8bfd c53e 098a bf3e ec51 983e
00000060: a301 7c3e b8af 433e 9ca2 233e 1ac0 1b3e
00000070: 5c8f 023e 6666 e63d bbb8 0d3f 58a8 053f
00000080: 789c 023f 8bfd c53e 1d5a a43e 3411 763e
00000090: 3333 333e 4faf 143e cf66 d53d f2d2 cd3d
000000a0: 70ce 183f 0ad7 133f 1361 133f 5c20 e13e
000000b0: 5986 b83e 728a 8e3e cd3b 4e3e e948 2e3e
000000c0: f706 df3d f54a d93d 107a 363f aeb6 323f
000000d0: 88f4 2b3f f016 083f 1214 df3e 70ce a83e
000000e0: 3867 843e 1ceb 623e d656 2c3e 9a08 1b3e
000000f0: 780b 443f 1b9e 3e3f 083d 3b3f aed8 0f3f
00000100: 4ca6 ea3e d93d b93e 4d15 8c3e 1e16 6a3e
00000110: f697 1d3e 0534 113e c74b 473f 4df3 3e3f
00000120: 2bf6 373f c217 063f 90a0 d83e ca54 a13e
00000130: 8a8e 643e 23db 393e 71ac 0b3e 3867 043e
00000140: 5bb1 4f3f 1ea7 483f 1ceb 423f 2428 0e3f
00000150: 780b e43e 151d a93e 90a0 783e 3b01 4d3e
00000160: 14ae 073e b459 f53d 07ce 493f b37b 423f
00000170: 1136 3c3f 3108 0c3f 2731 e83e 2aa9 b33e
00000180: b7d1 803e 65aa 603e 88f4 1b3e 4d15 0c3e
00000190: 1f85 3b3f 151d 393f d8f0 343f 1ff4 0c3f
000001a0: c364 ea3e c1ca c13e 6abc 943e b6f3 7d3e
000001b0: 3333 333e 5305 233e 5d6d 553f 4547 523f
000001c0: 6076 4f3f bde3 243f 7a36 0b3f 7dae d63e
000001d0: 6f12 a33e 705f 873e 8fc2 353e 7502 1a3e
000001e0: 39b4 583f 22fd 563f fc18 533f dd24 263f
000001f0: 3ee8 093f 4faf d43e 6210 983e 91ed 7c3e
00000200: 7a36 2b3e 1904 163e 6b9a 573f 95d4 593f
00000210: 9d80 563f b1bf 2c3f ff21 0d3f bec1 d73e
00000220: 10e9 973e 8b6c 873e 7c61 323e 64cc 1d3e
00000230: 0681 453f 5eba 493f 90a0 483f 2fdd 243f
00000240: 48e1 0a3f a4df de3e 0b46 a53e b29d 8f3e
00000250: 6de7 3b3e 7502 1a3e 6c09 593f de71 5a3f
00000260: a60a 563f f5db 273f 6b9a 073f 7368 d13e
00000270: f2d2 8d3e 363c 7d3e 5305 233e f241 0f3e
00000280: c217 563f 6de7 5b3f 5af5 593f dc46 333f
00000290: 2fdd 143f 79e9 e63e 8863 9d3e 3a23 8a3e
000002a0: ea95 323e f5b9 1a3e 65aa 503f 86c9 543f
000002b0: 17b7 513f f775 203f 9c33 023f 029a c83e
000002c0: 70ce 883e 6b2b 763e 65aa 203e 2731 083e
000002d0: de93 573f 51da 5b3f 4c37 593f a301 2c3f
000002e0: 95d4 093f 5986 d83e 2bf6 973e 143f 863e
000002f0: e71d 273e 728a 0e3e bd52 563f 3480 573f
00000300: d8f0 543f 0c93 293f e86a 0b3f 50fc d83e
00000310: 6b9a 973e 8a8e 843e c3d3 2b3e 2c65 193e
00000320: 14ae 573f a4df 5e3f 11c7 5a3f a54e 303f
00000330: 8863 0d3f 3f57 db3e fe43 9a3e 1d5a 843e
00000340: fb5c 2d3e 7593 183e c139 533f f163 5c3f
00000350: 51da 5b3f 96b2 3c3f b1e1 193f 6ade f13e
00000360: 2653 a53e 029a 883e 1c7c 213e ddb5 043e
00000370: 35ef 483f 5bd3 4c3f 1136 4c3f 7b83 2f3f
00000380: e63f 143f d3bc e33e 2b87 963e 7d3f 753e
00000390: a835 0d3e 8a8e e43d 211f 543f b1e1 593f
000003a0: 234a 5b3f f706 3f3f a167 233f 3789 013f
000003b0: 8f53 b43e d0d5 963e 1f85 2b3e 9621 0e3e
000003c0: ce88 523f fe43 5a3f d578 593f 1ac0 3b3f
000003d0: 7fd9 1d3f 1904 f63e 1e16 aa3e 7b14 8e3e
000003e0: b29d 2f3e 832f 0c3e cc7f 583f 1c7c 613f
000003f0: e09c 613f 107a 463f cc7f 283f fed4 083f

net.net.0.weight f4 [100, 784]
0.05102144 0.03594605 0.009017624 -0.044583898 -0.058566518 -0.029675666 0.03677912 -0.049302727
0.044082202 0.06970026 0.000836397 0.04885304 -0.01456235 0.07854647 0.010827843 -0.021784944
-0.06427436 0.0268068 0.026929624 -0.012638467 0.053109188 0.01248114 -0.015371345 -0.027841058
-0.026684456 -0.04413693 0.020923898 0.028792009 0.010703348 -0.03079686 -0.030053638 0.056196526
-0.07365873 0.061697915 -0.01587503 0.033041965 -0.011303675 0.05847808 -0.027529452 0.015566836
-0.0196663 0.010343164 0.03503171 -0.04372411 0.083018176 -0.070901126 -0.061307758 0.025031958
-0.023142915 0.022879645 -0.017532697 -0.061184738 0.052529782 -0.06264848 -0.04288277 -0.058608748
0.05736561 -0.030687109 0.06023079 -0.0004511252 0.0748222 -0.043547638 -0.074803255 -0.03800365
0.04984038 0.04440616 -0.035389204 0.05118627 -0.04733394 -0.023729008 0.060750816 0.033750314
0.034130074 0.0058148303 0.08751862 0.012965219 0.024534188 -0.06986459 0.03967163 0.078149945
-0.031621184 0.03972473 0.06956825 0.06264077 -0.010925718 0.07458413 0.035920642 0.020270921
-0.03193719 0.06057449 -0.0023490754 0.021097941 -0.05881172 -0.082114264 0.07271766 0.05938983
-0.04889528 0.06802896 -0.06406579 0.005447362 -0.05494424 -0.036031913 -0.017829854 0.037473183
0.07607568 0.01746914 -0.02469854 0.005607747 0.05962257 0.025639571 0.07217389 -0.056807607
-0.076691926 0.03285212 0.004376732 -0.02332795 -0.079538606 0.050178017 -0.07193066 -0.032621898
-0.010974677 0.049805682 0.053842317 -0.034034606 0.08108012 0.08102928 -0.035326146 0.0015580835
-0.046513982 0.06494522 -0.027452251 0.079908706 -0.031571064 -0.008986276 -0.06547636 0.019591605
-0.04420733 -0.0057611316 0.02427338 -0.070192665 0.043003425 -0.05959526 -0.012403369 0.08012121
0.012607672 -0.0768669 0.05377732 0.03566125 -0.042391274 -0.0022037628 0.012986395 0.053759083
0.04760402 -0.019267851 0.018196158 -0.046263613 -0.017827084 0.08518082 0.045334045 0.05245558
-0.022494832 0.030361239 -0.03575077 0.029831972 0.033007715 -0.0067248447 0.068590775 0.0567223
-0.06422558 -0.0013050437 0.0147121865 0.081491284 -0.029730087 -0.07323954 -0.100024864 -0.10646098
-0.05177993 0.050026793 0.048352025 -0.045390345 0.06665072 0.0075538787 -0.033635415 0.09590123
0.050932173 -0.016259888 -0.05828723 -0.03146911 -0.06551901 0.039504044 0.018445326 0.07334657
-0.027136471 0.057038076 -0.04753345 -0.03310081 -0.0028121918 -0.041940495 0.0042379857 -0.0051298765
-0.027399888 0.021060394 0.039911553 -0.089227885 -0.02361891 -0.014700537 0.0139567545 -0.02434561
-0.05181338 0.07734902 0.05539574 0.048273914 0.024094108 -0.006106542 0.08022488 0.074744955
-0.019023497 0.06809451 -0.06133475 -0.034804653 0.06052283 0.05217002 -0.07956299 0.0155206295
0.054646924 -0.0320743 0.073804006 0.0031859267 -0.05750677 0.03949784 0.02901839 0.046938848
0.0011286075 0.08612187 0.027070975 0.019270813 -0.015336046 -0.022518083 -0.06427264 -0.074817464
0.02472434 -0.03243534 -0.045451436 0.04465164 0.074727505 0.057241634 -0.025712322 0.05371694
0.059962016 0.053486086 -0.0817043 0.043204457 -0.05276351 -0.044923514 0.023614144 0.05982585
00000000: dcfb 503d 2a3c 133d a8be 133c 9b9d 36bd
00000010: 72e3 6fbd 621a f3bc b4a5 163d a8f1 49bd
00000020: 8a8f 343d 03bf 8e3d a741 5b3a 201a 483d
00000030: ec96 6ebc f9dc a03d 4467 313c 5776 b2bc
00000040: 47a2 83bd ef99 db3c 849b dc3c 9311 4fbc
00000050: 0589 593d b27d 4c3c 18d8 7bbc ee12 e4bc
00000060: 5c99 dabc edc8 34bd 9868 ab3c 38dd eb3c
00000070: 185d 2f3c b249 fcbc 0c33 f6bc 542e 663d
00000080: 63da 96bd f4b6 7c3d 5a0c 82bc 0357 073d
00000090: 0d33 39bc b686 6f3d 7285 e1bc 0b0c 7f3c
000000a0: 381b a1bc 6076 293c 697d 0f3d 0d18 33bd
000000b0: 6f05 aa3d 9c34 91bd d81d 7bbd d20f cd3c
000000c0: 3696 bdbc 186e bb3c bba0 8fbc d99c 7abd
000000d0: 7829 573d d94d 80bd d8a5 2fbd ba0f 70bd
000000e0: 34f8 6a3d 8863 fbbc 90b4 763d 0085 ecb9
000000f0: 623c 993d 025f 32bd 7332 99bd b7a9 1bbd
00000100: 6d25 4c3d 3ce3 353d 45f4 10bd b2a8 513d
00000110: 3ce1 41bd 5663 c2bc d9d5 783d c53d 0a3d
00000120: facb 0b3d 558a be3b f63c b33d 126c 543c
00000130: ecfb c83c 2b15 8fbd b87e 223d 140d a03d
00000140: 3785 01bd 66b6 223d cc79 8e3d ce49 803d
00000150: c801 33bc 90bf 983d 8621 133d 340f a63c
00000160: 92d0 02bd f51c 783d f2f2 19bb 97d5 ac3c
00000170: 8fe4 70bd 862b a8bd ffec 943d c042 733d
00000180: 6b46 48bd c452 8b3d ed34 83bd c97f b23b
00000190: 360d 61bd 3396 13bd ea0f 92bc 7b7d 193d
000001a0: 91cd 9b3d 711b 8f3c 9854 cabc 31c1 b73b
000001b0: cc36 743d 140a d23c e8cf 933d 18af 68bd
000001c0: a810 9dbd f28f 063d b06a 8f3b 421a bfbc
000001d0: 23e5 a2bd 7787 4d3d 6250 93bd 8a9e 05bd
000001e0: 22cf 33bc 0b01 4c3d c389 5c3d df67 0bbd
000001f0: 550d a63d aef2 a53d 26b2 10bd 9b38 cc3a
00000200: 7285 3ebd 0002 853d 8be3 e0bc 2da7 a33d
00000210: a950 01bd 2c3b 13bc 7818 86bd 937e a03c
00000220: bf12 35bd e0c7 bcbb f8d8 c63c 2cc1 8fbd
00000230: 5c24 303d 291a 74bd 8037 4bbc 9716 a43d
00000240: 6990 4e3c 656c 9dbd 9b45 5c3d 8811 123d
00000250: 79a2 2dbd 016d 10bb e3c4 543c 7c32 5c3d
00000260: 6ffc 423d 9dd7 9dbc 1c10 953c ea7e 3dbd
00000270: 1b0a 92bc 4873 ae3d 31b0 393d aadb 563d
00000280: 1547 b8bc 22b8 f83c 666f 12bd 2e62 f43c
00000290: 1933 073d 165c dcbb 5279 8c3d a455 683d
000002a0: b388 83bd 000e abba 620b 713c e7e4 a63d
000002b0: 838c f3bc 9dfe 95bd d6d9 ccbd 3708 dabd
000002c0: 3117 54bd e5e8 4c3d c60c 463d 3aeb 39bd
000002d0: 2c80 883d 8786 f73b 4ac5 09bd dd67 c43d
000002e0: 419e 503d 7533 85bc 97be 6ebd c1e5 00bd
000002f0: d52e 86bd fece 213d a71a 973c ba36 963d
00000300: 4e4d debc c2a0 693d 6fb2 42bd b794 07bd
00000310: c04c 38bb ccc9 2bbd cdde 8a3b 8618 a8bb
00000320: bb75 e0bc d986 ac3c 4c7a 233d 1cbd b6bd
00000330: 727c c1bc 85da 70bc dfaa 643c 7270 c7bc
00000340: 443a 54bd 2a69 9e3d a5e6 623d deba 453d
00000350: 0261 c53c 6319 c8bb f14c a43d e213 993d
00000360: 2ad7 9bbc 2275 8b3d 263a 7bbd 538f 0ebd
00000370: c9e6 773d 3bb0 553d ecf1 a2bd 3d4a 7e3c
00000380: 74d5 5f3d 5760 03bd 8e26 973d fbca 503b
00000390: 388c 6bbd 7dc8 213d fab7 ed3c f342 403d
000003a0: c9ed 933a aa60 b03d f3c3 dd3c d3dd 9d3c
000003b0: 0a44 7bbc d877 b8bc 60a1 83bd e639 99bd
000003c0: b38a ca3c ebda 04bd 492b 3abd a3e4 363d
000003d0: bc0a 993d 3476 6a3d a6a2 d2bc 4b06 5c3d
000003e0: bb9a 753d 3a14 5b3d 9654 a7bd 28f7 303d
000003f0: 8d1e 58bd b801 38bd 7372 c13c f30b 753d

net.net.0.bias f4 [100]
0.029093169 0.005745682 0.0599769 0.06141662 -0.020643644 0.039947607 -0.014694721 -0.040288053
-0.00014179699 0.011311988 -0.07418262 0.12630177 -0.19650944 0.12406788 0.0036938996 0.18931578
0.08824281 0.09200452 0.030929757 0.12593478 -0.09339073 0.19316387 -0.013134787 0.06667805
-0.04641052 -0.013326651 -0.03735676 0.17259502 0.05068547 -0.027002173 -0.016019022 0.017319579
0.042634625 0.07001428 0.095433205 0.035165086 0.07119248 -0.0056761354 -0.110609114 0.022646843
-0.0022933143 -0.11366139 0.1232898 -0.09171258 0.18921737 0.026311226 -0.058652055 -0.012958508
0.0828798 0.105933495 0.082819425 0.07160097 -0.04110348 0.25359988 -0.026272105 -0.019695422
-0.016292457 0.044444628 0.020999225 0.002900637 0.026870782 0.043900773 0.027385449 -0.016067667
-0.08002801 0.11408747 0.1310234 -0.030312443 0.06270783 0.12830825 -0.084006 0.037544418
-0.01759887 0.032801203 -0.12146918 -0.05344953 0.01932923 0.0137804 -0.052609663 -0.04607227
0.07565436 -0.0808673 0.04161797 -0.025593344 -0.039747454 -0.036156885 -0.0045725615 0.12937091
-0.06533712 0.11737255 0.061104674 0.01893936 -0.042577542 0.0716915 0.0023157417 0.024863971
0.039114293 0.15552 0.15343264 -0.07678462
00000000: cc54 ee3c 4646 bc3b 57aa 753d fe8f 7b3d
00000010: dc1c a9bc 1aa0 233d 21c2 70bc 1605 25bd
00000020: 57af 14b9 eb55 393c 0fed 97bd 4055 013e
00000030: c539 49be 4d17 fe3d 5a15 723b ffdb 413e
00000040: a5b8 b43d de6c bc3d 6760 fd3c 0cf5 003e
00000050: a443 bfbd c0cc 453e 4a33 57bc 808e 883d
00000060: f518 3ebd 0758 5abc 6703 19bd c0bc 303e
00000070: 919b 4f3d a933 ddbc 533a 83bc cae1 8d3c
00000080: a5a1 2e3d a663 8f3d 7c72 c33d 4409 103d
00000090: 5dcd 913d e0fe b9bb 0887 e2bd df85 b93c
000000a0: 6e4b 16bb 4ec7 e8bd 5d7f fc3d ced3 bbbd
000000b0: 33c2 413e a48a d73c 233d 70bd ec4f 54bc
000000c0: e2bc a93d a9f3 d83d 3b9d a93d 88a3 923d
000000d0: 1f5c 28bd d8d7 813e 9938 d7bc 4b58 a1bc
000000e0: c277 85bc 920b 363d 9106 ac3c 9d18 3e3b
000000f0: 1d20 dc3c 4cd1 333d 7357 e03c 57a0 83bc
00000100: bae5 a3bd b1a6 e93d 002b 063e cd51 f8bc
00000110: f66c 803d 3d63 033e 560b acbd 2dc8 193d
00000120: 812b 90bc 8e5a 063d d5c4 f8bd e5ed 5abd
00000130: 5558 9e3c 30c7 613c 3b7d 57bd 47b6 3cbd
00000140: acf0 9a3d c19d a5bd 9b77 2a3d 22a9 d1bc
00000150: 3ace 22bd 3e19 14bd 6dd5 95bb cf79 043e
00000160: 78cf 85bd 0561 f03d e548 7a3d b726 9b3c
00000170: ca65 2ebd fed2 923d b3c3 173b 87af cb3c
00000180: 4f36 203d a340 1f3e 721d 1d3e 4141 9dbd

net.net.2.weight f4 [100, 100]
-0.051554047 -0.07159741 0.01743728 -0.005303576 0.06541759 -0.15650399 0.065927096 -0.06737199
0.18057518 -0.13169655 0.064029574 0.12261686 0.047505837 -0.13973022 -0.0029061579 0.045932774
-0.09083757 -0.012004117 -0.030278685 0.0020060164 0.090158485 -0.22074538 0.03526706 0.020871265
0.19030873 -0.0919826 0.056469794 0.14873454 -0.11323627 -0.17776045 -0.18669821 -0.13002443
0.019845176 -0.05978672 0.11411941 -0.03631487 0.13262251 0.04863883 0.14732364 0.11779469
0.08177109 0.12269482 0.13484672 -0.17167754 -0.16558762 0.014500553 0.104307815 0.04751499
-0.049291704 -0.051296983 -0.13433512 -0.14156093 0.09801763 0.07147864 -0.12090611 0.008365553
-0.0036754785 0.08479285 0.147878 0.13205698 -0.0061611645 -0.14447515 0.017564747 0.12212757
0.05919206 0.020814212 0.13343582 -0.13759775 0.014572343 -0.1280399 0.047275387 -0.12981158
-0.056039155 0.053495545 -0.11799967 -0.10706094 0.17447473 0.013663444 0.09507382 -0.21542554
-0.029254418 0.118136354 0.08258305 -0.0033200113 -0.17006613 -0.038106594 0.13728528 0.11905644
0.102197036 -0.06604798 0.2633896 -0.19554439 -0.25404155 0.12210769 0.10935124 0.019191269
-0.0044689686 0.16359231 0.101661086 -0.096312836 -0.091931134 0.17889313 0.10474656 -0.06361034
0.022340473 -0.09725176 -0.11869108 0.15364249 0.10215923 -0.1937574 -0.10142334 -0.021371152
0.04246224 -0.11402109 -0.09493637 -0.2127462 -0.22442535 -0.12427959 -0.012972507 0.023761578
0.0032154813 0.12993313 0.12330689 0.088682905 0.10658715 -0.16300245 0.07608738 -0.038910437
0.0049917786 -0.0065407637 -0.024200218 -0.029600456 -0.10320397 -0.19129625 -0.016433822 -0.04043779
-0.03351898 -0.050376266 0.13423996 -0.07293295 -0.12404943 0.14069483 0.13943744 0.18752615
0.012637456 0.14454077 -0.021886863 -0.04485893 0.08804108 -0.13402048 0.2099318 -0.20545714
-0.1206422 -0.10856124 -0.085622646 0.17116667 0.04606536 -0.028224777 -0.08455268 -0.12659317
0.1349315 -0.17133558 -0.10918902 -0.1761701 -0.058526307 -0.13814779 0.10971129 -0.1548553
-0.20555997 -0.12809227 0.2508574 0.13877918 -0.066534385 -0.094849885 0.18360652 -0.10226269
-0.14235207 -0.005207256 0.073057376 -0.0009795694 -0.034816816 -0.12753016 -0.14118637 0.0009299515
-0.09843047 0.24046104 0.033636075 -0.06421394 0.1101315 0.08651009 0.08392799 -0.18769231
0.11452115 0.08127934 -0.091452256 -0.13762172 0.07674175 -0.069803156 -0.10484214 0.11051024
0.053495057 0.22445504 -0.010151853 0.039427705 0.07079861 -0.05721266 -0.30609277 -0.021192636
0.042733602 -0.112673245 -0.20760915 0.22649229 0.21765973 0.015117362 0.0679649 0.013637773
0.30422994 0.041172482 -0.15082124 0.10349172 0.07002181 -0.26036614 -0.14399785 0.14679484
0.14794299 -0.0909433 -0.13214768 -0.06750564 0.12155581 0.03528906 0.15628214 0.06112659
-0.03478686 -0.10094318 0.22241427 0.11742444 0.060318824 0.117747426 0.213223 -0.024692686
-0.073313415 -0.07359213 0.22925405 0.09364257 -0.026258195 -0.28376707 -0.03475403 -0.11212547
-0.071750715 -0.19743307 -0.09506228 -0.056029804 0.18587834 -0.0019449735 0.090241775 -0.05881809
00000000: 562a 53bd aaa1 92bd a0d8 8e3c 9fc9 adbb
00000010: a8f9 853d 9542 20be c904 873d 53fa 89bd
00000020: b3e8 383e 76db 06be f021 833d 8c1e fb3d
00000030: 7b95 423d 7015 0fbe 3d75 3ebb 0124 3c3d
00000040: 0c09 babd eaac 44bc 010b f8bc 5f77 033b
00000050: 03a5 b83d 140b 62be 3174 103d 37fa aa3c
00000060: 4be0 423e 6061 bcbd df4c 673d de4d 183e
00000070: 6be8 e7bd d606 36be d12d 3fbe 2025 05be
00000080: 5a92 a23c ebe2 74bd 70b7 e93d e7be 14bd
00000090: 32ce 073e 8339 473d 02dc 163e 583e f13d
000000a0: 9a77 a73d 6c47 fb3d 4215 0a3e 3dcc 2fbe
000000b0: cd8f 29be ba93 6d3c 569f d53d 149f 423d
000000c0: 19e6 49bd c91c 52bd 258f 09be 59f5 10be
000000d0: 78bd c83d 6563 923d 9f9d f7bd ac0f 093c
000000e0: 4ce0 70bb e0a7 ad3d 556d 173e f239 073e
000000f0: 98e3 c9bb 4bf1 13be f2e3 8f3c 051e fa3d
00000100: 6073 723d 9182 aa3c 66a3 083e 6de6 0cbe
00000110: d6c0 6e3c e41c 03be d6a3 413d 54ed 04be
00000120: 5089 65bd 251e 5b3d d0a9 f1bd c442 dbbd
00000130: 81a9 323e a3dc 5f3c 10b6 c23d 8398 5cbe
00000140: f6a6 efbc 79f1 f13d 4d21 a93d 8c94 59bb
00000150: d125 2ebe a915 1cbd 8394 0c3e ddd3 f33d
00000160: ae4c d13d 2a44 87bd 00db 863e ca3c 48be
00000170: bc11 82be 9913 fa3d 8bf3 df3d 0237 9d3c
00000180: 6d70 92bb be84 273e b033 d03d aa3f c5bd
00000190: 6446 bcbd c32f 373e 5d85 d63d 2346 82bd
000001a0: 5e03 b73c ee2b c7bd 4f14 f3bd 7554 1d3e
000001b0: dc38 d13d 5768 46be 0ab7 cfbd 8e12 afbc
000001c0: e3ec 2d3d e483 e9bd 006e c2bd 24da 59be
000001d0: c2cf 65be 4c86 febd a38a 54bc a4a7 c23c
000001e0: d3ba 523b 310d 053e 5388 fc3d 629f b53d
000001f0: 5d4a da3d 1dea 26be b3d3 9b3d 8d60 1fbd
00000200: 1392 a33b e753 d6bb 893f c6bc a87c f2bc
00000210: 9a5c d3bd 2ae3 43be 39a0 86bc 19a2 25bd
00000220: 334b 09bd 5857 4ebd 3376 093e df5d 95bd
00000230: a10d febd 4e12 103e b0c8 0e3e db06 403e
00000240: 550d 4f3c 7f02 143e 144c b3bc ffbd 37bd
00000250: e24e b43d aa3c 09be 5df8 563e 5b63 52be
00000260: 4213 f7bd 5b55 debd ed5a afbd 5146 2f3e
00000270: 08af 3c3d a637 e7bc f529 adbd a4a1 01be
00000280: 7c2b 0a3e 9872 2fbe 7e9e dfbd ef65 34be
00000290: 48b9 6fbd 9d76 0dbe 50b0 e03d 6392 1ebe
000002a0: 507e 52be 9f2a 03be 6270 803e 211c 0e3e
000002b0: 2e43 88bd a840 c2bd 5903 3c3e 1a6f d1bd
000002c0: bec4 11be a1a1 aabb 1b9f 953d e564 80ba
000002d0: 149c 0ebd 4497 02be 2993 10be fdc7 733a
000002e0: ea95 c9bd 6b3b 763e fbc5 093d 9982 83bd
000002f0: a08c e13d 342c b13d 70e2 ab3d 6a32 40be
00000300: 118a ea3d c875 a63d 524b bbbd b5ec 0cbe
00000310: c72a 9d3d f5f4 8ebd 7ab7 d6bd 3153 e23d
00000320: a21d 5b3d 8bd7 653e f553 26bc f27e 213d
00000330: ddfe 903d d257 6abd 31b8 9cbe 2e9c adbc
00000340: 6e09 2f3d 3bc1 e6bd 7e97 54be 98ed 673e
00000350: 31e2 5e3e d0ae 773c 2e31 8b3d f770 5f3c
00000360: 07c4 9b3e 7aa4 283d e270 1abe 78f3 d33d
00000370: 9867 8f3d b64e 85be 2c74 13be 6351 163e
00000380: 5e7e 173e 7b40 babd b951 07be 6640 8abd
00000390: 41f2 f83d 438b 103d 6d08 203e e05f 7a3d
000003a0: ab7c 0ebd 4cbb cebd 91c0 633e 3a7c f03d
000003b0: df10 773d 9025 f13d 2157 5a3e 5148 cabc
000003c0: 5825 96bd 78b7 96bd 93c1 6a3e adc7 bf3d
000003d0: 6d1b d7bc eb49 91be 3e5a 0ebd 0aa2 e5bd
000003e0: 0af2 92bd e52b 4abe 03b0 c2bd 827f 65bd
000003f0: e456 3e3e 7bee feba aed0 b83d 3deb 70bd

net.net.2.bias f4 [100]
0.23912428 0.7520039 -0.25796425 -0.05669611 0.28769004 0.1181819 0.37334818 0.14070696
0.23779239 0.463156 0.22234273 -0.2322858 0.59373224 0.25280812 -0.23571546 0.05599747
0.009131758 1.1616158 0.032153916 -0.6270485 0.030704262 0.6411767 -0.060987968 0.14145154
-0.03729252 0.11981485 -0.013045521 0.5838335 -0.2641657 0.96376216 -0.07920986 0.69848824
0.2523855 -0.07623851 0.07637598 0.17908841 0.13324125 0.5431742 0.27702183 0.24044283
0.28259528 0.027610729 0.5929239 1.0988522 -0.24512415 0.12554604 0.14197738 -0.016738944
-0.09724731 0.11390084 0.08600005 0.15403225 0.15548207 0.28035203 0.23998865 0.19100913
0.21181709 0.28776872 0.16445303 0.05817992 0.33394393 -0.04086816 0.24612579 -0.030711837
-0.3373134 0.52293664 0.12034787 0.35482177 0.5099673 0.041339125 -0.08587292 0.13035282
0.1806118 0.29474133 0.19493063 0.63835675 0.36338583 0.14601949 0.016268773 -0.01727315
0.45557112 0.04350859 -0.19703369 0.18185695 0.50121254 0.074535206 0.7020913 -0.017724369
0.091362014 0.39394015 0.6802907 0.27316982 0.09911432 0.017624803 0.5183017 -0.017145835
0.21887076 0.1461439 -0.0075966753 -0.04192165
00000000: ffdc 743e 5483 403f e413 84be 2e3a 68bd
00000010: 1c4c 933e 5a09 f23d 7e27 bf3e 7c15 103e
00000020: d97f 733e c922 ed3e d0ad 633e 54dc 6dbe
00000030: d6fe 173f 1170 813e 655f 71be 9a5d 653d
00000040: 5e9d 153c d4af 943f d3b3 033d 4086 20bf
00000050: 8187 fb3c 2824 243f 85ce 79bd acd8 103e
00000060: 0bc0 18bd 7d61 f53d e2bc 55bc 1d76 153f
00000070: ba40 87be 1eb9 763f c738 a2bd 20d0 323f
00000080: ac38 813e f022 9cbd 036b 9c3d f462 373e
00000090: 6570 083e 770d 0b3f ced5 8d3e a536 763e
000000a0: 54b0 903e e52f e23c dcc9 173f 30a7 8c3f
000000b0: d301 7bbe 248f 003e 8562 113e 1c20 89bc
000000c0: 9929 c7bd d844 e93d cb20 b03d a1ba 1d3e
000000d0: b136 1f3e 4d8a 8f3e 96bf 753e e697 433e
000000e0: 94e6 583e 6c56 933e 6066 283e 114e 6e3d
000000f0: b3fa aa3e 5f65 27bd 6608 7c3e 6497 fbbc
00000100: 58b4 acbe 2ddf 053f f278 f63d 33ab b53e
00000110: 388d 023f 3753 293d 24de afbd 367b 053e
00000120: 4df2 383e 56e8 963e e59b 473e 596b 233f
00000130: b50d ba3e 2286 153e 1746 853c 6c80 8dbc
00000140: 9e40 e93e 1036 323d 33c3 49be b538 3a3e
00000150: 774f 003f eaa5 983d 41bc 333f b232 91bc
00000160: 021c bb3d 86b2 c93e 8827 2e3f eadc 8b3e
00000170: 73fc ca3d e461 903c 6caf 043f 6c75 8cbc
00000180: a81f 603e bfa6 153e 88ed f8bb 09b6 2bbd

net.net.4.weight f4 [10, 100]
0.009248098 -0.07612201 0.10152433 0.20785801 0.26344162 -0.14183515 0.3316185 -0.09918327
-0.25820887 -0.079859786 -0.270584 -0.18744756 -0.1822164 0.16502659 0.11740692 0.018321902
-0.051530365 -0.3035377 0.13849661 -0.04950727 -0.026296254 0.1033257 -0.15225974 -0.1961221
-0.13340557 0.037522294 -0.32955572 0.25411537 0.10063684 -0.3098078 -0.1229633 -0.40588158
0.25208178 0.022060199 -0.32141268 -0.20078501 0.057514247 -0.1330088 -0.32980368 0.13800162
0.004923272 0.18652599 0.117972836 -0.15895852 0.34114408 -0.07752451 -0.26407695 0.06462227
-0.21169946 -0.13687153 -0.26631945 -0.12163533 0.24095072 -0.2892422 -0.30300888 0.37895957
0.26753154 0.2820411 -0.0011300673 -0.10647207 -0.30362672 0.014016029 -0.020390691 0.15988067
-0.122647844 -0.39196074 0.16344172 -0.027361585 0.14873753 0.35126725 0.068941996 0.24024515
-0.22656953 -0.21753062 -0.24472578 -0.11403464 0.0135644395 0.21945663 0.1200115 0.13529587
0.31517154 0.26280203 0.122767 0.1806677 0.5050504 -0.018681442 -0.27841273 -0.15667216
0.14058472 -0.34487113 -0.18526764 -0.25620794 0.062935606 0.13778067 -0.15997283 0.16762727
0.46609548 -0.23489943 0.09134748 0.26403302 0.27041104 -0.28706416 0.13127866 0.12450828
-0.019056885 0.026698433 0.0010262515 0.0058536506 0.22304071 -0.28789297 0.37034833 -0.33820587
-0.113885134 0.45156416 -0.14133076 -0.057821587 0.14423391 0.3441877 0.0074092424 0.116356835
-0.09331624 0.15103082 0.0894572 0.3444518 0.650207 -0.03895785 0.13104007 0.035811633
0.19466208 -0.14505775 -0.07359648 -0.09702021 -0.3578177 0.03519297 -0.21459898 0.10598213
0.1768572 0.203989 0.27928957 0.030443778 -0.2570961 -0.10254366 -0.20370156 -0.20147358
-0.38921484 0.12817185 -0.15552992 0.20567374 0.26630872 0.05425784 -0.1808315 0.19566135
-0.41637185 -0.10932494 0.12133021 -0.43021384 -0.025383996 0.24216907 -0.3689479 0.12332968
0.043463424 -0.121685766 -0.32723528 -0.056736827 0.0906522 -0.24364178 -0.11379202 0.4784048
0.16522653 -0.16740274 -0.10247614 0.14577895 0.30046245 -0.020924972 -0.27266377 0.43313816
0.08391187 0.022854187 -0.24484125 0.07809913 -0.25582314 -0.16603987 -0.043239746 -0.019797008
-0.15697499 0.42606118 -0.025302306 0.10683138 0.4757176 0.0010073439 0.28056732 -0.00070388406
-0.072988324 0.21795745 -0.20833363 0.13385205 -0.27642217 -0.1585373 -0.08161427 -0.040481873
0.047301054 -0.045749165 0.25381163 0.17789169 -0.10062366 0.30301642 0.09907398 0.045927797
-0.07644135 0.27372167 0.39655626 0.038495928 0.011290952 -0.27169594 -0.040249955 0.20545195
0.0061064237 -0.46402937 0.19387275 0.41244102 0.06450563 -0.09931922 -0.024156142 0.13127294
-0.21100664 -0.14219706 0.58722585 -0.12901068 -0.09464646 0.10460992 0.0022726187 0.11600562
0.063946545 -0.048835367 -0.05177345 0.0844945 0.16507104 -0.16030027 0.120174155 0.19994432
0.28162658 -0.14646055 -0.27895913 0.018692851 0.19105533 -0.22925092 0.07211028 0.0010428559
0.31120408 0.026108997 0.22176561 -0.014992408 0.40454862 0.39229688 0.010468497 0.27041534
00000000: 5685 173c dbe5 9bbd fdeb cf3d bbd8 543e
00000010: d2e1 863e 3c3d 11be e6c9 a93e 9920 cbbd
00000020: f433 84be 878d a3bd fc89 8abe 41f2 3fbe
00000030: f096 3abe bbfc 283e 0a73 f03d d017 963c
00000040: 8111 53bd 4b69 9bbe 0ed2 0d3e 23c8 4abd
00000050: 3e6b d7bc 6d9c d33d fae9 1bbe 3bd4 48be
00000060: 789b 08be fab0 193d 87bb a8be 691b 823e
00000070: b01a ce3d 219f 9ebe 2fd4 fbbd b6cf cfbe
00000080: dd10 813e 97b7 b43c 3490 a4be 969a 4dbe
00000090: 0f94 6b3d 7533 08be 07dc a8be 4c50 0d3e
000000a0: 6653 a13b ab00 3f3e be9b f13d 06c6 22be
000000b0: 70aa ae3e 2cc5 9ebd 1835 87be ae58 843d
000000c0: bec7 58be 0d28 0cbe 065b 88be f21b f9bd
000000d0: c9bb 763e 8e17 94be fb23 9bbe fd06 c23e
000000e0: e5f9 883e b167 903e c41e 94ba 070e dabd
000000f0: f674 9bbe 7da3 653c 610a a7bc c2b7 233e
00000100: cb2e fbbd 14af c8be 445d 273e 6725 e0bc
00000110: a74e 183e 4dd9 b33e 7631 8d3d d302 763e
00000120: d801 68be 59c0 5ebe 6599 7abe fe8a e9bd
00000130: 623d 5e3c 3db9 603e 97c8 f53d 008b 0a3e
00000140: 2a5e a13e fd8d 863e 446d fb3d f400 393e
00000150: fc4a 013f d309 99bc 1d8c 8ebe ab6e 20be
00000160: 71f5 0f3e f392 b0be cdb6 3dbe b02d 83be
00000170: 62e4 803d 6016 0d3e ebcf 23be 7ca6 2b3e
00000180: 11a4 ee3e 7a89 70be 6314 bb3d 562f 873e
00000190: 5173 8a3e 13fa 92be ea6d 063e 32fe fe3d
000001a0: 2f1d 9cbc acb6 da3c 4983 863a fbcf bf3b
000001b0: c964 643e b566 93be 4c9e bd3e 5229 adbe
000001c0: 9c3c e9bd 6b33 e73e 03b9 10be 54d6 6cbd
000001d0: 0eb2 133e 5f39 b03e 3bc9 f23b 7e4c ee3d
000001e0: 961c bfbd d3a7 1a3e 5635 b73d fd5b b03e
000001f0: f773 263f 4492 1fbd 5e2f 063e 38af 123d
00000200: 7f55 473e 058a 14be c0b9 96bd 88b2 c6bd
00000210: e233 b7be 8126 103d d6bf 5bbe 290d d93d
00000220: 0e1a 353e 7ee2 503e 0bff 8e3e 3b65 f93c
00000230: 1aa2 83be 6902 d2bd 2497 50be 174f 4ebe
00000240: 2b47 c7be 7b3f 033e 3c43 1fbe 239c 523e
00000250: 9e59 883e 783d 5e3d e52b 39be 735b 483e
00000260: b12e d5be c1e5 dfbd f97b f83d fd44 dcbe
00000270: 19f2 cfbc 2bfb 773e bde6 bcbe 4594 fc3d
00000280: b406 323d 6336 f9bd 628b a7be e064 68bd
00000290: dca7 b93d 3b7d 79be ca0b e9bd 79f1 f43e
000002a0: 2531 293e a06b 2bbe 03df d1bd 1447 153e
000002b0: 37d6 993e d96a abbc 969a 8bbe 49c4 dd3e
000002c0: fdd9 ab3d b438 bb3c aab7 7abe 70f2 9f3d
000002d0: 40fb 82be 5b06 2abe 291c 31bd 562d a2bc
000002e0: 0dbe 20be b124 da3e c846 cfbc 69ca da3d
000002f0: 4291 f33e da08 843a 85a6 8f3e dc84 38ba
00000300: e77a 95bd 3d30 5f3e 6955 55be 8310 093e
00000310: 3587 8dbe 9a57 22be 6225 a7bd 52d0 25bd
00000320: c0be 413d 7a63 3bbd 99f3 813e 3d29 363e
00000330: c713 cebd f824 9b3e 4ce7 ca3d c91e 3c3d
00000340: 488d 9cbd 3f25 8c3e 6c09 cb3e e8ad 1d3d
00000350: affd 383c bb1b 8bbe 23dd 24bd ff61 523e
00000360: 6518 c83b 4295 edbe 9486 463e 782b d33e
00000370: 871b 843d e067 cbbd 1ae3 c5bc 6a6c 063e
00000380: 2012 58be 1b9c 11be 6f54 163f 601b 04be
00000390: 01d6 c1bd ba3d d63d 37f0 143b 5b94 ed3d
000003a0: 68f6 823d 9807 48bd 6610 54bd 740b ad3d
000003b0: 6208 293e c125 24be de1d f63d 34be 4c3e
000003c0: 5c31 903e c1f9 15be bbd3 8ebe c021 993c
000003d0: 02a4 433e c1c0 6abe 8eae 933d 70b0 883a
000003e0: 2456 9f3e 89e2 d53c 8616 633e b8a2 75bc
000003f0: ff20 cf3e 23db c83e 0f84 2b3c e173 8a3e

net.net.4.bias f4 [10]
-0.034257434 0.13015836 -0.57146555 0.2486258 -0.26450178 -0.69519085 0.3721743 -1.0108418
-0.06484666 1.8901405
00000000: 8651 0cbd 3c48 053e 914b 12bf c397 7e3e
00000010: c76c 87be 07f8 31bf a18d be3e 4463 81bf
00000020: 53ce 84bd 20f0 f13f
