continual learning/ModTest2/results/gem_GMod2Cov_nv_0.0_False_5_fashion_mnist_permutations_reduced.pt_2021_08_13_15_33_31_b21b485e68a040019c2c4a7a81066e9a.pt (torch, 368925 bytes, 8 tensors)

tensor f4 [101]
0.0 0.0 0.0 0.0 0.0 0.0 0.0 0.0
0.0 0.0 0.0 1.0 1.0 1.0 1.0 1.0
1.0 1.0 1.0 1.0 1.0 2.0 2.0 2.0
2.0 2.0 2.0 2.0 2.0 2.0 2.0 3.0
3.0 3.0 3.0 3.0 3.0 3.0 3.0 3.0
3.0 4.0 4.0 4.0 4.0 4.0 4.0 4.0
4.0 4.0 4.0 5.0 5.0 5.0 5.0 5.0
5.0 5.0 5.0 5.0 5.0 6.0 6.0 6.0
6.0 6.0 6.0 6.0 6.0 6.0 6.0 7.0
7.0 7.0 7.0 7.0 7.0 7.0 7.0 7.0
7.0 8.0 8.0 8.0 8.0 8.0 8.0 8.0
8.0 8.0 8.0 9.0 9.0 9.0 9.0 9.0
9.0 9.0 9.0 9.0 9.0
00000000: 0000 0000 0000 0000 0000 0000 0000 0000
00000010: 0000 0000 0000 0000 0000 0000 0000 0000
00000020: 0000 0000 0000 0000 0000 0000 0000 803f
00000030: 0000 803f 0000 803f 0000 803f 0000 803f
00000040: 0000 803f 0000 803f 0000 803f 0000 803f
00000050: 0000 803f 0000 0040 0000 0040 0000 0040
00000060: 0000 0040 0000 0040 0000 0040 0000 0040
00000070: 0000 0040 0000 0040 0000 0040 0000 4040
00000080: 0000 4040 0000 4040 0000 4040 0000 4040
00000090: 0000 4040 0000 4040 0000 4040 0000 4040
000000a0: 0000 4040 0000 8040 0000 8040 0000 8040
000000b0: 0000 8040 0000 8040 0000 8040 0000 8040
000000c0: 0000 8040 0000 8040 0000 8040 0000 a040
000000d0: 0000 a040 0000 a040 0000 a040 0000 a040
000000e0: 0000 a040 0000 a040 0000 a040 0000 a040
000000f0: 0000 a040 0000 c040 0000 c040 0000 c040
00000100: 0000 c040 0000 c040 0000 c040 0000 c040
00000110: 0000 c040 0000 c040 0000 c040 0000 e040
00000120: 0000 e040 0000 e040 0000 e040 0000 e040
00000130: 0000 e040 0000 e040 0000 e040 0000 e040
00000140: 0000 e040 0000 0041 0000 0041 0000 0041
00000150: 0000 0041 0000 0041 0000 0041 0000 0041
00000160: 0000 0041 0000 0041 0000 0041 0000 1041
00000170: 0000 1041 0000 1041 0000 1041 0000 1041
00000180: 0000 1041 0000 1041 0000 1041 0000 1041
00000190: 0000 1041

tensor f4 [101, 10]
0.047 0.1682 0.1449 0.1051 0.1369 0.152 0.0532 0.1379
0.11 0.0322 0.4691 0.1751 0.0798 0.1054 0.158 0.1302
0.099 0.195 0.1165 0.0988 0.4704 0.1105 0.0811 0.1432
0.1497 0.0804 0.131 0.1338 0.1258 0.1085 0.5494 0.1308
0.1005 0.1319 0.1449 0.1159 0.1399 0.134 0.1267 0.0852
0.632 0.0883 0.1214 0.1226 0.0975 0.1118 0.1526 0.1099
0.1732 0.1341 0.5255 0.0947 0.1349 0.1663 0.1329 0.1379
0.1866 0.1658 0.1834 0.1089 0.6136 0.0959 0.1592 0.1551
0.116 0.0902 0.1277 0.1246 0.1981 0.1373 0.6347 0.1361
0.145 0.1529 0.1453 0.1122 0.1523 0.1421 0.1505 0.1349
0.6661 0.1095 0.1717 0.1815 0.1348 0.0993 0.151 0.1815
0.1985 0.1581 0.6864 0.1047 0.1377 0.1901 0.1369 0.1228
0.1589 0.1685 0.1666 0.144 0.7113 0.0944 0.1177 0.174
0.1363 0.0949 0.1784 0.1826 0.179 0.1175 0.7074 0.5039
0.1529 0.1639 0.1457 0.1232 0.169 0.1516 0.1905 0.1599
0.6945 0.6429 0.1591 0.1611 0.1474 0.1024 0.1505 0.1558
0.1743 0.1322 0.6348 0.5467 0.1348 0.1427 0.1371 0.107
0.126 0.1325 0.1355 0.1483 0.6696 0.6472 0.1221 0.1787
0.1458 0.1205 0.1675 0.1632 0.157 0.1512 0.6017 0.6662
0.1378 0.1671 0.1542 0.1205 0.1633 0.1661 0.1876 0.1239
0.6599 0.6171 0.1535 0.1637 0.1458 0.0831 0.1607 0.1891
0.196 0.1481 0.6207 0.6588 0.1546 0.1661 0.1529 0.0938
0.1677 0.2026 0.1792 0.1508 0.6479 0.6934 0.1408 0.1586
0.1401 0.1117 0.1441 0.165 0.1773 0.1693 0.6274 0.6853
0.1238 0.1742 0.1413 0.1083 0.1704 0.1765 0.1984 0.1425
0.5848 0.6941 0.1445 0.1541 0.1409 0.1112 0.14 0.1839
0.1546 0.1504 0.6008 0.6516 0.5253 0.1464 0.1461 0.1162
0.1275 0.1438 0.1688 0.1386 0.5787 0.6578 0.5752 0.1559
0.1571 0.1294 0.1638 0.2196 0.1695 0.1666 0.6273 0.6819
0.6229 0.1757 0.1747 0.1286 0.1555 0.1609 0.2062 0.162
0.5206 0.5816 0.5348 0.145 0.1375 0.1305 0.1385 0.1519
0.1473 0.1365 0.5999 0.6666 0.6441 0.1503 0.1481 0.0836
00000000: 1283 403d 9f3c 2c3e aa60 143e ab3e d73d
00000010: 832f 0c3e e3a5 1b3e 3ee8 593d a835 0d3e
00000020: ae47 e13d 26e4 033d e02d f03e 6a4d 333e
00000030: 2f6e a33d f5db d73d c1ca 213e 2653 053e
00000040: 83c0 ca3d 14ae 473e 8d97 ee3d a857 ca3d
00000050: 45d8 f03e d34d e23d c217 a63d 05a3 123e
00000060: f54a 193e c1a8 a43d dd24 063e de02 093e
00000070: b7d1 003e 3f35 de3d 7aa5 0c3f 6ff0 053e
00000080: f2d2 cd3d cb10 073e aa60 143e fb5c ed3d
00000090: f241 0f3e 4c37 093e a5bd 013e 567d ae3d
000000a0: c1ca 213f a1d6 b43d 90a0 f83d b515 fb3d
000000b0: 14ae c73d 66f7 e43d 2d43 1c3e 4013 e13d
000000c0: 575b 313e 8351 093e 2b87 063f 13f2 c13d
000000d0: 3a23 0a3e 8c4a 2a3e f016 083e a835 0d3e
000000e0: 1214 3f3e 7ac7 293e 36cd 3b3e f706 df3d
000000f0: e414 1d3f 3867 c43d 5305 233e 89d2 1e3e
00000100: 6891 ed3d c7ba b83d cac3 023e 492e ff3d
00000110: bada 4a3e 5f98 0c3e b37b 223f cc5d 0b3e
00000120: e17a 143e d191 1c3e 86c9 143e 1dc9 e53d
00000130: 88f4 1b3e aa82 113e ac1c 1a3e 3a23 0a3e
00000140: 8885 2a3f 8941 e03d 20d2 2f3e 23db 393e
00000150: 0309 0a3e cc5d cb3d be9f 1a3e 23db 393e
00000160: 9643 4b3e f7e4 213e e9b7 2f3f f46c d63d
00000170: 3b01 0d3e 93a9 423e 832f 0c3e 917e fb3d
00000180: aeb6 223e 448b 2c3e 3199 2a3e bc74 133e
00000190: c217 363f ca54 c13d b30c f13d 0e2d 323e
000001a0: 3a92 0b3e ee5a c23d 7dae 363e 7ffb 3a3e
000001b0: c74b 373e d7a3 f03d 2b18 353f 97ff 003f
000001c0: d191 1c3e 67d5 273e 6132 153e 4850 fc3d
000001d0: 560e 2d3e 083d 1b3e 6f12 433e d3bc 233e
000001e0: c1ca 313f 1895 243f 1ceb 223e 66f7 243e
000001f0: 07f0 163e 17b7 d13d ac1c 1a3e 098a 1f3e
00000200: b37b 323e 705f 073e 4182 223f 88f4 0b3f
00000210: 0309 0a3e f31f 123e f163 0c3e d122 db3d
00000220: 2506 013e 14ae 073e 83c0 0a3e f5db 173e
00000230: e86a 2b3f e6ae 253f 910f fa3d 22fd 363e
00000240: 984c 153e b4c8 f63d 1f85 2b3e e71d 273e
00000250: 9cc4 203e 2cd4 1a3e 0309 1a3f 158c 2a3f
00000260: 711b 0d3e 431c 2b3e 9be6 1d3e b4c8 f63d
00000270: 1d38 273e 1e16 2a3e 371a 403e 48bf fd3d
00000280: 35ef 283f 44fa 1d3f 1b2f 1d3e f9a0 273e
00000290: 984c 153e 5530 aa3d 8a8e 243e 6ea3 413e
000002a0: 39b4 483e 87a7 173e 32e6 1e3f 1ea7 283f
000002b0: 764f 1e3e 1e16 2a3e d191 1c3e 371a c03d
000002c0: 8cb9 2b3e 6076 4f3e 3480 373e 516b 1a3e
000002d0: c6dc 253f aa82 313f e02d 103e 0a68 223e
000002e0: 6076 0f3e f8c2 e43d f38e 133e c3f5 283e
000002f0: 228e 353e fb5c 2d3e 499d 203f d26f 2f3f
00000300: db8a fd3d 7c61 323e f2b0 103e 64cc dd3d
00000310: 567d 2e3e 6abc 343e 5f29 4b3e 85eb 113e
00000320: 74b5 153f 8ab0 313f cff7 133e 64cc 1d3e
00000330: 1748 103e d3bc e33d 295c 0f3e 4850 3c3e
00000340: 764f 1e3e 7502 1a3e 07ce 193f 42cf 263f
00000350: 107a 063f e2e9 153e 3d9b 153e 44fa ed3d
00000360: 5c8f 023e 4f40 133e e8d9 2c3e 29ed 0d3e
00000370: af25 143f 9565 283f 4f40 133f 40a4 1f3e
00000380: d3de 203e 6f81 043e 30bb 273e d3de 603e
00000390: 6891 2d3e 3199 2a3e bc96 203f 0091 2e3f
000003a0: 6076 1f3f b3ea 333e 8fe4 323e b8af 033e
000003b0: 643b 1f3e f8c2 243e 1826 533e 54e3 253e
000003c0: 0b46 053f bde3 143f a7e8 083f e17a 143e
000003d0: cdcc 0c3e cba1 053e f2d2 0d3e ac8b 1b3e
000003e0: d0d5 163e a8c6 0b3e 0c93 193f 4ca6 2a3f
000003f0: bde3 243f 3ee8 193e 87a7 173e 7a36 ab3d

net.net.0.weight f4 [100, 784]
0.0015261768 -0.0682638 0.1745275 0.060464352 0.056587234 0.0022845769 -0.009063063 -0.14837351
0.09136209 0.0045952285 -0.07654396 -0.017605893 -0.04928727 0.092836425 -0.012529779 0.09933793
0.10991785 0.0050058607 0.10783864 0.04478502 -0.106311634 -0.01563726 -0.047307912 -0.074868746
-0.013982979 -0.01977403 -0.12218473 -0.039862864 -0.119748086 0.05262774 0.019925768 -0.024135398
-0.10831545 -0.039640654 0.009024853 -0.029714774 -0.13174133 0.057658907 0.074808925 0.024786625
0.1046541 0.014492555 0.0734306 -0.031910084 0.09762794 -0.00879428 0.08409336 0.06286451
-0.029466974 0.04587063 0.08905604 -0.025084414 -0.0182486 -0.072920576 -0.04740408 0.074786596
-0.051556412 -0.05747308 -0.071481206 0.051502734 -0.04968759 0.09810855 -0.029601619 0.04019314
-0.00039343763 0.028138557 0.082899906 0.03732513 -0.00020651997 0.06523724 0.021793287 -0.0017057741
0.058570746 -0.106600694 -0.009742297 0.068647794 -0.07761872 -0.07573803 -0.042386904 -0.0032561626
-0.010611563 -0.029739466 -0.11547164 0.056904674 -0.015972234 0.041738354 -0.054038864 -0.055110417
0.0826783 0.094083704 -0.016511213 -0.07686499 0.04587897 0.060349416 0.06853766 0.07254992
0.029644571 -0.13469245 0.07460556 0.03115039 -0.022680094 -0.047158983 0.0044148657 0.038803007
0.11239691 0.15381533 0.10723161 0.11277383 0.029575733 -0.008551803 0.07966304 0.05106953
0.021285435 0.035252795 -0.050359044 -0.07424929 0.07273314 0.09741957 0.07143084 0.13308656
-0.07063713 0.08105297 0.048182353 0.016681956 -0.03745602 -0.016843906 -0.048229776 0.031171186
-0.00072005746 0.06640555 -0.023432551 0.03196097 0.07679621 0.09256173 -0.02947441 0.12354555
-0.0030232521 -0.106466584 0.01731557 -0.049979765 -0.0012499181 -0.034011416 0.08034136 -0.023047257
0.099540584 0.054023556 0.025889635 0.03799936 0.110040225 0.02694642 -0.10479016 0.0073412242
0.07692163 -0.09360116 0.02962184 0.09039579 -0.0007822346 -0.018254252 -0.012926361 0.0027925023
-0.01436288 0.015165968 -0.021183804 -0.0008016695 0.0487398 -0.038375836 0.045378752 0.052124765
-0.016585223 -0.15130259 -0.080722295 0.098158166 -0.00062695664 0.01670877 0.041026235 -0.07687705
-0.09914112 0.010312984 0.01882436 0.015047174 -0.05718551 0.01675263 -0.00033969615 0.02312253
0.0018907265 0.041031368 0.07048086 0.065676555 -0.07585381 0.13264483 0.06745542 -0.0051401984
-0.055640373 0.096849345 0.081449166 0.008014963 0.05753514 0.047354005 0.03470082 0.055937137
-0.011012115 0.05639639 0.16015401 -0.108472496 -0.07231707 -0.08662823 0.01452035 0.0663021
-0.07999854 0.026378503 0.017601464 0.046615653 0.12843229 0.014777334 0.010220178 0.10586831
-0.071386084 0.082781345 -0.041925028 0.10468735 -0.0429073 -0.13304502 -0.07857631 -0.061904687
0.01768146 -0.106609404 0.09086698 -0.046924524 0.10243073 -0.080343775 -0.048466347 0.052732725
0.104188 0.080713816 0.013890844 0.06477951 -0.059483703 0.026852217 0.041021243 0.02607882
-0.00963743 -0.024657872 0.032931678 0.0822275 -0.015813874 0.00862967 0.05452835 0.011967664
-0.020127673 -0.10962115 -0.08922112 -0.01213083 -0.033631686 -0.06592535 0.050997164 -0.089034006
00000000: ff09 c83a e4cd 8bbd 56b7 323e 78a9 773d
00000010: 04c8 673d d7b8 153b 3e7d 14bc 3aef 17be
00000020: 0c1c bb3d 9293 963b 14c3 9cbd 3c3a 90bc
00000030: 73e1 49bd 0621 be3d b449 4dbc af71 cb3d
00000040: 9c1c e13d 3408 a43b 81da dc3d 7f70 373d
00000050: eab9 d9bd b619 80bc f1c5 41bd c954 99bd
00000060: dd18 65bc 26fd a1bc fd3b fabd 3e47 23bd
00000070: 7c3e f5bd 2f90 573d 5d3b a33c 99b7 c5bc
00000080: 7ed4 ddbd 3d5e 22bd fadc 133c 666c f3bc
00000090: 33e7 06be bf2b 6c3d 6c35 993d 520d cb3c
000000a0: e454 d63d 2e72 6d3c c862 963d 26b4 02bd
000000b0: 28f1 c73d e215 10bc 2439 ac3d 1cbf 803d
000000c0: b964 f1bc d7e2 3b3d 0363 b63d d47d cdbc
000000d0: 177e 95bc 6257 95bd c82a 42bd b729 993d
000000e0: d12c 53bd e468 6bbd bd64 92bd 88f4 523d
000000f0: 3785 4bbd 23ed c83d 187f f2bc 90a1 243d
00000100: 4e46 ceb9 d582 e63c 6dc7 a93d 3ce2 183d
00000110: 488d 58b9 1a9b 853d d687 b23c 4894 dfba
00000120: e1e7 6f3d 7751 dabd 289e 1fbc 3797 8c3d
00000130: 90f6 9ebd 8a1c 9bbd e49d 2dbd 5865 55bb
00000140: 1fdc 2dbc 2ea0 f3bc 657c ecbd e014 693d
00000150: 34d8 82bc d6f5 2a3d db57 5dbd 76bb 61bd
00000160: 3e53 a93d f5ae c03d 8642 87bc 646b 9dbd
00000170: 96eb 3b3d f330 773d 795d 8c3d 0d95 943d
00000180: 2cd9 f23c d1ec 09be cdca 983d 1a2f ff3c
00000190: 9bcb b9bc c729 41bd 94aa 903b e7ef 1e3d
000001a0: 5a30 e63d c481 1d3e 3f9c db3d f7f5 e63d
000001b0: cf48 f23c dd1c 0cbc 6026 a33d 492e 513d
000001c0: cb5e ae3c 3c65 103d 4945 4ebd 0310 98bd
000001d0: 1df5 943d e983 c73d 554a 923d d847 083e
000001e0: 33aa 90bd 19ff a53d dc5a 453d 99a8 883c
000001f0: 7c6b 19bd 3bfc 89bc 968c 45bd b75a ff3c
00000200: 3dc2 3cba a2ff 873d 9ff5 bfbc 82e9 023d
00000210: 5547 9d3d 0191 bd3d 5174 f1bc 7305 fd3d
00000220: c121 46bb 270b dabd 62d9 8d3c 95b7 4cbd
00000230: 4bd4 a3ba 8e4f 0bbd 038a a43d 9acd bcbc
00000240: efdb cb3d ce47 5d3d 8016 d43c 38a5 1b3d
00000250: c55c e13d bdbe dc3c 399c d6bd a78e f03b
00000260: 1689 9d3d f7b1 bfbd 80a9 f23c 6e21 b93d
00000270: e00e 4dba f189 95bc 16c9 53bc 6a02 373b
00000280: 4952 6bbc ae7a 783c a889 adbc 2127 52ba
00000290: 62a3 473d fb2f 1dbd 12df 393d c780 553d
000002a0: bcdd 87bc 11ef 1abe bb51 a5bd 2607 c93d
000002b0: 595a 24ba d5e0 883c 200b 283d b771 9dbd
000002c0: 800a cbbd caf7 283c 8b35 9a3c 6c88 763c
000002d0: 5a3b 6abd d03c 893c 3f19 b2b9 766b bd3c
000002e0: 41d2 f73a 8210 283d 4558 903d 6e81 863d
000002f0: 3e59 9bbd 0cd4 073e 1126 8a3d 1c6f a8bb
00000300: 29e7 63bd f358 c63d d2ce a63d 3151 033c
00000310: f8a9 6b3d 46f6 413d 7222 0e3d 571e 653d
00000320: 286c 34bc e7ff 663d 6aff 233e d426 debd
00000330: f91a 94bd 246a b1bd c3e6 6d3c 65c9 873d
00000340: 46d6 a3bd bb17 d83c f230 903c 0ef0 3e3d
00000350: c183 033e a21c 723c 8972 273c 7cd1 d83d
00000360: de32 92bd 4489 a93d 94b9 2bbd 5266 d63d
00000370: 91bf 2fbd f43c 08be 9eec a0bd c58f 7dbd
00000380: b6d8 903c 0856 dabd 7818 ba3d ee33 40bd
00000390: 34c7 d13d 478b a4bd a684 46bd 45fe 573d
000003a0: 8560 d53d 494d a53d 6c96 633c 1fab 843d
000003b0: 2fa5 73bd 2ef9 db3c e405 283d 40a3 d53c
000003c0: 50e6 1dbc 4eff c9bc 5ee3 063d e466 a83d
000003d0: 198c 81bc 7663 0d3c 1e59 5f3d 0514 443c
000003e0: cae2 a4bc 0e81 e0bd 90b9 b6bd 64c0 46bc
000003f0: 61c1 09bd df03 87bd 67e2 503d 7657 b6bd

net.net.0.bias f4 [100]
0.10707079 -0.0026034298 -0.008662305 -0.0553612 -0.016444586 -0.15135413 0.0435649 0.48233333
-0.008470957 -0.02021784 0.06869011 -0.04533841 -0.05352084 0.11917479 -0.12835902 0.19193871
0.0114404615 0.00077708997 0.23515046 -0.07169294 0.16784391 0.42155305 0.08562139 -0.24219917
-0.0343466 0.21120097 0.39989722 -0.24605693 -0.028107565 -0.044023447 0.092747055 0.06600734
-0.115210585 -0.2831718 0.018962389 0.42885482 -0.044355072 0.19455217 -0.04113153 0.26607886
0.004884867 0.6279833 0.103095755 0.31736618 0.1624768 0.3855419 0.16837786 0.034839027
0.18383893 0.03744099 0.05627317 0.22235966 0.02298232 0.05335789 0.1569656 0.24284013
0.34673908 0.081366554 0.023386894 0.0018024604 -0.022506703 -0.018609121 0.023724392 0.028045245
0.021280726 0.2814987 0.019770158 0.023879655 0.039687 0.07675825 0.23819609 0.048635338
-0.041109763 0.18746994 0.24045703 -0.0077891196 0.042214986 0.11515256 0.04819753 0.1039009
0.06796794 0.13510266 -0.061283946 -0.10453532 -0.10071534 0.061016716 0.05435333 -0.0027862461
-0.015714692 0.22364347 -0.11042914 -0.01891717 0.019337665 0.13567829 0.0616177 0.1076436
-0.07651042 0.124172494 0.057660226 -0.037101332
00000000: ee47 db3d 4e9e 2abb 57ec 0dbc 6dc2 62bd
00000010: ccb6 86bc 94fc 1abe 1c71 323d 65f4 f63e
00000020: c5c9 0abc e29f a5bc 67ad 8c3d c5b4 39bd
00000030: ab38 5bbd ea11 f43d 8c70 03be 958b 443e
00000040: c670 3b3c a0b5 4b3a 48cb 703e c0d3 92bd
00000050: 46df 2b3e cdd5 d73e 445a af3d 0f03 78be
00000060: 05af 0cbd 1145 583e 54bf cc3e 59f6 7bbe
00000070: d641 e6bc ee51 34bd 2bf2 bd3d db2e 873d
00000080: 87f3 ebbd e5fb 90be 0357 9b3c dc92 db3e
00000090: aaad 35bd af38 473e 8979 28bd 7d3b 883e
000000a0: 3c11 a03b 83c3 203f de23 d33d d27d a23e
000000b0: 5160 263e bf65 c53e 3f6b 2c3e 5eb3 0e3d
000000c0: 4640 3c3e b95b 193d b27e 663d 40b2 633e
000000d0: 6b45 bc3c ce8d 5a3d 97bb 203e 15ab 783e
000000e0: c987 b13e 82a3 a63d df95 bf3c 8940 ec3a
000000f0: fa5f b8bc 2872 98bc a859 c23c 24bf e53c
00000100: eb54 ae3c 9920 903e 07f5 a13c 449f c33c
00000110: d68e 223d 6e33 9d3d ade9 733e d935 473d
00000120: b662 28bd 1ff8 3f3e 5e3a 763e df3b ffbb
00000130: 9fe9 2c3d 1bd5 eb3d c66a 453d ffc9 d43d
00000140: c632 8b3d 5a58 0a3e e004 7bbd 9d16 d6bd
00000150: d843 cebd aaec 793d 99a1 5e3d 7499 36bb
00000160: 19bc 80bc cb02 653e ac28 e2bd 2ef8 9abc
00000170: 066a 9e3c 40ef 0a3e d762 7c3d 3f74 dc3d
00000180: 7fb1 9cbd 264e fe3d 212d 6c3d 91f7 17bd

net.net.2.weight f4 [100, 100]
0.13672152 0.19911933 0.030837111 0.058275826 -0.16721568 -0.13154945 0.15170367 -0.03583861
0.2024043 0.116710626 -0.01959919 -0.06131745 -0.07676516 0.054287847 -0.05031118 -0.11094701
-0.115668006 0.10489682 0.14149328 0.075043015 0.024265155 0.14852445 0.21574879 -0.10288281
0.10883907 -0.14850785 0.013363672 0.022012703 -0.14676633 -0.086844906 0.068890825 0.057981018
0.079019606 -0.27709755 0.1970866 0.012566035 -0.09933575 0.22720052 0.16783474 0.16935633
0.044106524 -0.11411944 0.25274646 -0.12984483 -0.20503189 0.08799853 -0.019203609 -0.11385953
0.013713154 -0.06648894 -0.15766943 -0.08700616 -0.17299013 0.13544296 0.14431608 -0.09418353
0.072646804 -0.022650355 0.14883867 -0.15966806 0.14588301 -0.0030127177 -0.0885703 -0.16607283
-0.1763959 -0.18337733 0.03001778 0.08524137 -0.06718816 0.02180122 -0.099161796 0.08710536
-0.16832127 0.09532836 -0.09401589 0.1220771 0.122169554 0.06636967 -0.04262596 0.056411102
0.113458455 -0.047120977 -0.14168772 0.05164193 0.065411314 0.12271871 -0.004593512 -0.028748449
-0.091166236 -0.022100644 -0.05130769 -0.11904727 0.056480516 -0.087989755 0.06244448 -0.060978234
0.05741069 0.20138375 0.17287591 0.12388277 0.094671875 0.07179042 -0.060797226 -0.021619694
0.09663731 -0.05235389 -0.08151055 -0.09905407 -0.1022889 -0.03372999 -0.0015704805 -0.029684315
-0.1404732 0.0063688154 -0.13993803 -0.08722317 -0.049942635 -0.025174852 -0.09512429 0.14966051
-0.121855825 -0.036616165 -0.1098715 0.19236447 -0.0041672233 0.15317032 -0.17529744 -0.2085332
-0.008422454 -0.11334253 -0.07526417 -0.023722643 0.030171512 -0.1050659 0.06007548 -0.15188192
-0.07410242 -0.14581369 -0.042677943 0.066253595 0.16263913 -0.06305398 0.02554122 -0.027666865
0.0070788153 -0.00035461213 -0.056978125 -0.13764578 -0.09253585 0.14827724 -0.008754527 -0.13037711
-0.05018991 -0.11831767 -0.023605943 -0.11317864 0.1163357 0.12490779 -0.11665852 0.10074933
-0.12920634 0.05022122 0.15981075 -0.0077120857 -0.15536326 0.058681335 -0.1573808 0.2043697
0.10192332 0.10223004 -0.055858284 -0.10013736 0.12381507 0.12740709 0.07480226 0.013261368
-0.18257143 0.04544589 0.083253846 0.18019125 -0.13340573 -0.051299896 0.01116557 -0.08610253
0.06941309 -0.06471365 -0.10651951 -0.13654199 0.10124293 -0.07083789 -0.09363303 -0.017370753
0.015876966 -0.08246897 -0.12766182 0.045203313 -0.04387336 -0.125294 -0.07841569 -0.12207524
0.15498301 0.15415297 0.060984034 0.16021538 -0.12100367 -0.052909315 0.04814132 0.14501068
-0.07298352 -0.01285 0.08041585 -0.059820134 -0.10468667 0.16024095 -0.096021526 -0.033816256
0.054182984 -0.07723611 0.2356149 -0.0043352176 -0.02407455 -0.090914235 0.05459371 -0.1764434
0.028010914 -0.0022577564 0.0945693 -0.29133725 -0.12600589 -0.092996985 0.1721936 -0.06372017
-0.02191888 -0.1405646 0.1299256 0.28950298 -0.15873905 0.06618475 -0.14754944 -0.046535064
-0.17710221 0.13517879 0.01448344 0.12535283 0.051162135 0.1798811 -0.034426514 -0.12988244
-0.06227838 0.040838145 0.055491842 0.07887891 -0.14911944 0.0018193835 -0.06627862 -0.041061044
00000000: ba00 0c3e f0e5 4b3e 1c9e fc3c a2b2 6e3d
00000010: 963a 2bbe e6b4 06be 3558 1b3e 82cb 12bd
00000020: 1343 4f3e fb05 ef3d 7b8e a0bc 0228 7bbd
00000030: 0d37 9dbd ef5c 5e3d 1913 4ebd 3038 e3bd
00000040: 59e3 ecbd 25d4 d63d 9de3 103e 27b0 993d
00000050: b8c7 c63c cb16 183e 40ed 5c3e 39b4 d2bd
00000060: 05e7 de3d 7112 18be 4ef3 5a3c fc53 b43c
00000070: ea49 16be bedb b1bd a216 8d3d 817d 6d3d
00000080: 08d5 a13d bbdf 8dbe 12d1 493e c5e1 4d3c
00000090: 8b70 cbbd 41a7 683e dfdc 2b3e bf6b 2d3e
000000a0: 0ba9 343d 74b7 e9bd fc67 813e 0bf6 04be
000000b0: e1f3 51be 9338 b43d e350 9dbc 2f2f e9bd
000000c0: 23ad 603c 5a2b 88bd 1874 21be 4930 b2bd
000000d0: 5324 31be 8fb1 0a3e 98c7 133e 4be3 c0bd
000000e0: d9c7 943d 3d8d b9bc 2a69 183e 0680 23be
000000f0: 5b62 153e 0471 45bb 5864 b5bd ff0e 2abe
00000100: 20a1 34be 44c7 3bbe d9e7 f53c 0793 ae3d
00000110: f299 89bd 7998 b23c 5715 cbbd 4c64 b23d
00000120: 695c 2cbe 843b c33d 678b c0bd 8f03 fa3d
00000130: 0834 fa3d d2ec 873d 8f98 2ebd 540f 673d
00000140: e85c e83d ed01 41bd 9616 11be 7d86 533d
00000150: 5ef6 853d f253 fb3d 2c85 96bb de81 ebbc
00000160: 5db5 babd 690c b5bc 0328 52bd 0ecf f3bd
00000170: 1d58 673d f933 b4bd c8c5 7f3d 50c4 79bd
00000180: 7927 6b3d 8b37 4e3e 6206 313e 40b6 fd3d
00000190: 54e3 c13d db06 933d 8306 79bd c91b b1bc
000001a0: c8e9 c53d 0871 56bd 01ef a6bd dcdc cabd
000001b0: d87c d1bd 7528 0abd 95d8 cdba 852c f3bc
000001c0: 35d8 0fbe 7fb1 d03b ea4b 0fbe 10a2 b2bd
000001d0: a690 4cbd 7e3b cebc 86d0 c2bd 9b40 193e
000001e0: 8c8f f9bd d5fa 15bd 4f04 e1bd 31fb 443e
000001f0: 348d 88bb aed8 1c3e 2c81 33be ba89 55be
00000200: 55fe 09bc 2120 e8bd 1a24 9abd fd55 c2bc
00000210: 3f2a f73c ca2c d7bd b511 763d ef86 1bbe
00000220: 02c3 97bd 2f50 15be 11cf 2ebd f7af 873d
00000230: df8a 263e 7222 81bd d23b d13c 9fa5 e2bc
00000240: 68f5 e73b 3ceb b9b9 e561 69bd 04f3 0cbe
00000250: 7083 bdbd fdd5 173e 266f 0fbc 9481 05be
00000260: ef93 4dbd 8950 f2bd 4061 c1bc 34ca e7bd
00000270: 6941 ee3d a8cf ff3d aaea eebd aa55 ce3d
00000280: ab4e 04be c4b4 4d3d 6ea5 233e aab5 fcbb
00000290: 8c17 1fbe d75b 703d 6f28 21be 4a46 513e
000002a0: 2cbd d03d fc5d d13d a8cb 64bd d114 cdbd
000002b0: c192 fd3d 0177 023e ed31 993d 3546 593c
000002c0: 01f4 3abe 7825 3a3d fe80 aa3d 0e84 383e
000002d0: 839b 08be d71f 52bd cbef 363c 8656 b0bd
000002e0: 7328 8e3d 9788 84bd e726 dabd aad1 0bbe
000002f0: 7458 cf3d 7513 91bd adc2 bfbd 1c4d 8ebc
00000300: 6910 823c 7ee5 a8bd c8b9 02be 1c27 393d
00000310: 8db4 33bd 124d 00be 6898 a0bd 9502 fabd
00000320: deb3 1e3e 47da 1d3e 65ca 793d 800f 243e
00000330: c6d0 f7bd 70b7 58bd d52f 453d ae7d 143e
00000340: 6278 95bd ce88 52bc 11b1 a43d f505 75bd
00000350: f765 d6bd 3416 243e efa6 c4bd ea82 0abd
00000360: faee 5d3d f72d 9ebd 0845 713e 710e 8ebb
00000370: fe37 c5bc 3e31 babd a79d 5f3d 94ad 34be
00000380: 2577 e53c def6 13bb 8dad c13d 282a 95be
00000390: b007 01be 3475 bebd 8553 303e b87f 82bd
000003a0: 398f b3bc 2bf0 0fbe 370b 053e bc39 943e
000003b0: 7d8c 22be df8b 873d 3317 17be 8d9b 3ebd
000003c0: 485a 35be 4f6c 0a3e f34b 6d3c 7e5c 003e
000003d0: 638f 513d c032 383e d102 0dbd e7ff 04be
000003e0: 9d17 7fbd e645 273d 6a4b 633d 448b a13d
000003f0: c4b2 18be 6178 ee3a 16bd 87bd a02f 28bd

net.net.2.bias f4 [100]
0.2442124 0.039463982 0.0678467 0.7303006 0.15296842 0.13811652 0.655282 -0.00864774
1.1449096 0.30439842 0.04108391 0.7180739 0.06877258 0.004938087 0.24554329 0.57908046
0.61186033 -0.13112704 0.293992 0.3286306 0.6078806 0.41842192 0.20591064 0.5767282
0.05784943 0.102137074 0.4926285 0.124607995 0.12889159 0.40767962 0.08062048 0.2096375
0.045764282 0.32842824 0.6310736 0.23577783 0.44281906 0.3534323 0.31992784 0.24265802
0.082862794 0.497961 0.39417914 0.1958885 0.5875547 0.3665545 0.061488044 0.23123427
0.49777865 0.59509015 0.31299564 -0.06182433 0.34555438 0.094549224 0.12819095 0.55796766
0.15188602 0.43870082 0.17317605 0.33773792 0.8018653 0.21571742 0.37152967 0.8619565
0.19682182 0.19044669 0.24670103 0.0119896615 0.37810332 0.48479983 0.11666863 0.25458875
0.5580648 0.48527664 0.27126846 0.53897834 -0.14634147 0.6256884 0.10502623 0.022014603
0.22878581 0.56850475 0.0074358857 -0.14823352 0.094071314 0.029489717 0.30381158 0.21266653
0.6159416 -0.016327064 -0.1871131 0.29586127 0.25592187 0.41723728 0.8683043 0.29222757
0.2181133 0.21700156 -0.073123075 0.61528414
00000000: d112 7a3e fca4 213d 36f3 8a3d fbf4 3a3f
00000010: c1a3 1c3e 6b6e 0d3e 90c0 273f 40af 0dbc
00000020: 668c 923f 1cda 9b3e 9a47 283d b1d3 373f
00000030: a3d8 8c3d adcf a13b b36f 7b3e 9e3e 143f
00000040: e1a2 1c3f 2b46 06be 1f86 963e 4542 a83e
00000050: 109e 1b3f 663b d63e 3dda 523e 76a4 133f
00000060: 86f3 6c3d 3e2d d13d ce39 fc3e 7a32 ff3d
00000070: 28fc 033e 62bb d03e 5a1c a53d 36ab 563e
00000080: 5473 3b3d bf27 a83e 0a8e 213f be6f 713e
00000090: 2eb9 e23e 14f5 b43e 95cd a33e 587b 783e
000000a0: f8b3 a93d bff4 fe3e d9d1 c93e ff96 483e
000000b0: fc69 163f 08ad bb3e e3da 7b3d adc8 6c3e
000000c0: d8dc fe3e d457 183f f740 a03e 823b 7dbd
000000d0: 81ec b03e 06a3 c13d 7d44 033e f8d6 0e3f
000000e0: 0288 1b3e 659d e03e 1055 313e fceb ac3e
000000f0: 0b47 4d3f 07e5 5c3e 2339 be3e 2ea9 5c3f
00000100: a98b 493e 7504 433e 329f 7c3e 4970 443c
00000110: c296 c13e af37 f83e f6ef ee3d 7559 823e
00000120: 56dd 0e3f 2e76 f83e b3e3 8a3e 7cfa 093f
00000130: 8ada 15be 1d2d 203f fe17 d73d f857 b43c
00000140: d446 6a3e 8789 113f bba8 f33b 87ca 17be
00000150: 76a8 c03d 6b94 f13c 318d 9b3e 41c5 593e
00000160: 59ae 1d3f 56c0 85bc 949a 3fbe 217b 973e
00000170: 3108 833e 20a0 d53e 3149 5e3f da9e 953e
00000180: 1859 5f3e a835 5e3e 8dc1 95bd 4383 1d3f

net.net.4.weight f4 [10, 100]
0.14125387 0.03577412 -0.28410864 0.2689697 -0.19463761 -0.20253897 0.33182713 -0.24114224
0.31837398 -0.29419577 -0.21475172 0.29017904 -0.3021242 0.016685529 -0.3195069 0.23923026
-0.12220189 -0.15737183 0.08959347 -0.38346532 0.016258657 -0.4920123 -0.23346148 0.32600808
-0.3411221 -0.09556158 0.20081487 0.20898418 -0.18667586 0.2288022 -0.08379424 -0.007912984
0.1636384 -0.02208934 0.29215413 0.044295225 0.14019126 0.10758403 -0.069803715 -0.092928246
0.18355313 -0.20275602 0.06332209 -0.37685645 0.2740588 -0.02914949 0.04431456 -0.15300703
-0.061684467 0.27135733 0.2195922 0.109055504 -0.30429116 0.12285901 -0.17166555 -0.21954134
-0.0813695 -0.14443861 0.16726959 -0.037666578 0.27925357 0.17295377 0.37782994 0.040381666
0.008814942 -0.085232824 0.18814597 -0.39999905 -0.14965272 0.06157442 -0.5463826 0.12214443
0.18377861 0.19207825 -0.2214488 0.453321 -0.18993054 -0.5182557 0.06531817 0.008848355
-0.3874041 0.16840604 -0.018049128 -0.08712093 -0.123353906 -0.082977384 0.20759702 0.074404284
0.3386595 -0.21348567 -0.20261909 0.08369327 -0.009347197 0.15050481 0.14500464 0.03128276
-0.28728592 0.023665044 -0.28375235 0.412461 0.38414076 0.20562537 0.42978096 -0.08071094
0.1043783 0.3130247 -0.20937955 0.119440205 0.32385734 -0.020582378 0.1127243 -0.32637817
0.014671204 0.12484211 -0.11070764 -0.10394507 -0.11482229 0.17014937 0.18082273 0.16445653
0.28928465 -0.32336026 0.1572236 -0.059177022 0.046056166 -0.054119214 -0.01072883 0.14478058
0.06295878 -0.11192815 0.2033533 0.48872808 -0.0462058 0.05451975 -0.23867889 0.017304692
-0.3121115 -0.021086637 -0.0010150346 -0.1524177 -0.12649676 0.18611273 0.29952917 0.57705915
0.0010707234 -0.014008356 -0.33950567 -0.18210165 -0.3372558 -0.37985814 -0.27171868 0.19856578
-0.12368373 0.2662331 -0.05368326 0.3346387 0.025835024 -0.04886047 -0.014976161 0.085283525
-0.16059488 0.51185584 0.49586904 -0.15878111 0.20059478 -0.019584265 0.066090405 -0.3379581
-0.28385204 0.14635782 -0.361886 -0.19736958 -0.23174775 0.08911599 0.78415775 -0.2624938
0.14386924 -0.15862338 -0.11834266 0.30537888 0.4130398 -0.04623195 -0.26853043 -0.10233787
0.024060143 0.05593703 -0.11609931 -0.25139323 -0.22186792 -0.12260038 -0.19326653 0.16911137
-0.13591862 -0.23575129 -0.07680556 -0.1034404 0.07367719 -0.22113135 0.02977622 -0.25082183
-0.34544396 -0.0022385765 -0.26110858 0.3212682 -0.2228317 -0.030910214 0.16970173 -0.05513956
-0.3361465 -0.037149385 -0.034335237 -0.22536726 -0.28140673 -0.17955975 0.24982356 0.26993752
0.21925029 -0.19623865 0.36639446 -0.26736197 0.13642633 0.19700813 -0.084876634 -0.28927416
0.21664259 0.14703824 0.13863459 -0.041042257 -0.09817047 0.16263911 -0.28230238 0.027581912
0.061012533 0.21906498 -0.046044495 0.16404876 0.54688615 0.039322115 0.03912617 -0.029746458
-0.0928427 0.070344016 0.14162685 -0.19374548 0.36101943 0.07362172 -0.38027057 -0.053645145
-0.118691474 -0.30376828 -0.09427259 0.08688746 -0.4306312 -0.24886304 -0.19205058 0.11517328
00000000: dba4 103e e287 123d b076 91be 66b6 893e
00000010: 154f 47be 6066 4fbe 3fe5 a93e feed 76be
00000020: ea01 a33e d4a0 96be e0e7 5bbe 5992 943e
00000030: 06b0 9abe 17b0 883c 6996 a3be c7f8 743e
00000040: fc44 fabd 1526 21be c87c b73d 9155 c4be
00000050: e030 853c 09e9 fbbe 8710 6fbe 88ea a63e
00000060: 8ea7 aebe cab5 c3bd 6aa2 4d3e f3ff 553e
00000070: f527 3fbe 204b 6a3e 519c abbd 76a5 01bc
00000080: d390 273e b4f4 b4bc 3a95 953e e96e 353d
00000090: 4c8e 0f3e 0455 dc3d 40f5 8ebd 2a51 bebd
000000a0: 5af5 3b3e 469f 4fbe 03af 813d 54f3 c0be
000000b0: 6f51 8c3e e9ca eebc 2f83 353d e0ad 1cbe
000000c0: daa8 7cbd 59ef 8a3e c7dc 603e 7e58 df3d
000000d0: 0dcc 9bbe 819d fb3d 18c9 2fbe 72cf 60be
000000e0: 0da5 a6bd b7e7 13be b848 2b3e 4548 1abd
000000f0: 53fa 8e3e cb1a 313e ed72 c13e 3f67 253d
00000100: 8c6c 103c 8c8e aebd 56a9 403e adcc ccbe
00000110: 903e 19be 7635 7c3d bbdf 0bbf dc26 fa3d
00000120: 7630 3c3e 29b0 443e 79c3 62be b119 e83e
00000130: 277d 42be 68ac 04bf 88c5 853d b1f8 103c
00000140: d559 c6be a272 2c3e c4db 93bc 756c b2bd
00000150: f9a0 fcbd 0cf0 a9bd 5094 543e 4661 983d
00000160: c764 ad3e fd9b 5abe 617b 4fbe 6167 ab3d
00000170: fc24 19bc ef1d 1a3e 197c 143e 5a22 003d
00000180: 2417 93be 32dd c13c fd47 91be 172e d33e
00000190: 19ae c43e 758f 523e 400c dc3e c74b a5bd
000001a0: 4ac4 d53d c644 a03e 9867 56be 119d f43d
000001b0: a1d0 a53e 609c a8bc ffdb e63d 0a1b a7be
000001c0: 7d5f 703c 38ad ff3d b0ba e2bd 27e1 d4bd
000001d0: f327 ebbd a33b 2e3e 9829 393e 4b67 283e
000001e0: 1e1d 943e 7a8f a5be 39ff 203e 9b63 72bd
000001f0: 64a5 3c3d 1cac 5dbd f9c7 2fbc 5c41 143e
00000200: 88f0 803d 963a e5bd d93b 503e 913a fa3e
00000210: 4b42 3dbd 1a50 5f3d 3d68 74be 92c2 8d3c
00000220: 14cd 9fbe e2bd acbc e90a 85ba 6313 1cbe
00000230: 5e88 01be 5694 3e3e e35b 993e 26ba 133f
00000240: 8457 8c3a 4e83 65bc b0d3 adbe db78 3abe
00000250: cbac acbe c47c c2be b61e 8bbe d454 4b3e
00000260: e54d fdbd b44f 883e fae2 5bbd c455 ab3e
00000270: f9a3 d33c eb21 48bd 925e 75bc 21a9 ae3d
00000280: fc72 24be fc08 033f 8ce2 fd3e 8497 22be
00000290: b868 4d3e 2e6f a0bc 685a 873d d808 adbe
000002a0: 0e55 91be d3de 153e 1f49 b9be 401b 4abe
000002b0: 484f 6dbe 7282 b63d 90be 483f 9665 86be
000002c0: 7552 133e 2b6e 22be a35d f2bd 9f5a 9c3e
000002d0: f479 d33e b75d 3dbd d27c 89be 8496 d1bd
000002e0: c719 c53c 3a1e 653d 7ac5 edbd 9db6 80be
000002f0: 5831 63be e815 fbbd a9e7 45be 882b 2d3e
00000300: 402e 0bbe c968 71be 3c4c 9dbd 8fd8 d3bd
00000310: 11e4 963d 4270 62be 42ed f33c b86b 80be
00000320: 08de b0be 15b5 12bb 06b0 85be 447d a43e
00000330: fe2d 64be 6b37 fdbc 4ac6 2d3e 05da 61bd
00000340: 651b acbe f429 18bd 1ba3 0cbd adc6 66be
00000350: 8b14 90be 83de 37be bfd1 7f3e 4035 8a3e
00000360: 2683 603e c9f2 48be 0e98 bb3e abe3 88be
00000370: 58b3 0b3e 80bc 493e cdd3 adbd be1b 94be
00000380: 8ed7 5d3e 3191 163e 3af6 0d3e ed1b 28bd
00000390: 990d c9bd de8a 263e f089 90be 76f3 e13c
000003a0: 47e8 793d 9252 603e 2799 3cbd 66fc 273e
000003b0: bb00 0c3f 3a10 213d c342 203d d8ae f3bc
000003c0: 5024 bebd 8610 903d a106 113e 3765 46be
000003d0: 8ad7 b83e fcc6 963d d3b2 c2be 03bb 5bbd
000003e0: 8414 f3bd 8487 9bbe fd11 c1bd 0df2 b13d
000003f0: b17b dcbe f4d5 7ebe e8a8 44be f8df eb3d

net.net.4.bias f4 [10]
0.84838957 -0.49376336 0.20742427 -0.4064007 0.2628048 0.16991733 -0.046588775 -0.4447386
-0.3195737 0.22250779
00000000: 0f30 593f 8dce fcbe 0767 543e c113 d0be
00000010: 5a8e 863e cffe 2d3e dfd3 3ebd c7b4 e3be
00000020: 2a9f a3be 15d9 633e
