continual learning/ModTest2/results/gem_GMod2Cov_nv_0.0_False_5_mnist_rotations_reduced.pt_2021_08_13_17_50_39_5cfb7be292b64498b03908066ada0532.pt (torch, 368925 bytes, 8 tensors)

tensor f4 [101]
0.0 0.0 0.0 0.0 0.0 0.0 0.0 0.0
0.0 0.0 0.0 1.0 1.0 1.0 1.0 1.0
1.0 1.0 1.0 1.0 1.0 2.0 2.0 2.0
2.0 2.0 2.0 2.0 2.0 2.0 2.0 3.0
3.0 3.0 3.0 3.0 3.0 3.0 3.0 3.0
3.0 4.0 4.0 4.0 4.0 4.0 4.0 4.0
4.0 4.0 4.0 5.0 5.0 5.0 5.0 5.0
5.0 5.0 5.0 5.0 5.0 6.0 6.0 6.0
6.0 6.0 6.0 6.0 6.0 6.0 6.0 7.0
7.0 7.0 7.0 7.0 7.0 7.0 7.0 7.0
7.0 8.0 8.0 8.0 8.0 8.0 8.0 8.0
8.0 8.0 8.0 9.0 9.0 9.0 9.0 9.0
9.0 9.0 9.0 9.0 9.0
00000000: 0000 0000 0000 0000 0000 0000 0000 0000
00000010: 0000 0000 0000 0000 0000 0000 0000 0000
00000020: 0000 0000 0000 0000 0000 0000 0000 803f
00000030: 0000 803f 0000 803f 0000 803f 0000 803f
00000040: 0000 803f 0000 803f 0000 803f 0000 803f
00000050: 0000 803f 0000 0040 0000 0040 0000 0040
00000060: 0000 0040 0000 0040 0000 0040 0000 0040
00000070: 0000 0040 0000 0040 0000 0040 0000 4040
00000080: 0000 4040 0000 4040 0000 4040 0000 4040
00000090: 0000 4040 0000 4040 0000 4040 0000 4040
000000a0: 0000 4040 0000 8040 0000 8040 0000 8040
000000b0: 0000 8040 0000 8040 0000 8040 0000 8040
000000c0: 0000 8040 0000 8040 0000 8040 0000 a040
000000d0: 0000 a040 0000 a040 0000 a040 0000 a040
000000e0: 0000 a040 0000 a040 0000 a040 0000 a040
000000f0: 0000 a040 0000 c040 0000 c040 0000 c040
00000100: 0000 c040 0000 c040 0000 c040 0000 c040
00000110: 0000 c040 0000 c040 0000 c040 0000 e040
00000120: 0000 e040 0000 e040 0000 e040 0000 e040
00000130: 0000 e040 0000 e040 0000 e040 0000 e040
00000140: 0000 e040 0000 0041 0000 0041 0000 0041
00000150: 0000 0041 0000 0041 0000 0041 0000 0041
00000160: 0000 0041 0000 0041 0000 0041 0000 1041
00000170: 0000 1041 0000 1041 0000 1041 0000 1041
00000180: 0000 1041 0000 1041 0000 1041 0000 1041
00000190: 0000 1041

tensor f4 [101, 10]
0.1007 0.0889 0.0867 0.0918 0.0838 0.1086 0.1222 0.1132
0.1042 0.11 0.4644 0.4504 0.4152 0.3143 0.2574 0.2195
0.1706 0.1428 0.1108 0.0969 0.6128 0.5898 0.5664 0.4481
0.3798 0.2935 0.2006 0.1655 0.0995 0.085 0.5063 0.4857
0.4635 0.3606 0.3133 0.2506 0.192 0.1713 0.1074 0.0846
0.6772 0.6709 0.6461 0.5388 0.4463 0.3468 0.2169 0.1743
0.0865 0.06 0.6765 0.6449 0.6123 0.4322 0.3528 0.2672
0.1905 0.1792 0.1278 0.1031 0.7207 0.6987 0.6744 0.4982
0.3965 0.308 0.2147 0.19 0.1208 0.0929 0.7983 0.7605
0.7321 0.5233 0.4274 0.3169 0.204 0.1768 0.1147 0.0961
0.7721 0.7346 0.7116 0.5059 0.4061 0.2976 0.1821 0.1533
0.0883 0.0735 0.7327 0.6786 0.6522 0.445 0.3577 0.2768
0.1931 0.1771 0.1305 0.1135 0.7671 0.7338 0.7021 0.5145
0.419 0.3268 0.2303 0.2051 0.1427 0.1307 0.8324 0.8179
0.7984 0.624 0.5052 0.3984 0.2732 0.2394 0.1319 0.1017
0.8209 0.8138 0.7992 0.6403 0.5336 0.4256 0.3155 0.2839
0.1982 0.1478 0.8089 0.8069 0.7842 0.606 0.4919 0.3894
0.2754 0.2561 0.1841 0.1505 0.8255 0.8245 0.8095 0.6699
0.5444 0.4253 0.2848 0.236 0.1319 0.0845 0.8248 0.8293
0.8141 0.6734 0.5682 0.4521 0.3266 0.2864 0.1854 0.1396
0.8541 0.8627 0.8534 0.6999 0.5761 0.4476 0.3156 0.2773
0.1966 0.1443 0.8571 0.8598 0.8411 0.6769 0.5501 0.4351
0.2988 0.2604 0.159 0.1204 0.8661 0.88 0.8691 0.7295
0.6032 0.4632 0.3024 0.2579 0.1593 0.1163 0.8177 0.826
0.8049 0.6482 0.5359 0.4058 0.2782 0.2404 0.1485 0.122
0.8475 0.8601 0.8491 0.7287 0.6071 0.4677 0.3089 0.2602
0.1493 0.1137 0.8471 0.8668 0.8543 0.719 0.5922 0.4604
0.3432 0.3033 0.1993 0.1627 0.8693 0.8781 0.8666 0.7355
0.6131 0.4876 0.3438 0.3021 0.1914 0.1507 0.8355 0.8463
0.8388 0.7033 0.5813 0.4539 0.3224 0.2831 0.2098 0.1712
0.829 0.8464 0.8523 0.7459 0.6323 0.5083 0.3653 0.3165
0.2195 0.175 0.8647 0.8842 0.8763 0.7635 0.6479 0.5223
00000000: cd3b ce3d 3411 b63d c58f b13d a301 bc3d
00000010: 569f ab3d ad69 de3d fe43 fa3d 67d5 e73d
00000020: cf66 d53d ae47 e13d d6c5 ed3e d49a e63e
00000030: 1895 d43e eeeb a03e efc9 833e 9cc4 603e
00000040: c4b1 2e3e 2a3a 123e 1ceb e23d 8273 c63d
00000050: 76e0 1c3f 22fd 163f 97ff 103f 5d6d e53e
00000060: 2575 c23e a245 963e 166a 4d3e d578 293e
00000070: a8c6 cb3d 7b14 ae3d e09c 013f acad f83e
00000080: df4f ed3e 90a0 b83e dc68 a03e a54e 803e
00000090: a69b 443e 4469 2f3e 88f4 db3d c442 ad3d
000000a0: fb5c 2d3f 1ac0 2b3f cf66 253f ccee 093f
000000b0: 6f81 e43e c58f b13e 091b 5e3e b37b 323e
000000c0: e926 b13d 8fc2 753d 1b2f 2d3f 2b18 253f
000000d0: b1bf 1c3f 5249 dd3e 34a2 b43e 70ce 883e
000000e0: 6f12 433e 3480 373e 01de 023e 1826 d33d
000000f0: cc7f 383f 01de 323f 7aa5 2c3f 1214 ff3e
00000100: 0c02 cb3e 2db2 9d3e 51da 5b3e 5c8f 423e
00000110: fe65 f73d 5b42 be3d 645d 4c3f 21b0 423f
00000120: e86a 3b3f fdf6 053f 2cd4 da3e b840 a23e
00000130: 60e5 503e 0f0b 353e d5e7 ea3d 14d0 c43d
00000140: 58a8 453f bf0e 3c3f 6b2b 363f aa82 013f
00000150: 57ec cf3e 075f 983e 6c78 3a3e adfa 1c3e
00000160: a1d6 b43d 2b87 963d 3a92 3b3f bbb8 2d3f
00000170: 94f6 263f 0ad7 e33e 7424 b73e bbb8 8d3e
00000180: 02bc 453e b459 353e cba1 053e b072 e83d
00000190: aa60 443f 51da 3b3f d3bc 333f 46b6 033f
000001a0: 2b87 d63e 5452 a73e c3d3 6b3e bc05 523e
000001b0: f31f 123e 39d6 053e 2b18 553f e561 513f
000001c0: f163 4c3f 77be 1f3f ca54 013f 16fb cb3e
000001d0: dfe0 8b3e 4625 753e cb10 073e 1748 d03d
000001e0: 8126 523f 3255 503f 5f98 4c3f b3ea 233f
000001f0: 029a 083f 3ee8 d93e 3789 a13e 575b 913e
00000200: f1f4 4a3e e258 173e 1214 4f3f 0091 4e3f
00000210: 55c1 483f d122 1b3f 51da fb3e 705f c73e
00000220: 3b01 8d3e 8a1f 833e b684 3c3e ac1c 1a3e
00000230: f853 533f 6f12 533f 643b 4f3f 917e 2b3f
00000240: cc5d 0b3f ecc0 d93e 4ed1 913e fca9 713e
00000250: cb10 073e 560e ad3d 1826 533f 014d 543f
00000260: dc68 503f f163 2c3f 8e75 113f a779 e73e
00000270: 1d38 a73e 05a3 923e 7fd9 3d3e 4df3 0e3e
00000280: 4ca6 5a3f e8d9 5c3f 6c78 5a3f a52c 333f
00000290: 4a7b 133f d42b e53e 5396 a13e 44fa 8d3e
000002a0: 8351 493e 61c3 133e e86a 5b3f da1b 5c3f
000002b0: 5452 573f 5249 2d3f 5bd3 0c3f 6dc5 de3e
000002c0: 50fc 983e 2653 853e e5d0 223e 4694 f63d
000002d0: bbb8 5d3f ae47 613f 567d 5e3f 83c0 3a3f
000002e0: 516b 1a3f 8d28 ed3e 2cd4 9a3e 780b 843e
000002f0: 8a1f 233e b22e ee3d ca54 513f bc74 533f
00000300: ed0d 4e3f 6ff0 253f be30 093f 05c5 cf3e
00000310: 3b70 8e3e 6b2b 763e 6210 183e 23db f93d
00000320: c3f5 583f 832f 5c3f 9e5e 593f 158c 3a3f
00000330: e86a 1b3f 6076 ef3e 2428 9e3e ef38 853e
00000340: 19e2 183e 8cdb e83d 8cdb 583f 9be6 5d3f
00000350: 68b3 5a3f 6210 383f 6b9a 173f 8cb9 eb3e
00000360: e9b7 af3e 234a 9b3e 4d15 4c3e d49a 263e
00000370: 728a 5e3f 29cb 603f 7fd9 5d3f ba49 3c3f
00000380: 1ff4 1c3f b5a6 f93e 8e06 b03e daac 9a3e
00000390: 5dfe 433e 1a51 1a3e 54e3 553f 1ea7 583f
000003a0: 99bb 563f 780b 343f 14d0 143f 9565 e83e
000003b0: 9d11 a53e 7cf2 903e d0d5 563e 0e4f 2f3e
000003c0: 5839 543f acad 583f 5530 5a3f 4df3 3e3f
000003d0: 6ade 213f f31f 023f 9a08 bb3e 4a0c a23e
000003e0: 9cc4 603e 3333 333e fb5c 5d3f ee5a 623f
000003f0: 3255 603f bc74 433f c6dc 253f 74b5 053f

net.net.0.weight f4 [100, 784]
0.06642248 -0.04583541 0.055857077 0.074191004 0.03451007 0.02788163 0.033897854 0.0398376
-0.04498285 -0.050975844 -0.06764664 -0.07452582 0.07088578 0.05949382 -0.04507063 -0.034172345
0.0074560298 -0.019300552 -0.08014825 -0.06432293 -0.060927927 -0.042160466 0.06273277 0.054961026
-0.038730755 -0.055296563 0.025526524 0.011557847 -0.007818207 -0.032325514 0.07160641 -0.06672768
-0.051229652 -0.046217166 0.061930444 -0.013879261 0.0340214 0.038792074 0.048538856 0.075826235
0.010196487 0.00616491 0.054714978 0.02312387 1.8404793e-05 -0.0031685256 -0.03990084 -0.044284053
-0.07531344 0.0036369339 -0.07637519 0.0043976977 -0.05352863 0.03478279 -0.023292273 -0.005971402
-0.0056845546 0.040819876 0.034196213 -0.07592431 -0.042376325 -0.06547015 -0.033104587 0.037821382
-0.03773158 -0.057541374 -0.02278742 -0.043958887 -0.048753407 -0.05552985 -0.017351642 0.0134019265
-0.023579666 -0.019187197 -0.0142988665 0.008451536 0.05446609 -0.018598752 -0.021510629 -0.044742066
-0.03524706 0.049979225 0.065209284 -0.007041186 -0.033807475 -0.031545117 -0.001719743 0.011897617
0.018771846 0.025301347 0.039611284 -0.06344326 -0.05467544 0.04623635 0.03206496 -0.012108785
0.067938656 0.032023653 -0.07513142 -0.01355762 0.053337093 -0.028801555 -0.044785142 -0.0025911538
0.04669767 -0.07856958 -0.043489635 -0.07194603 0.00079751015 -0.040616613 -0.049382973 -0.04000808
-0.012411013 -0.01902292 0.047774196 -0.05885353 0.012898777 -0.0251584 0.027333112 -0.018368835
0.042229008 -0.058759883 0.074186735 0.04327304 0.056813367 -0.08999405 -0.053870212 -0.027418705
0.016418554 -0.004097677 0.044271514 0.067114696 0.039623592 -0.07748681 0.042085797 0.049939692
0.0528526 -0.0064583705 0.021457598 -0.039363187 0.054702267 0.038200565 -0.0051133335 -0.07078497
0.0076664677 0.0512383 0.02267015 -0.030096872 0.029665897 -0.030293476 -0.018948117 -0.039589502
0.044617068 0.069784485 -0.038676955 -0.03346408 -0.048170846 -0.054109443 0.022019133 -0.0056218677
0.03395414 0.025072532 -0.04480875 -0.065149195 -0.06830177 -0.025163218 0.00044662153 -0.04104979
0.054884568 0.07053962 -0.02892724 0.07694261 -0.060294688 -0.053298987 0.0891488 0.10776757
0.0030636396 -0.04721436 -0.09862693 0.01033736 0.035368018 -0.05919298 0.030330017 0.038745616
-0.06713774 0.033162195 0.071144834 -0.07999373 -0.07899927 0.074696265 0.0976817 -0.05237561
-0.028532475 0.06024821 0.0035095983 -0.050888084 0.042478323 -0.014449544 -0.06953812 0.024309829
0.024798691 0.07870376 0.06308789 -0.07036788 -0.092257395 -0.08759418 -0.03043624 0.06558073
0.052422192 -0.011988203 -0.023023618 -0.013967551 -0.034159757 -0.00031188436 -0.06613201 -0.058275092
-0.032946177 0.035209544 0.048107363 0.031914305 0.06705484 -0.047215648 0.051581852 0.076182105
0.033894427 0.007225424 -0.07764675 -0.028991887 0.04760331 -0.054843698 0.025884138 0.04437359
0.07971004 0.04685219 0.034583047 0.09928853 0.08915996 0.025883963 -0.042684127 -0.07255053
0.09537816 0.022829663 -0.08689053 0.07293677 -0.08943465 -0.041429814 -0.0081148865 0.07363298
-0.00599441 0.056753702 -0.030327898 -0.020038852 0.012089759 0.023649996 -0.06851791 0.05675201
00000000: 8208 883d e9bd 3bbd 64ca 643d 74f1 973d
00000010: 6e5a 0d3d 0468 e43c 7ad8 0a3d c02c 233d
00000020: f03f 38bd 0ccc 50bd 528a 8abd fea0 98bd
00000030: 902c 913d cbaf 733d fb9b 38bd 4df8 0bbd
00000040: b651 f43b 311c 9ebc c424 a4bd bebb 83bd
00000050: 908f 79bd 74b0 2cbd 0a7a 803d d01e 613d
00000060: 24a4 1ebd a67e 62bd 001d d13c 205d 3d3c
00000070: f017 00bc c267 04bd 62a6 923d 86a8 88bd
00000080: 2fd6 51bd 364e 3dbd c7aa 7d3d d765 63bc
00000090: 065a 0b3d 70e4 1e3d aed0 463d c94a 9b3d
000000a0: 2b0f 273c 0303 ca3b d01c 603d 456e bd3c
000000b0: fe63 9a37 0aa7 4fbb 106f 23bd 3263 35bd
000000c0: ef3d 9abd a059 6e3b 986a 9cbd 901a 903b
000000d0: d640 5bbd 6678 0e3d 70cf bebc c0ab c3bb
000000e0: 8045 babb be32 273d 5411 0c3d 347e 9bbd
000000f0: cc92 2dbd 3715 86bd ad98 07bd 98ea 1a3d
00000100: 6e8c 1abd 81b0 6bbd afac babc 3c0e 34bd
00000110: a7b1 47bd 4573 63bd 0825 8ebc c193 5b3c
00000120: 252a c1bc 782e 9dbc cb45 6abc 5078 0a3c
00000130: d617 5f3d 695c 98bc 0f37 b0bc 7543 37bd
00000140: 395f 10bd 04b7 4c3d 728c 853d c0b9 e6bb
00000150: b579 0abd 7435 01bd 0069 e1ba 39ee 423c
00000160: 6ac7 993c c544 cf3c 713f 223d 8aee 81bd
00000170: 5bf3 5fbd 5462 3d3d 8c56 033d ed63 46bc
00000180: 6c23 8b3d 3c2b 033d 80de 99bd c820 5ebc
00000190: ff77 5a3d 3df1 ebbc a070 37bd 59d0 29bb
000001a0: 0e46 3f3d 17e9 a0bd 3022 32bd 7158 93bd
000001b0: 0010 513a 9b5d 26bd cd45 4abd 83df 23bd
000001c0: 9057 4bbc f4d5 9bbc e0ae 433d 6610 71bd
000001d0: 6455 533c fd18 cebc b1e9 df3c 3d7a 96bc
000001e0: 53f8 2c3d 34ae 70bd 37ef 973d 123f 313d
000001f0: 22b5 683d cd4e b8bd 03a7 5cbd 319d e0bc
00000200: 3480 863c ce45 86bb 0c56 353d 6e73 893d
00000210: 594c 223d 68b1 9ebd 2862 2c3d 908d 4c3d
00000220: f87b 583d bda0 d3bb d8c7 af3c 4b3b 21bd
00000230: 7c0f 603d 3278 1c3d c08d a7bb b6f7 90bd
00000240: fe36 fb3b 40df 513d c0b6 b93c b78d f6bc
00000250: e505 f33c 062a f8bc 1539 9bbc 9a28 22bd
00000260: 63c0 363d 2beb 8e3d ba6b 1ebd a211 09bd
00000270: cb4e 45bd dda1 5dbd 7861 b43c a537 b8bb
00000280: 7f13 0b3d e964 cd3c 6189 37bd f16c 85bd
00000290: cce1 8bbd 1823 cebc 8728 ea39 d323 28bd
000002a0: a4ce 603d 1477 903d d2f8 ecbc 1694 9d3d
000002b0: 90f7 76bd 0a50 5abd a593 b63d 3eb5 dc3d
000002c0: 58c7 483b d863 41bd eafc c9bd 085e 293c
000002d0: 0ede 103d 5774 72bd a876 f83c b9b3 1e3d
000002e0: 837f 89bd 15d5 073d 62b4 913d c1d3 a3bd
000002f0: 5fca a1bd 5bfa 983d 580d c83d cf87 56bd
00000300: f0bc e9bc d4c6 763d 4a01 663b 0670 50bd
00000310: c0fd 2d3d c8bd 6cbc 006a 8ebd 6825 c73c
00000320: a026 cb3c 702f a13d 3934 813d 091d 90bd
00000330: 72f1 bcbd 9464 b3bd 6c55 f9bc 314f 863d
00000340: a7b8 563d 2b6a 44bc 079c bcbc 28d8 64bc
00000350: 1aeb 0bbd 6984 a3b9 3870 87bd ddb1 6ebd
00000360: 92f2 06bd e237 103d 3a0c 453d 93b8 023d
00000370: 0c54 893d 3265 41bd 7e47 533d 5d05 9c3d
00000380: e2d4 0a3d 40c3 ec3b 4205 9fbd 6580 edbc
00000390: b0fb 423d c9a3 60bd f90a d43c 15c1 353d
000003a0: 043f a33d 15e8 3f3d f4a6 0d3d c957 cb3d
000003b0: 7f99 b63d 9b0a d43c 8dd5 2ebd 5f95 94bd
000003c0: a055 c33d 4605 bb3c aaf3 b1bd e05f 953d
000003d0: 8429 b7bd 4fb2 29bd 4df4 04bc e3cc 963d
000003e0: c16c c4bb 9276 683d 3672 f8bc 8528 a4bc
000003f0: 2014 463c a3bd c13c 1e53 8cbd cc74 683d

net.net.0.bias f4 [100]
-0.024924919 -0.08734428 0.038635388 0.042381052 -0.04441556 -0.029621307 0.045588966 0.0028121779
-0.004508563 0.01605625 0.11078437 0.048564065 -0.07537504 0.046325397 0.109232046 -0.009512267
-0.014639482 0.01959727 -0.021694416 0.052150857 -0.022210864 -0.014506943 -0.0859348 0.003435641
0.0062408554 0.009975833 -0.053460587 0.0075378045 -0.013706964 -0.047785774 -0.02461465 -0.040229913
0.0688538 0.01635907 -0.054006442 -0.01787689 0.10198322 -0.0019976015 0.05136308 -0.010301546
0.015653718 -0.013887413 -0.07297101 -0.03090988 0.017244536 0.091319345 0.022695571 -0.017504508
0.045746367 -0.1307362 0.09848753 -0.073487416 -0.031777065 0.09779438 -0.007353436 -0.006698684
-0.013495815 0.05474831 -0.08916264 0.052408636 -0.03851178 -0.012415531 0.09616389 0.054076068
0.0050486126 -0.020175776 -0.013298626 0.0066947485 0.053873844 -0.057709422 0.11305342 0.009485728
0.079280384 -0.014824515 0.090098895 -0.037288252 0.013258825 -0.0047796513 0.0123410085 -0.030192649
0.06609768 0.08389209 -0.012551811 -0.03852001 0.0037500402 -0.054861695 -0.020205855 -0.1475
-0.03267149 -0.02351484 0.048097096 -0.0165361 -0.03449972 0.10872454 -0.018048296 0.02883653
0.025811637 0.074111916 -0.15479192 -0.021618117
00000000: 582f ccbc 8fe1 b2bd 2440 1e3d c197 2d3d
00000010: 17ed 35bd 62a8 f2bc 7fbb 3a3d 844c 383b
00000020: 91bc 93bb 6688 833c eae2 e23d 1deb 463d
00000030: 3b5e 9abd b3bf 3d3d 0db5 df3d 57d9 1bbc
00000040: 70da 6fbc 748a a03c 7db8 b1bc 239c 553d
00000050: 8ff3 b5bc 87ae 6dbc 96fe afbd 7e28 613b
00000060: 1780 cc3b ad71 233c 7df9 5abd b0ff f63b
00000070: 2d93 60bc 04bb 43bd aaa4 c9bc 1fc8 24bd
00000080: 3903 8d3d 7503 863c dc35 5dbd 8e72 92bc
00000090: 94dc d03d 31ea 02bb 1862 523d d1c7 28bc
000000a0: 3a3c 803c 0888 63bc d371 95bd b736 fdbc
000000b0: 6a44 8d3c a305 bb3d 10ec b93c 9d65 8fbc
000000c0: 8b60 3b3d b6df 05be d5b3 c93d 9280 96bd
000000d0: ab28 02bd 6b48 c83d 18f5 f0bb a280 dbbb
000000e0: 8d1d 5dbc c43f 603d e79a b6bd 70aa 563d
000000f0: 87be 1dbd 836a 4bbc 93f1 c43d de7e 5d3d
00000100: d56e a53b ab47 a5bc 7be2 59bc 9f5f db3b
00000110: d2aa 5c3d b760 6cbd 8d88 e73d 076a 1b3c
00000120: c15d a23d 86e2 72bc c585 b83d 91bb 18bd
00000130: 8b3b 593c 9f9e 9cbb f131 4a3c 9356 f7bc
00000140: 385e 873d 9ecf ab3d 1ca6 4dbc 28c7 1dbd
00000150: 3cc3 753b a8b6 60bd c086 a5bc 3d0a 17be
00000160: 8ad2 05bd 32a2 c0bc 7601 453d b776 87bc
00000170: 944f 0dbd f9aa de3d 05da 93bc 963a ec3c
00000180: ed72 d33c fdc7 973d c681 1ebe 7a18 b1bc

net.net.2.weight f4 [100, 100]
-0.02940062 0.12821734 -0.18585826 0.20643952 0.0371786 0.05728708 -0.09053326 -0.028486822
0.034991197 0.03988009 -0.089310594 -0.13940434 -0.20957965 0.14252912 -0.06022375 0.16382001
0.034654457 0.14164123 -0.028271114 -0.12213508 -0.07381135 0.10093919 -0.05781315 -0.19199401
-0.18594177 0.026782079 -0.11900943 0.065155365 -0.1334952 -0.094511144 0.11773137 -0.10526177
-0.023933025 -0.15841693 0.14860474 0.032818463 0.0596602 0.0873027 -0.13195248 0.02173784
0.24082309 -0.19056438 -0.12269441 -0.1429107 -0.048570387 -0.17348737 -0.04199299 0.09538129
0.014022804 0.20619892 -0.08218282 0.081781596 0.022227159 -0.0973783 -0.1449032 -0.0040395665
-0.06430792 0.041940298 -0.049263954 -0.112642474 0.057955068 0.119483955 -0.027809165 0.091946535
-0.1161173 0.2007467 -0.09309422 0.016979456 -0.1213969 0.1455559 -0.03357502 -0.022371791
0.21724327 -0.009422239 0.0057497234 -0.13444683 0.112482 0.0715802 0.07942944 0.03981753
0.05304776 0.014435039 -0.095767885 -0.08759498 0.10348752 -0.023914035 -0.1801636 0.06504512
-0.13623743 0.09362167 0.17725934 -0.029260352 0.11123658 -0.15278684 0.16789699 -0.12185177
-0.088315904 -0.12807545 0.010685667 0.124929845 0.0036816995 -0.12757434 -0.14739892 0.26408544
0.005495824 0.0028978412 -0.12842265 0.054102313 0.060922064 0.1351779 0.23263022 -0.017320186
-0.08938298 0.05491493 -0.07025471 -0.18680182 0.12594248 0.12309408 -0.14698763 0.057880305
0.14711697 0.067019396 -0.02487715 -0.022906872 0.09335535 0.18948613 0.060693312 -0.1486847
-0.117775075 -0.20837764 0.212971 -0.009621803 0.10484969 0.056140296 -0.20096071 -0.20080607
0.097824015 0.14109255 0.14087448 -0.05340474 -0.14684041 0.11958765 0.0529047 0.17962204
-0.13310751 -0.09203258 -0.17507859 -0.035495684 -0.17067872 -0.20436957 0.0469959 0.07333525
-0.024509681 0.2370441 -0.01786575 0.10178214 0.0648118 0.1846725 0.05311582 0.24351388
-0.16007167 -0.12864709 0.04294732 -0.20087019 -0.16277243 -0.09416058 0.13177691 0.06377865
-0.11997793 -0.15151322 0.011606097 0.0034060164 0.11820914 0.14963955 0.046327263 -0.06263015
-0.14361937 -0.044460557 0.043060053 -0.06537543 0.07579275 0.15839487 0.076209135 -0.10522009
-0.015068711 -0.015945934 0.099035434 -0.07830203 0.01507626 -0.14533734 -0.102000855 0.013600934
-0.12589867 -0.0839914 -0.062101178 0.20266862 0.0148126315 0.05476072 -0.019598475 0.06434426
0.1350524 0.26059243 -0.0047212034 0.2196387 0.094100006 0.027291792 -0.062349644 0.08050101
0.17210813 0.026290795 -0.08149169 0.101360716 -0.2505574 -0.08234239 -0.19102463 -0.11240958
0.070930175 0.12881525 0.03274325 0.14053227 -0.15915313 0.05156966 -0.046458084 -0.13385011
-0.10537548 -0.11645044 0.0468588 0.09365836 -0.024686508 -0.24714267 0.21927442 -0.05506442
0.008581584 0.2843397 0.18219374 -0.045476265 0.018994078 -0.13054612 0.1159365 0.10676165
-0.22045289 0.16483591 -0.018071786 0.040657643 -0.1674239 0.2796774 -0.09242696 0.13891405
-0.11777188 -0.17720248 0.041642383 0.15423939 0.17222995 -0.048002448 0.09942826 -0.1622394
00000000: 92d9 f0bc 684b 033e a151 3ebe e264 533e
00000010: 9648 183d dba5 6a3d 8069 b9bd 325d e9bc
00000020: ee52 0f3d 4e59 233d 79e8 b6bd 03c0 0ebe
00000030: 0c9c 56be 27f3 113e 2ead 76bd 6fc0 273e
00000040: d5f1 0d3d 660a 113e d398 e7bc f521 fabd
00000050: 682a 97bd 35b9 ce3d 7bcd 6cbd 149a 44be
00000060: 8567 3ebe 1766 db3c 37bb f3bd 2d70 853d
00000070: f7b2 08be 0f8f c1bd 251d f13d 7c93 d7bd
00000080: 310f c4bc 0c38 22be d72b 183e a76c 063d
00000090: 415e 743d c2cb b23d 8d1e 07be 8e13 b23c
000000a0: 549a 763e 4f23 43be 3547 fbbd 2f57 12be
000000b0: bef1 46bd aca6 31be d700 2cbd 4457 c33d
000000c0: e7bf 653c cf25 533e 774f a8bd 1c7d a73d
000000d0: bb15 b63c 466e c7bd 8161 14be 575e 84bb
000000e0: dfb3 83bd 97c9 2b3d 00c9 49bd 19b1 e6bd
000000f0: 4b62 6d3d 01b4 f43d 0cd0 e3bc 774e bc3d
00000100: e8ce edbd 8b90 4d3e 2fa8 bebd 8018 8b3c
00000110: f09e f8bd 9b0c 153e f685 09bd 0c45 b7bc
00000120: 0575 5e3e bc5f 1abc 2d68 bc3b 6eac 09be
00000130: f65c e63d a498 923d e7ab a23d b517 233d
00000140: 9c48 593d f180 6c3c f421 c4bd ff64 b3bd
00000150: 44f1 d33d 5ee7 c3bc cf7c 38be 6036 853d
00000160: d381 0bbe b8bc bf3d 7983 353e 68b3 efbc
00000170: 01d0 e33d 2774 1cbe 30ed 2b3e 6c8d f9bd
00000180: f8de b4bd 3626 03be f012 2f3c 38db ff3d
00000190: ab48 713b d9a2 02be beef 16be 3536 873e
000001a0: 5016 b43b b5e9 3d3b 3a81 03be 639a 5d3d
000001b0: 6a89 793d 136c 0a3e 9e36 6e3e 10e3 8dbc
000001c0: 6c0e b7bd 7aee 603d b4e1 8fbd fa48 3fbe
000001d0: 11f7 003e c018 fc3d ed83 16be e613 6d3d
000001e0: d5a5 163e 7741 893d 2acb cbbc 31a7 bbbc
000001f0: 1731 bf3d a708 423e 8d99 783d cd40 18be
00000200: 0f34 f1bd f360 55be 1215 5a3e c4a4 1dbc
00000210: 6fbb d63d 5ef3 653d a5c8 4dbe 1ba0 4dbe
00000220: f557 c83d 917a 103e 6641 103e eebe 5abd
00000230: 555d 16be 5fea f43d 99b2 583d d7ee 373e
00000240: 564d 08be 947b bcbd cd47 33be ec63 11bd
00000250: 67c6 2ebe 4246 51be c67e 403d cb30 963d
00000260: 87c8 c8bc b0bb 723e 315b 92bc 2873 d03d
00000270: 0dbc 843d ca1a 3d3e f98f 593d b45b 793e
00000280: d4e9 23be 10bc 03be 87e9 2f3d eab0 4dbe
00000290: d1ad 26be 43d7 c0bd 87f0 063e 619e 823d
000002a0: fdb6 f5bd 4826 1bbe 8027 3e3c 7937 5f3b
000002b0: a217 f23d 1c3b 193e a8c1 3d3d 3c44 80bd
000002c0: f510 13be 461c 36bd bd5f 303d 8ee3 85bd
000002d0: 3b39 9b3d 4432 223e 8913 9c3d a17d d7bd
000002e0: c1e2 76bc 0ca1 82bc 17d3 ca3d d15c a0bd
000002f0: 6b02 773c 50d3 14be d3e5 d0bd 74d6 5e3c
00000300: 95eb 00be af03 acbd ce5d 7ebd 5d88 4f3e
00000310: aeb0 723c c74c 603d fb8c a0bc ecc6 833d
00000320: 2d4b 0a3e 5f6c 853e 53b4 9abb f8e8 603e
00000330: 81b7 c03d 0993 df3c 5762 7fbd b7dd a43d
00000340: 1d3d 303e cb5f d73c 1de5 a6bd 3596 cf3d
00000350: 0f49 80be 21a3 a8bd f69b 43be fe36 e6bd
00000360: d743 913d 25e8 033e c91d 063d b1e7 0f3e
00000370: 0af9 22be b53a 533d d54a 3ebd 0110 09be
00000380: 1acf d7bd 917d eebd 03ef 3f3d f4cf bf3d
00000390: 5c3b cabc f812 7dbe 7989 603e 3b8b 61bd
000003a0: c699 0c3c f994 913e ff90 3a3e 5245 3abd
000003b0: 7899 9b3c e2ad 05be 1e70 ed3d daa5 da3d
000003c0: 67be 61be bfca 283e 480b 94bc a188 263d
000003d0: 2c71 2bbe e031 8f3e 594a bdbd 7c3f 0e3e
000003e0: 6232 f1bd 9174 35be 3491 2a3d eef0 1d3e
000003f0: 0c5d 303e 379e 44bd 0ba1 cb3d 1622 26be

net.net.2.bias f4 [100]
0.0941599 0.37988332 -0.4992227 -0.3099199 0.078146994 0.44058567 0.3862997 0.0677513
-0.17774609 0.6043868 -0.10158189 0.05685445 -0.23125304 0.07293935 0.21859431 -0.023412528
-0.028169265 -0.17730448 0.30883378 0.11613041 0.4340307 0.4689357 0.099496305 0.26127064
0.3153388 0.34409338 0.3085961 0.56170315 0.34273154 0.1920924 -0.08601722 0.6484653
-0.1518514 -0.0026406161 0.087589316 0.00372481 0.07866142 0.054844264 0.15101382 0.0009155676
0.20943551 0.6632568 0.60839117 -0.22498663 0.4319219 0.44253823 0.43285364 0.010968074
0.46468523 0.7201278 0.12075444 -0.033172462 -0.07726899 0.39382866 0.014283154 0.3038211
-0.025723148 0.16638659 0.27275518 -0.013592627 0.0095647285 0.06844354 0.14413702 0.550252
0.26470968 0.19683598 -0.07464859 0.0019931437 0.23163395 0.27633122 0.17370096 0.24146678
0.3354676 -0.06135998 0.13294107 0.28991225 0.15898049 -0.33098292 0.70803696 0.43213248
0.1442093 0.50907516 0.18044823 0.26667696 0.20251589 0.6152451 0.45375064 0.08861393
0.50674194 0.11574666 -0.10604151 -0.13803922 -0.015503661 -0.015799705 -0.05083742 0.064858966
0.2917007 0.21540166 -0.09369117 0.09136615
00000000: e8d6 c03d 1180 c23e 1e9a ffbe d2ad 9ebe
00000010: 880b a03d 7294 e13e 13c9 c53e 32c1 8a3d
00000020: 1203 36be 18b9 1a3f 2a0a d0bd 36e0 683d
00000030: 99cd 6cbe 3a61 953d 30d7 5f3e a1cb bfbc
00000040: 3bc3 e6bc 4e8f 35be 761f 9e3e c8d5 ed3d
00000050: 4639 de3e 5718 f03e b8c4 cb3d 44c5 853e
00000060: 1674 a13e 022d b03e 4f00 9e3e c7cb 0f3f
00000070: 827a af3e dfb3 443e cc29 b0bd d201 263f
00000080: ef7e 1bbe 300e 2dbb 0762 b33d f11b 743b
00000090: 3d19 a13d 61a4 603d 5ea3 1a3e b402 703a
000000a0: 4376 563e 33cb 293f 86bf 1b3f e562 66be
000000b0: de24 dd3e 5f94 e23e fe9e dd3e 70b3 333c
000000c0: 39eb ed3e 4c5a 383f 1b4e f73d d9df 07bd
000000d0: 343f 9ebd e9a3 c93e e403 6a3c 708e 9b3e
000000e0: 5ab9 d2bc 3f61 2a3e 91a6 8b3e 9cb3 5ebc
000000f0: 61b5 1c3c 202c 8c3d a898 133e 51dd 0c3f
00000100: 0788 873e 5f8f 493e 5ce1 98bd 679f 023b
00000110: 7331 6d3e 497b 8d3e aade 313e 1143 773e
00000120: 69c2 ab3e 9a54 7bbd b421 083e 616f 943e
00000130: c8cb 223e 9876 a9be e941 353f 7840 dd3e
00000140: 9aab 133e c052 023f 6cc7 383e e289 883e
00000150: 5360 4f3e b480 1d3f 0152 e83e 387b b53d
00000160: d7b9 013f 960c ed3d 4b2c d9bd 275a 0dbe
00000170: 1103 7ebc 626e 81bc e63a 50bd c7d4 843d
00000180: cb59 953e 4192 5c3e 28e1 bfbd 2d1e bb3d

net.net.4.weight f4 [10, 100]
-0.092334025 0.10077052 -0.3708407 -0.14485013 -0.2807099 -0.050562344 0.2963233 -0.016136764
0.08512943 -0.21976566 0.24092938 -0.20481312 -0.20822304 0.40434778 0.37935463 0.032810226
0.2012212 0.21672067 0.010968255 -0.2694379 -0.3527702 0.040833484 -0.028101377 0.0014497036
0.30783114 0.048558407 -0.10823927 0.027208649 -0.1544104 -0.31738126 0.25610238 -0.043490935
0.0820697 -0.057459354 -0.032067 0.046720184 0.16081285 -0.19889158 -0.08780403 0.17617148
0.028192226 -0.31451812 -0.38366055 0.48447865 0.21777715 -0.16519105 -0.32296672 -0.43348712
0.18654302 -0.32904088 -0.22954957 -0.0179052 -0.023414351 0.2142639 -0.07972068 0.12782922
-0.10040313 -0.06583954 -0.1506677 -0.1222425 0.20177098 -0.13155898 -0.02691241 0.0030500037
-0.16070743 0.43429905 -0.2744231 0.2228124 -0.0013379358 -0.24065892 -0.06913351 -0.20786162
0.26938036 0.1442047 -0.11195973 0.21236476 0.34263125 -0.23615329 -0.24069819 0.032030843
0.02181434 0.08834533 0.3666002 0.30618083 -0.1253585 0.3373099 -0.12357694 -0.20187257
0.28794158 0.018416774 -0.008492481 -0.17839997 0.16801833 0.07891837 -0.23575419 -0.11693037
-0.089709714 -0.29211184 0.019786812 -0.2582322 -0.25333443 0.51399404 0.31225258 -0.08720692
0.18013245 0.405185 -0.28822666 -0.03020181 -0.34822062 0.46555105 0.008689556 -0.1075425
-0.13715917 -0.20955472 0.06727844 -0.09060853 -0.045009412 0.16248369 0.3523145 -0.08389941
-0.3275088 0.42873165 0.17860162 0.17973799 -0.21576925 0.12507181 0.07339448 0.57494366
0.079168834 0.06698215 -0.02801303 -0.34965247 -0.09279924 0.034571014 -0.11858714 -0.11042007
-0.22933733 -0.18002559 -0.035108358 0.08249592 -0.19088103 -0.33294564 -0.3158808 -0.31585553
0.2881107 0.03362037 0.3750058 -0.079472646 -0.009419866 0.2759654 -0.08442539 -0.09433792
-0.097529344 -0.2060071 0.22067033 -0.014949251 -0.28381628 -0.031257678 0.11290832 -0.22263731
0.2227808 -0.1862228 -0.21643788 0.15937038 0.30792132 -0.34944242 -0.074701175 0.052544996
-0.20821255 0.278079 0.42653638 0.15328945 -0.12741117 0.062120795 -0.1491709 -0.037716437
-0.13488093 0.06636861 0.24077928 -0.115515456 -0.16172 -0.43565625 -0.06471502 -0.19065122
-0.039651323 0.090493985 0.22559659 -0.46305624 -0.35088325 -0.45448264 -0.03704808 -0.061692275
0.1993254 0.22927389 0.19335875 -0.047446422 -0.115003765 0.04548923 -0.08668424 -0.18865639
-0.083154134 0.01717569 -0.0061116996 0.3718816 -0.30592927 -0.04806961 -0.28463933 0.08179257
0.022898903 -0.023296539 0.07442428 -0.07041115 -0.06645559 0.06233407 0.09777125 0.14153084
0.26507065 0.21355137 -0.05451602 0.29095873 0.23133095 -0.2010169 0.11209484 0.25273925
0.08110429 -0.23393674 -0.23154202 7.3227384e-05 -0.23017973 0.10154156 -0.18046495 -0.2663461
-0.043623507 -0.10780725 -0.11666141 -0.07214228 -0.15686558 -0.12156582 -0.18882346 0.0914989
-0.07462943 -0.032330748 0.19953565 0.2533296 -0.19445808 0.58274364 0.30821377 -0.40270284
-0.15189366 -0.15553373 0.0039411364 0.59322155 -0.10154696 -0.16664389 0.30530173 -0.1628625
00000000: 9f19 bdbd c660 ce3d d5de bdbe 9853 14be
00000010: 35b9 8fbe 761a 4fbd b0b7 973e 3f31 84bc
00000020: 5758 ae3d 400a 61be 31b6 763e 88ba 51be
00000030: 6c38 55be ac06 cf3e c53a c23e 0464 063d
00000040: ee0c 4e3e 06ec 5d3e 32b4 333c c4f3 89be
00000050: 4c9e b4be 0341 273d dc34 e6bc fb03 be3a
00000060: 0b9c 9d3e 2ee5 463d 8dac ddbd ace4 de3c
00000070: c31d 1ebe cc7f a2be da1f 833e 8d23 32bd
00000080: 2914 a83d 805a 6bbd b058 03bd aa5d 3f3d
00000090: 20ac 243e 3caa 4bbe 99d2 b3bd 4c66 343e
000000a0: 62f3 e63c 8508 a1be 286f c4be 960d f83e
000000b0: f900 5f3e d827 29be e55b a5be 06f2 ddbe
000000c0: 2205 3f3e 0c78 a8be 0b0f 6bbe edad 92bc
000000d0: 74cf bfbc ff67 5b3e 9944 a3bd aae5 023e
000000e0: 28a0 cdbd e1d6 86bd a248 1abe 475a fabd
000000f0: 0d9d 4e3e 66b7 06be 6a77 dcbc 92e2 473b
00000100: 7d90 24be 725c de3e 2f81 8cbe ef28 643e
00000110: ad5d afba 4b6f 76be df95 8dbd add9 54be
00000120: 39ec 893e 66aa 133e 254b e5bd 2676 593e
00000130: 5d6d af3e 2bd2 71be 9679 76be c632 033d
00000140: fdb3 b23c 65ee b43d 05b3 bb3e bcc3 9c3e
00000150: fb5d 00be e2b3 ac3e e815 fdbd afb7 4ebe
00000160: 146d 933e c6de 963c 0c24 0bbc 7bae 36be
00000170: ff0c 2c3e f49f a13d 8c69 71be 3179 efbd
00000180: bab9 b7bd af8f 95be f417 a23c 0337 84be
00000190: 0db5 81be 1d95 033f 92df 9f3e 8b99 b2bd
000001a0: a474 383e 6974 cf3e 7292 93be c969 f7bc
000001b0: f949 b2be b55c ee3e a45e 0e3c 3e3f dcbd
000001c0: 7473 0cbe 8395 56be 47c9 893d f790 b9bd
000001d0: ca5b 38bd 2062 263e 9162 b43e 74d3 abbd
000001e0: 3caf a7be b782 db3e 58e3 363e 3c0d 383e
000001f0: 9df2 5cbe d312 003e d84f 963d 822f 133f
00000200: 4523 a23d f02d 893d 957b e5bc a605 b3be
00000210: 870d bebd 569a 0d3d d1dd f2bd eb23 e2bd
00000220: 68d7 6abe a158 38be c8cd 0fbd 9ff3 a83d
00000230: 5176 43be da77 aabe 21bb a1be d1b7 a1be
00000240: 3f83 933e 83b5 093d c300 c03e 8ec2 a2bd
00000250: c855 1abc 564b 8d3e 38e7 acbd 3d34 c1bd
00000260: 77bd c7bd 86f3 52be 67f7 613e b4ed 74bc
00000270: 5e50 91be 0d08 00bd 7a3c e73d 09fb 63be
00000280: a620 643e 31b1 3ebe e4a1 5dbe fd31 233e
00000290: dda7 9d3e 1eea b2be eefc 98bd 6c39 573d
000002a0: ac35 55be 5f60 8e3e fa62 da3e e9f7 1c3e
000002b0: 1378 02be 6072 7e3d 42c0 18be 8d7c 1abd
000002c0: 3a1e 0abe 44ec 873d d88e 763e 5e93 ecbd
000002d0: ed99 25be 560e dfbe 4f89 84bd 133a 43be
000002e0: 6d69 22bd e954 b93d cb02 673e b515 edbe
000002f0: f8a6 b3be f3b1 e8be babf 17bd 0ab1 7cbd
00000300: f51b 4c3e c6c6 6a3e d6ff 453e 2e57 42bd
00000310: 1887 ebbd ea52 3a3d 8287 b1bd 242f 41be
00000320: b74c aabd 08b4 8c3c a744 c8bb 4467 be3e
00000330: c3a2 9cbe a4e4 44bd 3fbc 91be dd82 a73d
00000340: 7b96 bb3c 62d8 bebc c26b 983d b933 90bd
00000350: de19 88bd 0352 7f3d 4b3c c83d 76ed 103e
00000360: 57b7 873e 36ad 5a3e 314c 5fbd 8bf8 943e
00000370: 05e2 6c3e 60d7 4dbe fb91 e53d 0a67 813e
00000380: 021a a63d 1d8d 6fbe 5a19 6dbe a791 9938
00000390: 3cb4 6bbe 05f5 cf3d cecb 38be 845e 88be
000003a0: 90ae 32bd 0cca dcbd 2dec eebd 55bf 93bd
000003b0: 5fa1 20be 80f7 f8bd f05a 41be c663 bb3d
000003c0: 51d7 98bd 3f6d 04bd 1353 4c3e 6bb4 813e
000003d0: 0520 47be b02e 153f 32ce 9d3e 112f cebe
000003e0: 038a 1bbe 3c44 1fbe a624 813b 5edd 173f
000003f0: daf7 cfbd b2a4 2abe 8250 9c3e 6dc5 26be

net.net.4.bias f4 [10]
0.31751055 0.6729606 -0.85132855 -0.56219125 0.4746695 -0.01867908 0.57937616 0.2124367
-0.9127829 0.08802473
00000000: be90 a23e 2547 2c3f abf0 59bf c4eb 0fbf
00000010: e107 f33e df04 99bc ff51 143f 0289 593e
00000020: 24ac 69bf 4f46 b43d
