continual learning/ModTest/results/ewc_GMod2Cov_10.0_False_20_fashion_mnist_permutations_reduced.pt_2021_05_07_19_24_21_ae09d830aa864b64b17cda030347c254.pt (torch, 368925 bytes, 8 tensors)

tensor f4 [101]
000000 00 00 00 00 00 00 00 00 00 00 00 00 00 00 00 00
       0.0 0.0 0.0 0.0
000010 00 00 00 00 00 00 00 00 00 00 00 00 00 00 00 00
       0.0 0.0 0.0 0.0
000020 00 00 00 00 00 00 00 00 00 00 00 00 00 00 80 3f
       0.0 0.0 0.0 1.0
000030 00 00 80 3f 00 00 80 3f 00 00 80 3f 00 00 80 3f
       1.0 1.0 1.0 1.0
000040 00 00 80 3f 00 00 80 3f 00 00 80 3f 00 00 80 3f
       1.0 1.0 1.0 1.0
000050 00 00 80 3f 00 00 00 40 00 00 00 40 00 00 00 40
       1.0 2.0 2.0 2.0
000060 00 00 00 40 00 00 00 40 00 00 00 40 00 00 00 40
       2.0 2.0 2.0 2.0
000070 00 00 00 40 00 00 00 40 00 00 00 40 00 00 40 40
       2.0 2.0 2.0 3.0
000080 00 00 40 40 00 00 40 40 00 00 40 40 00 00 40 40
       3.0 3.0 3.0 3.0
000090 00 00 40 40 00 00 40 40 00 00 40 40 00 00 40 40
       3.0 3.0 3.0 3.0
0000a0 00 00 40 40 00 00 80 40 00 00 80 40 00 00 80 40
       3.0 4.0 4.0 4.0
0000b0 00 00 80 40 00 00 80 40 00 00 80 40 00 00 80 40
       4.0 4.0 4.0 4.0
0000c0 00 00 80 40 00 00 80 40 00 00 80 40 00 00 a0 40
       4.0 4.0 4.0 5.0
0000d0 00 00 a0 40 00 00 a0 40 00 00 a0 40 00 00 a0 40
       5.0 5.0 5.0 5.0
0000e0 00 00 a0 40 00 00 a0 40 00 00 a0 40 00 00 a0 40
       5.0 5.0 5.0 5.0
0000f0 00 00 a0 40 00 00 c0 40 00 00 c0 40 00 00 c0 40
       5.0 6.0 6.0 6.0
000100 00 00 c0 40 00 00 c0 40 00 00 c0 40 00 00 c0 40
       6.0 6.0 6.0 6.0
000110 00 00 c0 40 00 00 c0 40 00 00 c0 40 00 00 e0 40
       6.0 6.0 6.0 7.0
000120 00 00 e0 40 00 00 e0 40 00 00 e0 40 00 00 e0 40
       7.0 7.0 7.0 7.0
000130 00 00 e0 40 00 00 e0 40 00 00 e0 40 00 00 e0 40
       7.0 7.0 7.0 7.0
000140 00 00 e0 40 00 00 00 41 00 00 00 41 00 00 00 41
       7.0 8.0 8.0 8.0
000150 00 00 00 41 00 00 00 41 00 00 00 41 00 00 00 41
       8.0 8.0 8.0 8.0
000160 00 00 00 41 00 00 00 41 00 00 00 41 00 00 10 41
       8.0 8.0 8.0 9.0
000170 00 00 10 41 00 00 10 41 00 00 10 41 00 00 10 41
       9.0 9.0 9.0 9.0
000180 00 00 10 41 00 00 10 41 00 00 10 41 00 00 10 41
       9.0 9.0 9.0 9.0
000190 00 00 10 41
       9.0

tensor f4 [101, 10]
000000 12 83 40 3d 9f 3c 2c 3e aa 60 14 3e ab 3e d7 3d
       0.047 0.1682 0.1449 0.1051
000010 83 2f 0c 3e e3 a5 1b 3e 3e e8 59 3d a8 35 0d 3e
       0.1369 0.152 0.0532 0.1379
000020 ae 47 e1 3d 26 e4 03 3d e0 2d f0 3e 6a 4d 33 3e
       0.11 0.0322 0.4691 0.1751
000030 2f 6e a3 3d f5 db d7 3d c1 ca 21 3e 26 53 05 3e
       0.0798 0.1054 0.158 0.1302
000040 83 c0 ca 3d 14 ae 47 3e 8d 97 ee 3d a8 57 ca 3d
       0.099 0.195 0.1165 0.0988
000050 45 d8 f0 3e d3 4d e2 3d c2 17 a6 3d 05 a3 12 3e
       0.4704 0.1105 0.0811 0.1432
000060 f5 4a 19 3e c1 a8 a4 3d dd 24 06 3e de 02 09 3e
       0.1497 0.0804 0.131 0.1338
000070 b7 d1 00 3e 3f 35 de 3d 7a a5 0c 3f 6f f0 05 3e
       0.1258 0.1085 0.5494 0.1308
000080 f2 d2 cd 3d cb 10 07 3e aa 60 14 3e fb 5c ed 3d
       0.1005 0.1319 0.1449 0.1159
000090 f2 41 0f 3e 4c 37 09 3e a5 bd 01 3e 56 7d ae 3d
       0.1399 0.134 0.1267 0.0852
0000a0 c1 ca 21 3f a1 d6 b4 3d 90 a0 f8 3d b5 15 fb 3d
       0.632 0.0883 0.1214 0.1226
0000b0 14 ae c7 3d 66 f7 e4 3d 2d 43 1c 3e 40 13 e1 3d
       0.0975 0.1118 0.1526 0.1099
0000c0 57 5b 31 3e 83 51 09 3e 2b 87 06 3f 13 f2 c1 3d
       0.1732 0.1341 0.5255 0.0947
0000d0 3a 23 0a 3e 8c 4a 2a 3e f0 16 08 3e a8 35 0d 3e
       0.1349 0.1663 0.1329 0.1379
0000e0 12 14 3f 3e 7a c7 29 3e 36 cd 3b 3e f7 06 df 3d
       0.1866 0.1658 0.1834 0.1089
0000f0 e4 14 1d 3f 38 67 c4 3d 53 05 23 3e 89 d2 1e 3e
       0.6136 0.0959 0.1592 0.1551
000100 68 91 ed 3d c7 ba b8 3d ca c3 02 3e 49 2e ff 3d
       0.116 0.0902 0.1277 0.1246
000110 ba da 4a 3e 5f 98 0c 3e b3 7b 22 3f cc 5d 0b 3e
       0.1981 0.1373 0.6347 0.1361
000120 e1 7a 14 3e d1 91 1c 3e 86 c9 14 3e 1d c9 e5 3d
       0.145 0.1529 0.1453 0.1122
000130 88 f4 1b 3e aa 82 11 3e ac 1c 1a 3e 3a 23 0a 3e
       0.1523 0.1421 0.1505 0.1349
000140 88 85 2a 3f 89 41 e0 3d 20 d2 2f 3e 23 db 39 3e
       0.6661 0.1095 0.1717 0.1815
000150 03 09 0a 3e cc 5d cb 3d be 9f 1a 3e 23 db 39 3e
       0.1348 0.0993 0.151 0.1815
000160 96 43 4b 3e f7 e4 21 3e e9 b7 2f 3f f4 6c d6 3d
       0.1985 0.1581 0.6864 0.1047
000170 3b 01 0d 3e 93 a9 42 3e 83 2f 0c 3e 91 7e fb 3d
       0.1377 0.1901 0.1369 0.1228
000180 ae b6 22 3e 44 8b 2c 3e 31 99 2a 3e bc 74 13 3e
       0.1589 0.1685 0.1666 0.144
000190 c2 17 36 3f ca 54 c1 3d b3 0c f1 3d 0e 2d 32 3e
       0.7113 0.0944 0.1177 0.174
0001a0 3a 92 0b 3e ee 5a c2 3d 7d ae 36 3e 7f fb 3a 3e
       0.1363 0.0949 0.1784 0.1826
0001b0 c7 4b 37 3e d7 a3 f0 3d 2a 3a 32 3f 7d 3f f5 3e
       0.179 0.1175 0.6962 0.479
0001c0 a8 57 0a 3e 3f 57 1b 3e f3 8e 13 3e 20 41 f1 3d
       0.1351 0.1517 0.1441 0.1178
0001d0 ba da 0a 3e 29 5c 0f 3e 2a a9 13 3e b0 72 28 3e
       0.1356 0.14 0.1442 0.1645
0001e0 a7 79 37 3f 0b 46 25 3f d3 bc 23 3e d7 34 2f 3e
       0.7167 0.6456 0.1599 0.1711
0001f0 dc 46 03 3e ae b6 e2 3d e1 0b 13 3e 8a 1f 23 3e
       0.1282 0.1107 0.1436 0.1593
000200 e9 26 31 3e ce 88 12 3e c9 76 2e 3f 4e 62 10 3f
       0.173 0.1431 0.6815 0.564
000210 6d 56 fd 3d 4d f3 0e 3e f0 a7 06 3e 66 66 e6 3d
       0.1237 0.1396 0.1315 0.1125
000220 6d c5 fe 3d 01 4d 04 3e 5e 4b 08 3e 51 da 1b 3e
       0.1244 0.1292 0.1331 0.1522
000230 66 f7 34 3f e7 fb 19 3f 45 47 f2 3d 9a 08 1b 3e
       0.7069 0.6015 0.1183 0.1514
000240 6d c5 fe 3d fb 5c ed 3d a7 79 07 3e 61 32 15 3e
       0.1244 0.1159 0.1323 0.1457
000250 d0 44 18 3e 9a 77 1c 3e f9 a0 37 3f 26 e4 33 3f
       0.1487 0.1528 0.7173 0.7027
000260 03 09 0a 3e 1c eb 22 3e 72 f9 0f 3e 4a 0c 02 3e
       0.1348 0.1591 0.1406 0.127
000270 61 c3 13 3e 64 5d 1c 3e 10 7a 36 3e d0 44 18 3e
       0.1443 0.1527 0.1782 0.1487
000280 59 86 38 3f 17 b7 21 3f 17 b7 11 3e 57 5b 31 3e
       0.7208 0.6317 0.1423 0.1732
000290 a6 0a 06 3e 03 78 0b 3e 2c d4 1a 3e 65 19 22 3e
       0.1309 0.1362 0.1512 0.1583
0002a0 16 6a 4d 3e fd 87 34 3e 1d c9 35 3f 6b 9a 27 3f
       0.2006 0.1763 0.7101 0.6547
0002b0 60 e5 10 3e c7 4b 37 3e a8 c6 0b 3e 93 3a 01 3e
       0.1415 0.179 0.1365 0.1262
0002c0 e5 61 21 3e 7f d9 3d 3e bf 7d 5d 3e d0 b3 19 3e
       0.1576 0.1854 0.2163 0.1501
0002d0 cd 3b 2e 3f 52 b8 2e 3f e0 be 0e 3e 41 f1 23 3e
       0.6806 0.6825 0.1394 0.1601
0002e0 e0 9c 11 3e da 1b fc 3d 27 a0 09 3e 65 aa 20 3e
       0.1422 0.1231 0.1344 0.1569
0002f0 fb 3a 30 3e 44 fa 2d 3e 44 69 2f 3f 89 41 30 3f
       0.1721 0.1699 0.6852 0.6885
000300 83 c0 0a 3e 66 66 26 3e 4f 40 13 3e f0 16 08 3e
       0.1355 0.1625 0.1438 0.1329
000310 df e0 0b 3e 09 1b 1e 3e e5 61 21 3e 8b fd 25 3e
       0.1366 0.1544 0.1576 0.1621
000320 6a de 31 3f bc 74 33 3f 01 4d 04 3e 2f 6e 23 3e
       0.6948 0.701 0.1292 0.1596
000330 ef 38 05 3e d0 44 d8 3d 49 9d 00 3e 67 44 29 3e
       0.1301 0.1056 0.1256 0.1653
000340 99 bb 56 3e 50 8d 17 3e 3d 0a 27 3f eb e2 26 3f
       0.2097 0.148 0.6525 0.6519
000350 65 19 e2 3e c0 ec 1e 3e a6 9b 04 3e 8f e4 f2 3d
       0.4416 0.1552 0.1295 0.1186
000360 cf 66 d5 3d 04 56 0e 3e 5d dc 46 3e 17 b7 11 3e
       0.1042 0.139 0.1942 0.1423
000370 e2 58 37 3f 14 ae 37 3f 8f c2 05 3f 79 e9 26 3e
       0.7162 0.7175 0.5225 0.163
000380 cf f7 13 3e 20 41 f1 3d 63 7f 19 3e db f9 3e 3e
       0.1445 0.1178 0.1499 0.1865
000390 91 0f 3a 3e 5b d3 3c 3e e9 48 2e 3f c5 fe 32 3f
       0.1817 0.1844 0.6808 0.6992
0003a0 17 b7 11 3f 9b e6 1d 3e f1 63 0c 3e ae b6 e2 3d
       0.5692 0.1542 0.1371 0.1107
0003b0 1a 51 da 3d cf f7 13 3e dc d7 41 3e 42 cf 26 3e
       0.1066 0.1445 0.1893 0.1629
0003c0 86 38 16 3f ff 21 1d 3f c1 a8 04 3f 4f af 14 3e
       0.5868 0.6138 0.5182 0.1452
0003d0 dd b5 04 3e 02 2b 07 3e dc d7 01 3e 61 54 12 3e
       0.1296 0.132 0.1268 0.1429
0003e0 aa 82 11 3e dd 24 06 3e 87 16 39 3f c3 d3 3b 3f
       0.1421 0.131 0.723 0.7337
0003f0 d5 78 29 3f f8 c2 24 3e 17 48 10 3e f4 fd d4 3d
       0.662 0.1609 0.1409 0.104

net.net.0.weight f4 [100, 784]
000000 4f 45 37 bd f5 13 91 bd a0 5b d2 3d f6 c6 f2 bc
       -0.044743832 -0.070838846 0.10271382 -0.029635888
000010 c3 0f d0 3c 1f 43 38 bd b9 96 ae 3c f6 f4 e5 bd
       0.02539814 -0.044985887 0.021312105 -0.11228363
000020 dd e6 b6 3d da 49 0a bd cc f2 4c bd f3 d8 83 3c
       0.089307524 -0.033761837 -0.050036237 0.01609466
000030 a5 4a 75 bd 3f 9d 57 3d 00 c3 51 3d 45 02 e8 3d
       -0.05988564 0.052640196 0.051211357 0.11328558
000040 f6 0b e6 3d 45 b2 8c bc e4 73 c4 3d 25 a1 08 3d
       0.1123275 -0.01717485 0.09592417 0.033356804
000050 5c 7e c7 bd 00 b4 5f bd f2 fd 06 3c 48 05 8f bd
       -0.09740898 -0.05461502 0.008239256 -0.06983429
000060 54 ba 83 bb a3 71 2f bd ef 35 8e bd f4 a3 10 bd
       -0.004020015 -0.04283298 -0.06943881 -0.035312608
000070 de df 83 bd 62 48 ce 3d c1 0e 0d 3a 3d 4d 00 bc
       -0.06439184 0.100724 0.00053809216 -0.007830915
000080 7d 24 a1 bd 69 59 be bc 57 92 c2 ba 27 61 c8 bc
       -0.07868288 -0.023235993 -0.0014844638 -0.024460388
000090 c4 17 a1 bd 69 56 df 3c 26 1a 03 3d d8 00 7b 3d
       -0.07865861 0.027262883 0.03200736 0.0612801
0000a0 ad e0 a9 3d cd 48 a7 3c 8f e3 90 3d ca 5e 0d bd
       0.08294807 0.020420456 0.07074653 -0.034514226
0000b0 68 fe 9a 3d 73 f9 f1 bc ee cb 82 3a dc 21 6a 3d
       0.075680554 -0.029537892 0.0009978989 0.057161197
0000c0 3b 06 ef bc 07 2b 23 3d 55 f4 b9 3d 6c 26 9b bd
       -0.029177776 0.039835956 0.09079806 -0.07575688
0000d0 1c 56 6d bc bd 6b 78 bd 0e 53 7e bd 7d a4 72 3d
       -0.014485862 -0.060649622 -0.062090926 0.0592389
0000e0 f6 70 15 3b f7 3a 92 bd 86 40 12 bd e7 1e 64 3d
       0.0022802926 -0.07140153 -0.035706066 0.055693533
0000f0 1c 27 64 bd 1b 3f 5a 3d 03 d1 2b 3b 8a b7 14 3d
       -0.05570136 0.05328284 0.002621711 0.03630785
000100 f9 ba cc 3b 23 fc 38 3c 3e 01 06 3d 1d 30 87 bb
       0.006247875 0.011290583 0.03271603 -0.0041256086
000110 7d d8 f2 ba 8c b1 a3 3c 02 2d 94 3c 17 f2 da 3b
       -0.0018527653 0.019982122 0.018087868 0.0066816914
000120 64 15 0c 3d 97 8b 35 bd c6 34 fe 3c 3a 11 79 3d
       0.034200087 -0.044322576 0.031031024 0.060807444
000130 9e 41 e8 bc 6c 15 6f bd c8 a6 1a bd b6 88 b8 3b
       -0.028351601 -0.05837004 -0.03775671 0.0056315316
000140 29 c6 87 bc 21 b2 6d 3c 89 8a c0 bd dd 74 6e 3d
       -0.016573982 0.014507801 -0.094014235 0.05821692
000150 87 4a 8e bc 00 a4 53 3d 43 3e 6b bc 60 b9 3d bd
       -0.017369522 0.051670074 -0.014358106 -0.046319366
000160 eb bf 6c 3d f6 09 2e 3d 8e d8 33 bd d0 d7 84 bd
       0.057800215 0.04248997 -0.043907695 -0.064864755
000170 a1 58 30 3c b6 82 56 3d d7 ab 6f 3d 34 ab 97 3d
       0.010763318 0.05237075 0.05851349 0.07405701
000180 ad fc 4d 3d 51 a7 a9 bd 86 00 90 3d 03 25 d4 3b
       0.0502898 -0.08283866 0.0703135 0.0064741387
000190 79 72 cd ba c1 fa e3 bc 77 98 24 bd c5 a2 44 3c
       -0.0015674374 -0.02782953 -0.040184464 0.012001698
0001a0 19 19 b9 3d 3d 0f f6 3d 6c 4f b2 3d fa 75 a7 3d
       0.0903799 0.12014625 0.08706555 0.08176799
0001b0 3c be 3f 3d 3d 58 20 39 87 d9 94 3d 67 1f 59 3d
       0.04681228 0.0001529166 0.072680525 0.053008463
0001c0 06 8e f3 3c cd f1 ca 3c 2f e2 51 bd e9 10 11 bd
       0.029730808 0.024773503 -0.051241096 -0.035416517
0001d0 ed f8 98 3d 0f 0b 9a 3d 63 d5 7f 3d cf f7 c2 3d
       0.07469354 0.075216405 0.06245936 0.09519922
0001e0 15 92 f4 bc dc 0b a6 3d fc dc 9d 3d c6 af 0f bc
       -0.029854814 0.08107731 0.07708165 -0.008769935
0001f0 13 e2 83 bc d7 e6 c8 bb 9f 46 c4 bd 4d 9a 76 bc
       -0.016099012 -0.006131034 -0.095837824 -0.015051437
000200 bf ec 9a ba 43 fa 6b 3d 4a 59 13 bd 1a f9 2d 3d
       -0.0011819823 0.057611715 -0.035973825 0.04247389
000210 8e 9f ad 3d 83 53 8e 3d b5 67 2e bd 62 40 a8 3d
       0.08477698 0.06949522 -0.04257937 0.08215405
000220 ef 4a d2 ba be 92 09 be f4 53 52 bc f6 01 90 bc
       -0.001604406 -0.13434884 -0.012837399 -0.01757906
000230 fa 79 11 3c 9d b6 58 3a 86 72 b4 3d 4d d9 5b bb
       0.008879179 0.00082669576 0.08810906 -0.003354627
000240 2d 8f 91 3d 2b 27 2e 3d 8f b6 8a 3b d2 10 38 3d
       0.07107387 0.042517822 0.0042331885 0.044937916
000250 3a 69 a8 3d 12 a0 a1 3c bc e5 bd bd 3e 52 82 bb
       0.082231954 0.019729648 -0.09272334 -0.003977089
000260 a3 89 98 3d af aa a7 bd 63 c1 22 3d 65 0f 65 3d
       0.07448127 -0.08186852 0.03973521 0.055922884
000270 7f 48 f7 bb 10 3e 65 bb 69 e9 35 bd 7b 5d cf 3b
       -0.007546484 -0.003497962 -0.04441205 0.0063282824
000280 8e 45 43 3c 8a 5e 06 3c 6d 11 2f 3b 26 60 23 bd
       0.011918439 0.008201251 0.0026713267 -0.039886616
000290 12 6b 05 3d 85 3e 34 bd 5f 53 d2 3c ba df 38 3d
       0.032572813 -0.044004936 0.02567452 0.045135237
0002a0 54 78 fb 3b f2 87 d6 bd 1a e7 b7 bd 51 16 a4 3d
       0.0076742563 -0.10475148 -0.08979626 0.08012069
0002b0 d5 a9 a9 bc 49 00 d3 3b 29 89 19 3d 98 a7 17 bd
       -0.020710865 0.006439243 0.03748432 -0.037025064
0002c0 0c 4c 71 bd 18 e5 bf bb 9d e9 dd 3c 68 74 0c 3d
       -0.058910415 -0.0058561675 0.027088935 0.0342907
0002d0 72 29 39 bd f3 aa ae ba cd 5d 2c bd e7 e1 c1 bc
       -0.04520554 -0.0013326093 -0.042081643 -0.023667289
0002e0 98 e0 c7 3c 22 86 2d 3d fb 64 e4 3c 9c 5d b3 3d
       0.024399087 0.042364247 0.027880182 0.08758089
0002f0 0c 2f 93 bd 15 7a 68 3d 1e 07 d1 3d 72 fb 30 bb
       -0.07186708 0.05675705 0.102064356 -0.0027005342
000300 8d 24 99 bd 67 6b a1 3d 27 f9 9b 3d ca 5f 80 bc
       -0.07477675 0.078818135 0.076158814 -0.015670676
000310 57 d1 9f 3d fd ef 8a 3c e6 15 97 3c dc 4e 50 3c
       0.078036 0.016960138 0.01844306 0.012714114
000320 4a 6f b3 bb be 99 2a 3d 1a 3a 04 3e a6 ba 0b bd
       -0.005475913 0.041650526 0.12912789 -0.03411355
000330 32 b3 9b bd 16 03 48 bd bc b5 ae 3c c1 7a 0c 3d
       -0.07602538 -0.048831068 0.021326892 0.034296755
000340 c3 7d 97 bd 21 d9 04 bd 4b 26 02 bd b2 1f 02 3d
       -0.07397034 -0.032433633 -0.0317748 0.03176851
000350 7b 43 d1 3d 15 91 05 3d 4f 9c 58 bc 69 bb 9c 3d
       0.10217949 0.032609064 -0.013220861 0.07652933
000360 4f 7b 8f bd 12 db 31 3d 44 80 cc bc 8b e4 7e 3d
       -0.07005941 0.043421812 -0.024963506 0.062229674
000370 0c b4 bd bd d2 02 01 be 65 a1 57 bd a9 35 73 bd
       -0.09262857 -0.12598732 -0.052644152 -0.059377346
000380 85 93 a2 3c ba 30 60 bd ee 7e b5 3d 78 d1 12 bd
       0.019845733 -0.05473397 0.088621005 -0.035844296
000390 83 63 7b 3d 60 7a 82 bd d9 56 5b bd 6c c7 8c 3d
       0.0613742 -0.063709974 -0.05354962 0.06873974
0003a0 43 67 8b 3d 95 5f 70 3d 13 6f b9 3c 40 5c 85 3d
       0.06806805 0.058684904 0.022635972 0.06511736
0003b0 99 93 3e bd 2b 25 ad bb aa 89 56 3d 3d 48 75 bb
       -0.04652748 -0.005283972 0.05237738 -0.003742709
0003c0 19 6d 32 3c 1b fa 9c bd a6 63 0b 3c 57 bb 93 3d
       0.010890269 -0.07664891 0.008507645 0.072134666
0003d0 fc 82 6d bc e6 28 69 bc e2 c5 55 3d f0 8a ad bc
       -0.014496561 -0.014230942 0.05219067 -0.021184415
0003e0 d7 5c 21 3c 48 24 e0 bd c2 e4 ca bd 95 bd 29 bd
       0.009848795 -0.1094442 -0.09906913 -0.041440565
0003f0 d2 e6 0b bd e0 6e 3d bd 5f 96 cc 3c 6a 3e 5c bd
       -0.034155674 -0.046248317 0.024974046 -0.05377046

net.net.0.bias f4 [100]
000000 c3 84 bc 3d d6 66 ca bc e2 0f 75 3d 40 53 40 bc
       0.0920501 -0.02470724 0.0598296 -0.011738598
000010 39 f0 5f bc a1 93 fd bd a8 4e 8a 3d 1b 91 b9 3e
       -0.013668113 -0.123816736 0.06753284 0.3624352
000020 43 21 8b 3c 55 0f be 3c dd 5c 8e 3d 3f 21 a5 bc
       0.016983634 0.02320067 0.06951306 -0.020157455
000030 a3 fd 58 bd 58 d8 e4 3d ec 0b 07 be bc 48 47 3e
       -0.05297626 0.11174077 -0.13188142 0.1946134
000040 47 82 40 3d 51 9a a7 bc 51 07 24 3e ac 53 28 3d
       0.046999242 -0.020459326 0.16018416 0.04109542
000050 7e dd f5 3d 41 3b b6 3e 68 ca 08 3e 5e e5 7d 3e
       0.12005137 0.35592082 0.13358462 0.24794528
000060 ed cb 18 3d 7a ff 86 3e 44 12 3e 3e ba 7b 15 be
       0.037303854 0.26366788 0.18561655 -0.14597979
000070 ca 03 ef bc 3c 35 5b bd 51 aa 1a 3d d5 1e ca 3b
       -0.029176611 -0.053517565 0.037760083 0.0061682262
000080 a3 86 ff bc ac b1 cd bd bb 76 17 3d d3 9a 70 3e
       -0.03119213 -0.10043654 0.036978465 0.23496561
000090 bb 46 3a bd 80 72 b2 3d 76 52 31 bd 22 f7 05 3e
       -0.04547761 0.087132454 -0.04329153 0.13082555
0000a0 0c 08 df bb 07 2d c3 3e b9 e6 ec 3b 28 52 a0 3e
       -0.006806379 0.3812029 0.0072296527 0.3131268
0000b0 32 67 7e 3e dd 08 a9 3e ac b6 f2 3d 85 d5 99 3c
       0.24844053 0.33014575 0.11851248 0.018778572
0000c0 6d bb 6a 3e fb cc 0e 3c 98 4f 44 3d 98 82 9e 3e
       0.2292306 0.008715863 0.04792747 0.3095901
0000d0 81 68 30 be c1 f2 2b 3d 08 4f 84 3d 93 da d8 3d
       -0.17227365 0.041979555 0.064603865 0.10588565
0000e0 d8 94 85 3e 9f f5 26 3d 18 9e 65 3c 8a d4 0d bc
       0.2609012 0.040761586 0.014014743 -0.00865663
0000f0 6e d2 15 bd 45 1c bb bc c9 02 79 bd d9 91 03 be
       -0.036577635 -0.022840628 -0.06079367 -0.12848605
000100 85 99 29 3e 8b d6 2b 3e 76 89 c4 3d 28 26 3d 3d
       0.1656247 0.1678106 0.09596531 0.046178967
000110 87 ca 58 3e 5a 79 9d 3d 40 06 0d 3e 75 71 12 3d
       0.21171008 0.076891616 0.13771915 0.035752732
000120 d0 23 d4 bc 8f 9c b5 3d ed f8 02 3d d9 a0 bf bd
       -0.025895983 0.08867752 0.031975675 -0.09356851
000130 34 49 32 3d 5f 44 7d 3d 42 dd 87 bb 35 af e9 3d
       0.043526843 0.061832782 -0.004146249 0.11410371
000140 6c 00 fa 3d 2a 19 f2 3d fc 62 90 bd f6 f8 40 be
       0.12207112 0.11821206 -0.0705013 -0.18844971
000150 26 81 89 bd 96 28 02 3e 28 bd 70 bc d6 09 ce bc
       -0.06714086 0.12710795 -0.014693536 -0.025151175
000160 94 92 0a bd 25 84 6a 3e 8a 71 dc bd 41 d4 09 bb
       -0.033831194 0.22901972 -0.10763843 -0.0021031054
000170 49 f6 9b 3d e8 5e a8 3d 40 53 10 3d f5 f9 dd 3d
       0.076153345 0.08221227 0.035235643 0.10838691
000180 2d 97 b6 3d 7b 8e 95 3c 7c 6a e9 3b 26 5f 1e bd
       0.08915553 0.018256417 0.0071232896 -0.03866496

net.net.2.weight f4 [100, 100]
000000 d5 4e a2 3d e9 d5 72 3d 4c 5f c8 ba b1 c7 d3 3d
       0.07925192 0.059286032 -0.001528719 0.103408225
000010 02 86 2e be 93 d6 a5 bd ef 9f 23 3e 66 7f eb bc
       -0.17043307 -0.080975674 0.15978979 -0.028747272
000020 c2 53 59 3e 44 f3 d2 3d 6b 52 69 3b 6c df 28 bd
       0.21223357 0.103003055 0.0035602103 -0.041228697
000030 c0 c7 9b bd d1 6e 4e 3d a7 2a 0b be e7 4b ed bd
       -0.07606459 0.05039865 -0.1359049 -0.11586743
000040 04 ab 05 be 0b 65 6c 3d 20 b6 33 3d 62 66 1b 3e
       -0.13053519 0.05771355 0.04387486 0.15175775
000050 78 31 35 bb 31 b7 e5 3d d1 b1 37 3e 7d ee 3b 3c
       -0.0027647894 0.112165816 0.17938925 0.011470434
000060 e4 24 d1 3d fa f1 8d bd 86 6d 7b 3d 9d 99 41 3d
       0.102121145 -0.06930919 0.061383747 0.047265638
000070 e2 87 15 be 74 4a c6 bd 1c e7 1d 3d 8b fa cd 3d
       -0.14602616 -0.096821696 0.03855048 0.10057553
000080 fb a9 21 bd b5 f8 48 be 46 52 31 3e 72 f5 e7 39
       -0.039468747 -0.19626124 0.17316541 0.00044242624
000090 79 f6 cb bd 78 5f 4d 3e d8 79 27 3e 4b fa ed 3d
       -0.0995912 0.2005595 0.16355073 0.11620005
0000a0 e2 ab ea 3c 55 41 81 bd ff 9e 6b 3d 35 b0 ce bd
       0.028646413 -0.06311289 0.057524677 -0.100922026
0000b0 c5 71 30 be 28 5b a5 3d ae 04 3c bc 12 12 eb bd
       -0.172309 0.08074027 -0.011475725 -0.11478056
0000c0 14 9e 99 bd 5f 7a 3d bd aa 24 d7 bc 58 d3 b8 bd
       -0.07500854 -0.04625928 -0.0262626 -0.090246856
0000d0 a0 3b e2 bd a5 0b 12 3e 91 e5 16 3e bb b6 88 bd
       -0.11046529 0.14262255 0.1473601 -0.06675478
0000e0 b5 4b e5 3b c4 6c ca bc a9 70 9b 3d 37 f1 22 be
       0.0069975504 -0.024710067 0.075898476 -0.15912329
0000f0 ff ab 13 3e b7 8d 97 bb 98 57 bc bd 23 49 05 be
       0.1442108 -0.004625048 -0.09196395 -0.1301618
000100 a1 fe 0c be c0 bc 1e be 2a b1 98 3c f4 ed 08 3e
       -0.13769008 -0.1550169 0.018639166 0.13372022
000110 ef 3c 7b bd b7 99 5f bd 99 12 a3 bd ba 72 17 3e
       -0.061337408 -0.054589953 -0.079625316 0.14789858
000120 09 e2 2c be 05 0e e3 3c d0 59 0a be 82 ee ce 3d
       -0.168831 0.027716646 -0.13510823 0.101040855
000130 1e 56 b1 3c 40 50 a0 3c 6d 25 15 bd 44 96 aa 3d
       0.02164751 0.019569516 -0.036412645 0.08329442
000140 26 ea 30 3c b9 b0 0a bd 00 f1 08 be b5 2b 24 3d
       0.010798013 -0.033859942 -0.13373184 0.040080745
000150 f5 11 71 3d 5f 17 17 3e e9 2b 61 bc b8 1e 93 bd
       0.058855016 0.14755009 -0.013743379 -0.071835935
000160 dd 09 2e 3c aa 9c c0 bc aa 18 32 3c f6 3a b8 bd
       0.010622469 -0.023512203 0.010870138 -0.08995621
000170 57 c3 ba 3c 11 a3 a0 bd 67 01 a1 bc f9 d0 ba bd
       0.022798223 -0.078436024 -0.019653989 -0.091218896
000180 8c 4f 51 3d d9 aa a1 3d 8c 10 25 3e 65 ff fd 3d
       0.051101252 0.07893915 0.16119593 0.12402228
000190 8a 7a f1 3d 80 76 81 3d 2d a8 7e bd a1 a8 9c bc
       0.117909506 0.0632143 -0.062172104 -0.019123377
0001a0 dc 81 c3 3d 0d 48 92 bd 73 73 b0 bd 4b a7 d9 bd
       0.09546253 -0.07142649 -0.0861577 -0.10627612
0001b0 9e 67 d4 bd 54 dd e4 bc 9c e5 76 3b 92 87 59 bd
       -0.10371326 -0.027937569 0.003767348 -0.053107806
0001c0 06 9a 0f be fc 52 2e bb f0 59 94 bd 65 a0 a7 bd
       -0.14023599 -0.0026599756 -0.07243717 -0.0818489
0001d0 bb d4 42 bd 8b 0b ab bc 27 2c ed bd 40 d7 04 3e
       -0.047566157 -0.020879528 -0.11580687 0.12972736
0001e0 77 36 a2 bd ea e2 56 bd 2a 17 db bd d7 58 06 3e
       -0.079205446 -0.052462496 -0.106977776 0.13119827
0001f0 e8 77 8f ba c0 7c 13 3e a0 12 27 be 82 c8 0a be
       -0.0010945769 0.14403057 -0.16315699 -0.1355305
000200 02 1a e6 bb 92 e5 e6 bd 28 f7 52 bd 86 2b a4 bc
       -0.0070221433 -0.11274256 -0.051505238 -0.020040285
000210 c3 e5 b9 bc 96 7d 03 be 1e ec 0d 3d ba 62 25 be
       -0.022692567 -0.12840876 0.034649007 -0.16150942
000220 38 69 94 bd 59 87 13 be 61 17 2e bd ec b5 0b 3d
       -0.072466314 -0.144071 -0.042502765 0.03410904
000230 e7 b8 2d 3e 76 5f 9b bd f3 9b 73 3d 0d cd 8d bc
       0.16965066 -0.07586567 0.059474897 -0.01730969
000240 e5 d9 de ba 17 94 96 bc 53 9a f7 bc 93 ee 04 be
       -0.0017002193 -0.018381162 -0.030224955 -0.12981634
000250 0f 09 cc bd 2d f0 de 3d 0b 68 05 bd 3d e0 09 be
       -0.09962665 0.10885654 -0.032569926 -0.13464446
000260 ef 0f 8e bd e5 03 dc bd ae 97 1a bc 18 92 04 be
       -0.06936633 -0.1074293 -0.009435577 -0.12946355
000270 a4 be da 3d 51 ee fb 3d 25 69 de bd 0a af cc 3d
       0.10680893 0.123013146 -0.108598985 0.099943236
000280 c6 b3 02 be ab d8 52 3d 00 40 2d 3e 89 4b 21 3d
       -0.1276389 0.051476162 0.16918945 0.039378677
000290 7f 4e 2a be 28 a9 7b 3d 9c aa 09 be d0 55 21 3e
       -0.16631506 0.061440617 -0.13443989 0.15755391
0002a0 8c 1c c9 3d 2c bc b6 3d d6 42 5a bd 13 ea 0a be
       0.09819898 0.0892261 -0.053286396 -0.13565855
0002b0 64 3e ff 3d 27 18 07 3e c7 c4 7d 3d 03 e6 aa bc
       0.12463072 0.13192807 0.06195524 -0.020861631
0002c0 c5 8f 30 be 46 43 25 3d 64 87 b2 3d fd 9c 27 3e
       -0.17242344 0.04034736 0.0871723 0.1636848
0002d0 b7 c3 1b be 36 c9 37 bd bf 26 19 3d ef d9 a4 bd
       -0.15211378 -0.044869624 0.037390467 -0.0804938
0002e0 fb 56 67 3d e9 3c 57 bd 27 3f d2 bd 0d 86 14 be
       0.056479435 -0.052548323 -0.102659516 -0.14504261
0002f0 85 cd d3 3d 49 a7 c5 bd 0f 87 a2 bd 0f a3 70 bc
       0.10341934 -0.09651048 -0.07935917 -0.014687314
000300 a9 ea 00 3c 06 89 a3 bd d6 30 f8 bd 13 f6 67 3d
       0.007868447 -0.079851195 -0.1211869 0.05663116
000310 6a 9e 9e bd 3c 56 01 be 48 e1 97 bd df de f9 bd
       -0.07745059 -0.12630552 -0.07416016 -0.122007124
000320 bd 96 03 3e 49 68 af 3d f4 90 8a 3d 77 98 02 3e
       0.12850471 0.08564813 0.06765929 0.12753473
000330 7f bc ee bd a2 cb 5d bd 8d 4b 12 3d 01 f1 7e 3d
       -0.116570465 -0.054149278 0.035716582 0.062241558
000340 0c 6a c2 bd 89 a7 98 bc 7c 5f a8 3d 22 5b 7e bd
       -0.09492883 -0.018634574 0.08221337 -0.06209863
000350 26 4e d7 bd fe 07 08 3e 9b bd a2 bd ff e5 60 bd
       -0.105129525 0.13284299 -0.079463206 -0.05490684
000360 9f 89 09 3d e4 3a a5 bd 05 12 f5 3d be 2f 94 3d
       0.03357851 -0.08067873 0.119663276 0.072356686
000370 9e b9 ea bc d0 b6 de bd 27 43 5b 3d 6c 62 06 be
       -0.028652962 -0.108747125 0.05353084 -0.13123482
000380 b9 e1 07 3d 4e c6 04 3d a5 e4 46 3d 19 c8 2f be
       0.03317425 0.03241568 0.048557896 -0.17166175
000390 3f 1b 03 be 9a 9e c9 bd 41 7b 1f 3e 01 69 21 bd
       -0.12803362 -0.09844704 0.15574361 -0.03940678
0003a0 30 72 06 3d 0f 2d 7f 3d 73 17 1a 3e bc f2 0d 3e
       0.03282374 0.06229883 0.15048008 0.13862127
0003b0 f3 f6 25 be 82 0b 4f 3d 6a bd 1d be 08 b8 b8 bd
       -0.16207485 0.050548084 -0.15404287 -0.09019476
0003c0 c2 83 34 be 21 1d b2 3d fb 24 f2 3c 61 6f ee 3d
       -0.17628387 0.08696962 0.02955865 0.116423376
0003d0 34 b0 02 3d 4d e0 13 3e da ab 59 bd 88 be 10 be
       0.03190632 0.14441033 -0.053142406 -0.14135182
0003e0 e3 60 d8 bd 66 46 11 3e 8b e3 ac 3d 4e 2d 6f 3d
       -0.10565355 0.14187011 0.08441838 0.058392815
0003f0 26 03 24 be 57 c6 d4 bb 4a 4c cc bd 26 e3 90 bd
       -0.16016826 -0.0064933705 -0.099754885 -0.07074575

net.net.2.bias f4 [100]
000000 bd d5 0f bc cf fa 10 b9 fc d4 38 3c 06 55 a2 3c
       -0.0087789865 -0.00013826344 0.011281248 0.019815933
000010 17 8b aa bc 38 07 d1 bc 7c 73 56 3c 0f 98 64 bc
       -0.020818276 -0.025516137 0.013089057 -0.013952269
000020 d4 a8 93 3c 48 82 88 bc c4 a2 b1 38 9e 02 fd bc
       0.01802484 -0.016663685 8.470335e-05 -0.030885037
000030 29 68 70 3c 01 5d 46 bc 0c 12 2c bb 21 81 5d 3d
       0.014673271 -0.012107135 -0.0026255874 0.054078225
000040 26 24 65 bc e2 c6 46 bc 4e 1b 4d 3c 2b ad 2d bd
       -0.013985669 -0.012132378 0.012518717 -0.042401474
000050 22 a0 25 3d 66 2d 22 3d 20 d1 38 3d a4 a8 53 3d
       0.040435918 0.039594077 0.045121312 0.0516745
000060 77 c5 5b bc dc 95 3d bc 9e 70 5a 3c 5c 0b 50 bc
       -0.0134137785 -0.011571374 0.013332514 -0.012698021
000070 10 b8 f7 3c b1 42 1d bc 0b b0 08 3d 69 ac da 3c
       0.030239135 -0.00959842 0.033371013 0.02669354
000080 bb d1 64 bc 45 33 18 bd 0b 75 0a bc e8 fd a4 bc
       -0.013966019 -0.03715827 -0.008450757 -0.020140603
000090 3a 0f 29 3c a9 a9 09 bc 77 f5 5f bc f7 a7 e4 ba
       0.010318572 -0.008402267 -0.013669363 -0.0017445077
0000a0 2a 7e 0d bc 54 ee 27 3d 9f e6 b4 bc ea 8b 43 3d
       -0.008636037 0.04099877 -0.022082625 0.047740854
0000b0 72 f7 02 bd e5 7c db 3d b3 59 7c bd 1b 80 59 bc
       -0.031974263 0.10717181 -0.06160898 -0.013275172
0000c0 e5 ae 62 3d b3 59 a8 bb f5 c5 01 3d c3 a3 de bc
       0.055342574 -0.005137646 0.031682927 -0.027177697
0000d0 a0 c4 9d 3d f0 2c dc 3c 2d 26 33 bc 89 87 31 3d
       0.07703519 0.026876897 -0.010934395 0.043342147
0000e0 a9 72 99 bb f5 e0 60 3d f2 a9 f6 39 90 4d d9 ba
       -0.004682858 0.054902036 0.00047047395 -0.0016578902
0000f0 8c 9b ce 3b 18 8d e3 bb a6 26 77 bc a2 74 2e 3d
       0.0063051637 -0.00694431 -0.015084898 0.0425917
000100 9d 28 3c bc f3 b8 d2 bc 23 94 0b bd 49 8a 29 3d
       -0.011484292 -0.025722956 -0.03407682 0.041391645
000110 e8 b2 99 3d e5 63 7b 3d 3b 08 bf 3d 54 07 5f 3d
       0.07504827 0.061374564 0.09327742 0.054450348
000120 1c 9d eb 3c 19 43 59 3c 02 da 10 3d 19 4a df bb
       0.028761439 0.013260626 0.03536416 -0.006814253
000130 5f 8b 06 bc 46 56 21 ba 7a 78 6b 3b 70 cf db bb
       -0.00821194 -0.00061545183 0.0035929964 -0.006708078
000140 4d 00 48 bc c8 b5 b4 ba 60 2a 7d bc 2b 39 24 bd
       -0.012207103 -0.0013787085 -0.0154519975 -0.040093582
000150 e8 3d 59 3c 70 60 a6 bd 2a bb e2 37 d9 e8 60 bd
       0.0132593885 -0.08123863 2.7028454e-05 -0.05490956
000160 16 0c 99 3c 0e 2c 41 bc 5e 09 b4 bb 51 51 56 3d
       0.01868252 -0.011790289 -0.0054942807 0.052323643
000170 76 65 7e bd c3 85 1a bc 45 4a 79 3d f2 95 10 bd
       -0.06210848 -0.009431305 0.060861845 -0.03529925
000180 f7 cd 01 bc 7d 08 8c bd 3d 60 7b 3d 16 3d a4 3c
       -0.007922641 -0.068375565 0.061371077 0.02004866

net.net.4.weight f4 [10, 100]
000000 ba e8 ef 3d e3 3b c0 3d 6d df 20 be 14 30 32 3e
       0.11714311 0.093864225 -0.1571023 0.17401153
000010 b6 7b 2c be 13 85 5d bd 15 9f 5a 3e 02 b0 48 be
       -0.16844067 -0.054081988 0.21349747 -0.19598392
000020 10 b7 b7 3e 2b d9 76 be c3 a3 5a be af eb 1b 3e
       0.35881853 -0.2410628 -0.21351533 0.15226625
000030 e5 2e 64 be a1 9b 21 3d 9b 7a 71 be d8 dc 60 3e
       -0.22283514 0.03945506 -0.23581927 0.21959245
000040 84 96 01 3c d8 b5 2f be 81 f0 cc 3d f7 fb 48 be
       0.007909421 -0.17159212 0.1000681 -0.19627367
000050 93 82 56 bd 42 0a f5 bd 23 ce 4e be df 0f 89 3e
       -0.05237062 -0.11964847 -0.20195822 0.2676992
000060 1a 5d 3f be b8 f5 86 bd 4d 4e eb 3d 17 75 4a 3e
       -0.18687859 -0.06589836 0.11489544 0.19771229
000070 a9 3b 25 be 13 22 46 3e 7c 61 6e bc 11 40 b1 3d
       -0.1613604 0.19348936 -0.014549609 0.08654798
000080 62 c8 bb 3d 0c 30 5e bd 76 43 5b 3e 6b 35 b3 3d
       0.09169079 -0.05424504 0.21412453 0.08750423
000090 67 2e cb 3d 8d 86 c6 3d 19 f9 c9 bc cb 58 8e bc
       0.0992096 0.09693632 -0.024654912 -0.017376324
0000a0 53 28 fa 3d 10 c6 d0 bd b1 05 ac 3d b0 80 3a be
       0.122147225 -0.101940274 0.08399523 -0.18213153
0000b0 2c 8c 41 3e cd 74 55 3d 27 58 e7 bc 9f 61 16 be
       0.18901128 0.052113343 -0.028240277 -0.14685677
0000c0 b6 f9 39 3d 11 3c b8 3d e5 d4 86 3d ff a3 08 3e
       0.04540416 0.08995832 0.06583575 0.1334381
0000d0 96 84 0b be ba dc 17 3e 5d 12 aa bd 85 13 01 be
       -0.13624796 0.14830294 -0.08304284 -0.12605102
0000e0 79 30 cb bd e3 a0 f0 bb a1 00 de 3d 2b 7c 3f bd
       -0.09921355 -0.007343398 0.10839964 -0.046749275
0000f0 c5 49 e7 3d 61 fb 3a 3e ac 7c 3c 3e 36 00 06 3e
       0.11293367 0.18259956 0.18406934 0.13086018
000100 80 35 1a bd 42 ef a7 bd fb 91 97 3d 52 f3 2b be
       -0.037648678 -0.08199932 0.074008904 -0.16792038
000110 c9 48 ac bd 9f 15 22 3e 51 74 59 be 4b 81 2c 3e
       -0.0841232 0.1582856 -0.21235777 0.16846196
000120 2f 29 33 3d 99 a5 f6 3d 05 8a c0 bd c9 37 49 3e
       0.043740448 0.12043304 -0.09401325 0.19650187
000130 cc 68 46 be b8 69 8d be 65 2b 8c bc 25 d6 86 3c
       -0.19375914 -0.2761972 -0.017110536 0.016459534
000140 47 6d 41 be 9c c0 d3 3d 4c e3 19 bd ba ae 98 bd
       -0.18889342 0.10339472 -0.037570283 -0.074552014
000150 6b ac f9 bd 28 dd b4 3d 85 15 f5 3d 1b 6f 2e 3d
       -0.12191089 0.08831245 0.11966995 0.042586427
000160 fd e7 57 3e 56 76 2e be df 43 60 be 26 75 d8 bd
       0.2108459 -0.17037329 -0.21900891 -0.10569219
000170 d3 fd 4b 3d c0 4b 51 bb 4e 45 fd 3d 89 2c 3f 3d
       0.049802613 -0.003193602 0.123667344 0.04667333
000180 20 fd 2d be 6b 1c c6 3d 9b c0 a7 bd 20 24 89 3e
       -0.16991091 0.09673389 -0.081910335 0.26785374
000190 a0 89 8c 3e 9c 78 58 3e 5c 1b 3b 3e 01 a8 fd bd
       0.2744875 0.21139759 0.18272156 -0.1238556
0001a0 39 e8 2e 3e 3f db 05 3e d6 32 4f be ad b0 e8 3d
       0.17080773 0.13071917 -0.20234236 0.11361823
0001b0 c6 61 0f 3e 2f 13 19 bd bf 1e b9 3d e8 e7 58 be
       0.14002141 -0.03737181 0.090390675 -0.21182215
0001c0 e8 30 bd 3d 19 c4 9b 3d 87 3a b5 bd 23 ce df bd
       0.09237844 0.07605762 -0.08849054 -0.10927989
0001d0 1c ee a8 bd 1b 15 e2 3d 5d c2 14 3e 5e 9f 54 3e
       -0.08248541 0.11039182 0.14527269 0.20763919
0001e0 7f 03 4f 3e d5 9f 82 be ea ce 58 3e 09 73 c3 bc
       0.20216177 -0.25512567 0.21172681 -0.023858564
0001f0 35 6d 84 3d 95 6b e9 bd c4 e4 86 3b fb 78 f8 3d
       0.06466142 -0.11397473 0.0041166265 0.1213245
000200 d8 b5 0f 3d 7e e9 b7 bd ba 91 e4 3d ed cb 2b 3e
       0.03508553 -0.08980082 0.11160608 0.1677701
000210 4f bd 0b bd 55 f4 6f 3d 82 9e 17 be 6f 90 25 3c
       -0.034116086 0.058582623 -0.1480656 0.010105236
000220 b4 6f 02 be a5 84 84 3d 8d f0 1f 3d 3d c3 40 be
       -0.12737924 0.064706124 0.039047766 -0.18824477
000230 a5 be f6 bd 02 08 f3 3d 8e e4 05 3e 9f b6 9f 3e
       -0.12048081 0.11866762 0.13075468 0.31194016
000240 68 bc ab 3d 1f 8c 6f bd cc 47 6a be e1 42 22 be
       0.08385545 -0.05848324 -0.22878951 -0.15845825
000250 51 6d 85 be 39 30 44 be 74 ff 88 be 62 5c 4c 3e
       -0.26059964 -0.1915902 -0.26757395 0.19957116
000260 73 e6 b7 bd 5a 50 34 3e 4d 38 0e 3c d7 de 95 3e
       -0.089795016 0.17608777 0.008680415 0.29271576
000270 7d de 06 3d 52 9a a4 bd 8b ab 85 bc 1f c0 27 3e
       0.032927025 -0.08037247 -0.01631715 0.16381882
000280 c5 e8 bb bd 05 06 8c 3e e3 b4 a2 3e bc b1 ea bc
       -0.09175257 0.27348343 0.3177863 -0.028649203
000290 1a 08 9c 3d 2a de d0 3d 5d ca 0b 3d a5 97 85 be
       0.07618733 0.101986244 0.034128536 -0.26092258
0002a0 fb c6 7f be 1a 88 1d 3e b7 7e 5e be 66 c5 6b be
       -0.24978249 0.1538395 -0.21728025 -0.2302452
0002b0 08 77 22 be 05 1e 1e 3d 77 c6 9e 3e 8c 36 19 be
       -0.1586572 0.038602848 0.31010792 -0.14962214
0002c0 76 11 16 3e c3 cb 3b be 12 6a c3 bd 90 19 3a 3e
       0.14655098 -0.18339448 -0.09541716 0.18173814
0002d0 17 d4 6a 3e 1a 53 9c bd 1e 25 6e be 87 71 04 be
       0.22932468 -0.07633038 -0.23256347 -0.12933932
0002e0 04 95 d1 3c 01 7b f3 3d 0e a3 9a bd 50 c5 12 be
       0.025583751 0.118886955 -0.075506315 -0.14333081
0002f0 fa 67 3c be 0c 97 03 be 8c a7 55 be 21 c3 86 3e
       -0.18399039 -0.12850589 -0.20864695 0.26320747
000300 ad f6 2e bd fc 70 74 be 57 f3 e1 bd 48 1e 55 bd
       -0.042715717 -0.23871225 -0.110327415 -0.05203083
000310 38 59 e0 3d 7f c6 10 be 75 89 6a 3d 2e 71 71 be
       0.10954517 -0.1413822 0.057259995 -0.23578331
000320 a8 b7 1a be 38 a9 c6 bb 61 f4 53 be 6d a6 2a 3e
       -0.15109122 -0.006062653 -0.20698692 0.16665049
000330 fd 55 cf bd d2 e6 8b bb 37 52 29 3e 9f 88 01 bd
       -0.10123823 -0.0042694593 0.16535269 -0.031624433
000340 0f b1 36 be 0e d9 b4 3a c3 4b e3 bc aa 76 f9 bd
       -0.1784098 0.0013797597 -0.027746087 -0.121808365
000350 80 44 58 be 43 66 1f be a0 64 a1 3c e8 87 15 3e
       -0.2111988 -0.15566353 0.019701302 0.14602625
000360 39 8d dd 3d 56 1a 37 be d1 5d 70 3e 77 1a 2c be
       0.10817952 -0.1788114 0.23473288 -0.1680697
000370 d8 ca a4 3d 83 c5 78 3c 7c 1e 42 bd 06 db bd bd
       0.08046502 0.015183809 -0.047392353 -0.09270291
000380 3c d5 94 3d dd 26 3f 3e ed ab a0 3d c6 2d 25 bd
       0.07267234 0.18667169 0.07845292 -0.040326856
000390 86 60 b3 bd 60 57 67 3e e0 c8 7a be 32 18 9f 3d
       -0.08758645 0.22591925 -0.2449069 0.07768287
0003a0 22 c9 c8 bd c1 d7 e5 3d e8 68 c0 bc da 41 ca 3d
       -0.09803988 0.112227924 -0.023487523 0.098758414
0003b0 b1 9d 3f 3e bf b4 ec 3d 94 cf 90 3d b5 78 2e bd
       0.18712498 0.11557912 0.070708424 -0.042595584
0003c0 4b bd 19 bd 2a 8b 35 3e 04 33 01 3e 46 f1 de bd
       -0.03753404 0.17728868 0.12617117 -0.10885863
0003d0 82 29 76 3e 80 de f9 3d 65 af 64 be 99 af d1 bb
       0.24039271 0.12200642 -0.22332533 -0.0063991067
0003e0 8b 88 7d 3d e4 3c 21 be 29 63 d6 bd c7 81 c8 3d
       0.061897796 -0.15745884 -0.10468132 0.09790378
0003f0 c8 ea 1e be 9f 94 63 be a3 d3 68 be 40 42 cf 3d
       -0.1551925 -0.22224663 -0.22736983 0.10120058

net.net.4.bias f4 [10]
000000 cb bb a0 bc af e6 10 bd 1b c3 d1 bc 29 1a 51 bb
       -0.019620797 -0.035376247 -0.025605729 -0.0031906462
000010 77 bd ae bd 19 ea 82 3e 47 ba b3 3d 71 31 2a bd
       -0.08532231 0.25569227 0.08775764 -0.041551057
000020 e3 7d de bc 25 51 d8 bd
       -0.027159637 -0.10562352
